aimnet/pretrained/aimnet/aimnet_mt_cv4.pt (torch_old, 401730 bytes, 16 tensors)

volume.0.weight f4 [128, 128]
000000 12 f2 67 3d 50 1c db bd 1d e5 13 3b b2 25 c0 bd
       0.05662734 -0.106987596 0.0022566982 -0.0938219
000010 78 7d 98 bd e3 a4 83 3d 06 14 c9 bd b3 a6 39 3c
       -0.07445806 0.06427934 -0.09818272 0.011331248
000020 b7 12 c6 bc e0 b9 8b 3d ec 92 1c 3c 91 59 2d bd
       -0.024178846 0.06822562 0.009556513 -0.042321745
000030 b3 bc dd bb dd 39 14 be 1b 43 a3 bd 1e 8d 30 bd
       -0.0067668795 -0.14475198 -0.07971784 -0.04310333
000040 ae 9f 77 bd 7d 66 17 bd 16 93 e6 3c 90 7b 22 be
       -0.060455017 -0.036962975 0.028146308 -0.15867448
000050 ab 16 1f 3e 2d fc 0a bd 77 5a 89 3d 41 f6 a6 3d
       0.15535991 -0.0339319 0.06706708 0.08152438
000060 aa c4 1e 3d 0a cd 49 3d 19 c0 11 be 69 92 01 bd
       0.038761772 0.049267806 -0.14233436 -0.03163377
000070 25 f9 b1 bb cd 1b 93 3b 58 34 02 be dd c5 2e bd
       -0.0054313117 0.004489398 -0.1271528 -0.042669166
000080 ba 88 70 bd b8 fc 26 bd 7b 94 70 bd 7a ae 03 3e
       -0.058724143 -0.040768355 -0.058735352 0.12859526
000090 d5 a2 44 3e e1 76 bc 3c 61 06 99 3c c0 dd 47 3d
       0.1920274 0.023005905 0.0186798 0.04879546
0000a0 3f d2 19 bd 91 f0 f4 3d 32 6c 3f 3d 41 ec 14 3e
       -0.037554022 0.11959947 0.046734042 0.14543249
0000b0 38 55 13 3d 31 7b fb 3d c9 f8 d9 3d 4d 42 a0 bc
       0.035969943 0.12279356 0.10643155 -0.019562865
0000c0 a2 fe 5a bc 7d a0 0a 3e a3 82 98 bd 1c a5 87 bd
       -0.013366373 0.13537784 -0.07446792 -0.06623289
0000d0 05 23 31 3d 63 3e 1b 3d 43 07 12 3e f1 28 fd bc
       0.043246288 0.037901293 0.14260583 -0.030903311
0000e0 81 47 17 be 2e 13 26 3c 1c 76 33 bd ff ba 90 bd
       -0.1477337 0.010136409 -0.04381381 -0.07066917
0000f0 40 f4 8a 3d 05 a1 ee 3d 43 f5 40 bd 14 d9 39 3b
       0.06784868 0.11651806 -0.0471089 0.0028358148
000100 8e 24 1a bd 27 23 ab bd 3a b2 2b 3e 46 ff 0e be
       -0.037632518 -0.08356314 0.16767207 -0.13964567
000110 38 a3 8e bc 86 f0 a7 bd 12 f4 3a 3c e5 2d 07 3d
       -0.017411813 -0.08200173 0.01141073 0.033002753
000120 20 2a c3 3c 91 c8 a4 39 55 c4 2d be 36 ab 4f 3e
       0.023823798 0.0003142995 -0.16969426 0.20280156
000130 b2 8b b4 bd 6c 82 ef 3d bb c8 70 3d a3 32 83 3b
       -0.08815707 0.11694798 0.05878518 0.004003839
000140 b2 00 0b 3e ac 25 14 3e 14 64 86 3d 56 42 0f 3e
       0.13574484 0.14467496 0.06562057 0.13990149
000150 a6 f9 4a bd 55 a5 b8 3b e8 da 75 bd 30 86 be bd
       -0.04955449 0.0056349435 -0.06002322 -0.09302938
000160 2d 3a 70 3d 6e b6 bb 3d 19 f6 6c bd 09 44 cb bd
       0.05864923 0.09165655 -0.057851885 -0.09925086
000170 82 70 cf 3d 30 2a 7e 3d 25 75 7e bd 74 09 39 be
       0.10128881 0.062051952 -0.062123436 -0.18070012
000180 32 6a e5 bd ca 00 0f 3d 18 ad 2f bd d6 2d bc bd
       -0.11201896 0.034912862 -0.042889684 -0.0918843
000190 ae 24 c3 3d bd 5f c4 bb 59 84 b3 bb e2 23 3d 3e
       0.095284805 -0.005992858 -0.0054784236 0.1847072
0001a0 c2 d9 ed 3d c6 90 10 be f5 61 16 bd 53 74 4f 3e
       0.116138 -0.14117727 -0.036714513 0.20259218
0001b0 10 2f b7 bd 1c 29 c3 3c 12 fd be 3d cd e7 f6 3b
       -0.08944523 0.023823313 0.09325613 0.007534957
0001c0 73 76 ac 3b 14 3b e7 3d 69 50 39 3d 6a 3c 7c bd
       0.0052631437 0.11290565 0.0452427 -0.061581053
0001d0 86 88 76 3d ff ef 60 be d0 3f 2d be 19 ee a4 3a
       0.060188793 -0.21966551 -0.16918874 0.0012583166
0001e0 d8 38 59 bd 12 7b 95 3b 18 08 5d 3d 16 5d fc 3d
       -0.053032726 0.0045617903 0.053962797 0.12322442
0001f0 69 b9 90 bd 8b d5 93 3d 96 47 fa 3c 7b 77 1d 3e
       -0.07066614 0.072184645 0.030551713 0.1537761
000200 e2 53 b0 3d a5 74 8f bd b6 57 b0 bc a7 0d a8 bc
       0.086097494 -0.0700467 -0.021526199 -0.020514322
000210 89 76 40 bd 05 39 01 3e 09 8a 4f 3e dc bd ae 3d
       -0.046988044 0.12619407 0.202675 0.085323066
000220 f8 ab 04 3e 46 23 9d 3d 71 6f 64 bd 03 98 93 3a
       0.12956226 0.076727435 -0.05577034 0.0011260513
000230 98 c7 a6 bd a3 c7 88 3d 15 b7 3f bd d0 3a b7 ba
       -0.08143538 0.06678703 -0.04680546 -0.001397932
000240 87 0f 17 3c d4 d5 2d bc 59 14 17 bd e4 89 ab 3d
       0.009220011 -0.010610063 -0.03688464 0.0837591
000250 e8 ea c2 bd 11 0d 2c be b9 4e ba bd 75 9a 5f 3d
       -0.09517461 -0.1680186 -0.090970464 0.05459066
000260 4c 37 92 bd 30 de b2 bd 88 7a 48 bd 01 0f 95 3d
       -0.07139453 -0.08733785 -0.04894498 0.072782524
000270 1c 1d 11 3d 0f 9f e7 bd c2 37 7c 3d 40 76 1d bd
       0.03542815 -0.11309635 0.061576612 -0.03844285
000280 02 54 2c bd 70 ad 67 3d 55 20 60 3d d7 99 d9 3d
       -0.042072304 0.056561887 0.054718334 0.10625046
000290 b6 12 9b bc bb f1 5d bc cb 00 fb 3b 08 a8 8e bd
       -0.01892982 -0.013546403 0.0076600066 -0.06965643
0002a0 bd a6 5f 3e 21 74 25 bb f7 7f 0b bd b0 93 10 3e
       0.2184095 -0.002524622 -0.034057584 0.14118838
0002b0 e1 46 08 be 26 61 54 bd e2 93 68 bd 6e 2c ea 3d
       -0.13308288 -0.05185046 -0.056781657 0.114342555
0002c0 4d 46 c9 bc 3b 42 b5 bd 7b e5 d5 bd aa 04 7c 3d
       -0.024569655 -0.08850523 -0.104441606 0.061527885
0002d0 93 96 26 3e e7 58 6f be d5 b1 73 bc eb eb 1c 3e
       0.16268377 -0.23373757 -0.014873941 0.1532437
0002e0 1d 2b 07 bb b0 56 49 bd b3 9e 88 3d 43 7b 20 bc
       -0.0020625063 -0.049154937 0.066708945 -0.009795013
0002f0 f9 ba 6c 3c a7 a5 26 bc c2 63 3c bd a0 e0 3f bd
       0.014448875 -0.0101713305 -0.045993574 -0.04684508
000300 3d bd db 3d 72 8f 4d 3d 2c b4 21 3e 17 ca be bd
       0.10729454 0.05018563 0.15791386 -0.09315889
000310 c2 e3 99 bd 50 7e 7a 3e 65 69 0c 3c 36 e7 2f 3c
       -0.075141445 0.24462247 0.00857005 0.010736277
000320 9c 54 2d 3d 34 78 ba 3d 28 9f a1 bd f8 7c ff bd
       0.042317018 0.09104958 -0.07891685 -0.12475008
000330 7e c0 d9 bd b8 90 d9 3d 2a 7d 73 be 5d 2d 1e 3e
       -0.10632418 0.10623306 -0.23778215 0.15446992
000340 e4 68 17 3d 53 29 33 bd b4 84 06 bd f5 91 07 3d
       0.036965266 -0.04374058 -0.0328414 0.03309818
000350 ec 00 39 bc fa f9 e7 3d be ac dd bb ff da e6 3d
       -0.011291724 0.11326976 -0.0067649772 0.11272239
000360 00 43 cb bb 3b 40 31 3d 14 ac 07 be 5b 4c 3a bd
       -0.0062030554 0.043274146 -0.13249236 -0.045482974
000370 f4 a6 14 3e 47 8a 5c 3b 0b 75 5a be 7a ef e4 3d
       0.14516813 0.0033651756 -0.21333711 0.11178489
000380 f0 b3 5f 3e 30 38 02 be 0f 04 11 3b 1c cf 00 3e
       0.21845984 -0.12716746 0.0022127663 0.12579006
000390 3a c1 ae bd 68 ee dc 3b 1e 77 47 3d 9c aa 29 3e
       -0.08532949 0.0067422874 0.048697583 0.16568989
0003a0 a0 78 a7 3c 3c c3 e0 3c 73 8d f0 bc b5 16 ef 3d
       0.02044326 0.027436845 -0.029364323 0.11674253
0003b0 19 ca 3d bd a5 c0 ee 3c e5 f9 c2 3d 62 44 7a 3c
       -0.046335313 0.029144594 0.0952032 0.015275093
0003c0 af 2a e8 ba fe 90 3b 3e 1f 8a db 3c 4b 1b f9 bb
       -0.0017712916 0.18317029 0.02679926 -0.0076021305
0003d0 16 fc 9f 3d 25 7e c6 bc e2 2b 8c 3d da 8e 77 bd
       0.078117535 -0.024230072 0.068443075 -0.06043897
0003e0 c1 48 a0 3d 3c ab b2 bc 54 79 2d 3e 12 fc af bc
       0.07826377 -0.021810167 0.16940814 -0.021482501
0003f0 cd 81 87 3d 8d 75 ee bd 17 b0 45 3c 1d f7 3e 3d
       0.066165544 -0.11643515 0.012065909 0.046622384

volume.0.bias f4 [128]
000000 00 00 00 00 00 00 00 00 00 00 00 00 00 00 00 00
       0.0 0.0 0.0 0.0
000010 00 00 00 00 00 00 00 00 00 00 00 00 00 00 00 00
       0.0 0.0 0.0 0.0
000020 00 00 00 00 00 00 00 00 00 00 00 00 00 00 00 00
       0.0 0.0 0.0 0.0
000030 00 00 00 00 00 00 00 00 00 00 00 00 00 00 00 00
       0.0 0.0 0.0 0.0
000040 00 00 00 00 00 00 00 00 00 00 00 00 00 00 00 00
       0.0 0.0 0.0 0.0
000050 00 00 00 00 00 00 00 00 00 00 00 00 00 00 00 00
       0.0 0.0 0.0 0.0
000060 00 00 00 00 00 00 00 00 00 00 00 00 00 00 00 00
       0.0 0.0 0.0 0.0
000070 00 00 00 00 00 00 00 00 00 00 00 00 00 00 00 00
       0.0 0.0 0.0 0.0
000080 00 00 00 00 00 00 00 00 00 00 00 00 00 00 00 00
       0.0 0.0 0.0 0.0
000090 00 00 00 00 00 00 00 00 00 00 00 00 00 00 00 00
       0.0 0.0 0.0 0.0
0000a0 00 00 00 00 00 00 00 00 00 00 00 00 00 00 00 00
       0.0 0.0 0.0 0.0
0000b0 00 00 00 00 00 00 00 00 00 00 00 00 00 00 00 00
       0.0 0.0 0.0 0.0
0000c0 00 00 00 00 00 00 00 00 00 00 00 00 00 00 00 00
       0.0 0.0 0.0 0.0
0000d0 00 00 00 00 00 00 00 00 00 00 00 00 00 00 00 00
       0.0 0.0 0.0 0.0
0000e0 00 00 00 00 00 00 00 00 00 00 00 00 00 00 00 00
       0.0 0.0 0.0 0.0
0000f0 00 00 00 00 00 00 00 00 00 00 00 00 00 00 00 00
       0.0 0.0 0.0 0.0
000100 00 00 00 00 00 00 00 00 00 00 00 00 00 00 00 00
       0.0 0.0 0.0 0.0
000110 00 00 00 00 00 00 00 00 00 00 00 00 00 00 00 00
       0.0 0.0 0.0 0.0
000120 00 00 00 00 00 00 00 00 00 00 00 00 00 00 00 00
       0.0 0.0 0.0 0.0
000130 00 00 00 00 00 00 00 00 00 00 00 00 00 00 00 00
       0.0 0.0 0.0 0.0
000140 00 00 00 00 00 00 00 00 00 00 00 00 00 00 00 00
       0.0 0.0 0.0 0.0
000150 00 00 00 00 00 00 00 00 00 00 00 00 00 00 00 00
       0.0 0.0 0.0 0.0
000160 00 00 00 00 00 00 00 00 00 00 00 00 00 00 00 00
       0.0 0.0 0.0 0.0
000170 00 00 00 00 00 00 00 00 00 00 00 00 00 00 00 00
       0.0 0.0 0.0 0.0
000180 00 00 00 00 00 00 00 00 00 00 00 00 00 00 00 00
       0.0 0.0 0.0 0.0
000190 00 00 00 00 00 00 00 00 00 00 00 00 00 00 00 00
       0.0 0.0 0.0 0.0
0001a0 00 00 00 00 00 00 00 00 00 00 00 00 00 00 00 00
       0.0 0.0 0.0 0.0
0001b0 00 00 00 00 00 00 00 00 00 00 00 00 00 00 00 00
       0.0 0.0 0.0 0.0
0001c0 00 00 00 00 00 00 00 00 00 00 00 00 00 00 00 00
       0.0 0.0 0.0 0.0
0001d0 00 00 00 00 00 00 00 00 00 00 00 00 00 00 00 00
       0.0 0.0 0.0 0.0
0001e0 00 00 00 00 00 00 00 00 00 00 00 00 00 00 00 00
       0.0 0.0 0.0 0.0
0001f0 00 00 00 00 00 00 00 00 00 00 00 00 00 00 00 00
       0.0 0.0 0.0 0.0

volume.2.weight f4 [128, 128]
000000 21 23 7a bd 36 1e 28 3d 0c 7e aa 3c 22 ba a4 3d
       -0.061068658 0.041044436 0.020812057 0.080433145
000010 77 7f 9f bd fd a2 96 3b f0 cb ee bc 70 7e 11 3d
       -0.07787984 0.0045970664 -0.02914998 0.03552097
000020 5b b8 9c bd 4d 46 04 3d 7e 93 cb bd f0 75 12 bd
       -0.076523505 0.032293607 -0.09940241 -0.035757005
000030 e9 8c 1d be 07 71 85 bd 70 ed 86 bd 16 5b 3f bd
       -0.15385784 -0.06515699 -0.06588256 -0.046717726
000040 1e 94 5d bd 52 39 75 bd 68 09 c3 bd ae a5 16 be
       -0.054096334 -0.059869118 -0.095232785 -0.1471164
000050 50 5b e5 bc 8b cd a4 bc 33 80 26 bd 4c db 8b 3d
       -0.027997643 -0.020117542 -0.040649604 0.06828937
000060 4d 96 3a 3d d8 1e cc bc 94 52 a5 bd ae 6b 70 3d
       0.045553494 -0.024917051 -0.08072391 0.05869644
000070 72 58 41 3e 5c b0 16 be 6c 94 b9 3d 9a 74 b2 3d
       0.18881395 -0.14715713 0.09061512 0.08713646
000080 05 58 53 bd 60 73 52 3e 5c bb 8f bd 10 cf 07 3d
       -0.051597614 0.20551825 -0.07018158 0.033156455
000090 ba 33 a6 3d b2 52 6a bd 7b 04 01 3d b3 17 87 3d
       0.08115335 -0.05720777 0.031498414 0.06596317
0000a0 df 21 f9 bd 3b c2 10 3e c1 41 1d 3d 40 1e f7 3d
       -0.121646635 0.14136593 0.038392786 0.120663166
0000b0 ba d2 89 bd ef 88 2a 3d c8 da a2 3d 61 37 57 3c
       -0.06729646 0.041634496 0.079518855 0.013135762
0000c0 b6 7b bd bc 60 a9 98 bd b6 0d a8 bb 88 97 51 3e
       -0.023130279 -0.07454181 -0.0051285876 0.20467961
0000d0 06 a9 44 be 84 46 c0 bd b5 d2 62 3d 7b bb dd 3d
       -0.19205102 -0.0938845 0.055376727 0.10826775
0000e0 22 a3 19 be 46 71 0f bd 92 b9 49 3e 20 72 25 bc
       -0.15003636 -0.035020135 0.19699696 -0.01009801
0000f0 5e 17 36 bd 00 7d 3d ba 48 72 2a bd 65 2c 2e be
       -0.04445588 -0.0007228404 -0.041612893 -0.17009123
000100 11 e4 13 3e 94 d3 c6 3d 15 9b c9 3c 43 29 83 bd
       0.14442469 0.09708324 0.024610082 -0.064043544
000110 62 54 bb 3d e5 68 34 be 47 e6 5d 3b 71 30 ff 3d
       0.09146954 -0.17618139 0.003385918 0.12460411
000120 2b e2 46 be 34 df b8 bc ed 7d 63 bd 52 69 88 3d
       -0.19422214 -0.022567369 -0.055540014 0.06660713
000130 41 4f a1 3d ef ff 10 3e dc f6 2e bd 8f cb c5 3d
       0.078764446 0.14160131 -0.042715892 0.09657966
000140 57 3a 80 bd 88 8e 06 be 90 b3 8e bd fe 58 6b bd
       -0.062611274 -0.13140309 -0.069678426 -0.057457916
000150 1e 3e 6e bd b7 5d 0d be 5d 3d 01 3d b1 2d ae ba
       -0.05816471 -0.1380528 0.03155266 -0.0013288764
000160 63 dc 4a 3d 68 a3 73 3b 85 5d cf 3d 82 ee 80 bd
       0.049526583 0.0037176255 0.10125259 -0.06295492
000170 33 4e c4 3d 5e 16 3a be 22 77 84 bd e1 cb 47 3d
       0.09585228 -0.18172595 -0.06468035 0.04877842
000180 6e 58 f8 bb 1a ce ff bd 83 66 8d bd a5 8c 78 3d
       -0.007578901 -0.12490483 -0.06904318 0.060681004
000190 cd 0a 35 3c 8f 5d a7 bd 41 c9 c2 3d b5 7f c7 bd
       0.011049938 -0.08172142 0.095110424 -0.09741155
0001a0 e8 e5 31 3c ac ac 3a 3d 6f 50 4d 3d 2b 4f 1e 3e
       0.010858037 0.04557483 0.050125536 0.15459888
0001b0 32 3d 9b bd 86 70 95 bd 67 4a c2 bd 01 7d 49 3c
       -0.075800315 -0.07296853 -0.09486847 0.01229787
0001c0 fa 7f ab 3d 19 a8 82 bd f9 36 f4 3d 98 22 0e 3e
       0.08374019 -0.06379718 0.11924548 0.13880384
0001d0 81 64 a3 3d 47 50 cb 3d dd 00 bc bd 31 05 a7 bc
       0.07978154 0.09927421 -0.09179852 -0.020388218
0001e0 42 3d 0f bd f0 17 05 bd fe 22 7b 39 6a 2c cc bb
       -0.03497053 -0.03249353 0.00023950261 -0.0062308805
0001f0 20 dc 43 3d cf 90 33 bc d9 c2 78 3d ce e2 9e bd
       0.04781735 -0.010959818 0.060732696 -0.07758103
000200 0c 7e 27 3c 94 b1 b4 3b 14 14 11 3e a2 68 d3 bc
       0.010222923 0.005514333 0.14167815 -0.025806729
000210 4e 01 55 3d 87 39 93 bd cb bc bc bd 33 53 2e be
       0.052003197 -0.07188707 -0.09215697 -0.17023925
000220 c4 3f b6 bb cc f1 9a 3c ca 68 70 bc 6e f0 69 3d
       -0.0055618007 0.018914126 -0.014673421 0.057114057
000230 f6 f6 95 3d 5a e0 45 3d b3 87 62 bd 9a eb b2 bd
       0.07322495 0.04830966 -0.055305194 -0.08736344
000240 3f 6f 0c be df 22 7c 3c 4e a7 c2 bd 29 20 04 3e
       -0.13714312 0.015389173 -0.09504567 0.12902893
000250 bf 4a ec 3d bd ca d7 3a 17 81 c3 bd b9 2c 0c 3d
       0.11537694 0.0016463619 -0.09546106 0.03422234
000260 9a c4 5b 3e c0 16 c1 bc bc eb 01 3e 5a c2 83 3e
       0.21461716 -0.023570418 0.12687582 0.25734216
000270 22 a2 4b be b9 14 83 3d 0d 41 2c 3e 0b 7a 74 bd
       -0.19886068 0.06400437 0.1682169 -0.0596867
000280 27 a5 43 bd 12 18 b8 3a 21 f9 32 bd a0 2f fa bd
       -0.047764923 0.001404526 -0.04369462 -0.12216115
000290 18 3c 23 3e f5 74 55 3d 55 a6 64 3c f6 ee 3d bd
       0.15940893 0.052113492 0.013955672 -0.04637047
0002a0 cd 75 1c 3e d1 77 05 3d 21 9d 51 3d 47 90 84 3c
       0.15279312 0.03258497 0.05117524 0.016182078
0002b0 23 0b 39 bd cb 36 0d be ba 8b fc 3d 71 49 87 bd
       -0.045176636 -0.13790433 0.12331338 -0.06605805
0002c0 2c ee 07 3d ea 04 2e 3d d3 f9 51 3d 2d 39 3b bd
       0.033186123 0.042485155 0.05126364 -0.045708824
0002d0 92 be 1a bd 12 2e dd 3d a4 d9 01 be cb 42 a2 3d
       -0.0377794 0.10799803 -0.1268068 0.07922896
0002e0 b5 e8 00 be ad e2 36 3d bb 5b 59 3e 59 1a c4 bd
       -0.1258877 0.04464977 0.21226399 -0.09575338
0002f0 32 87 87 bc 8f 6c aa 3d a8 1b 06 3e 2b 1a ca bb
       -0.016543958 0.08321487 0.13096488 -0.0061676702
000300 2c 50 26 bb 51 b0 29 be 35 c5 9c be 40 28 4b bd
       -0.0025377376 -0.16571166 -0.30619207 -0.049598932
000310 83 2b bf 3d d5 5b e9 bd 20 d7 1c bd a0 e8 29 3e
       0.09334471 -0.11394469 -0.038291097 0.16592646
000320 42 5d 0f 3d 9c 97 ac 3d 7b 55 f3 3d a1 61 37 3a
       0.035001047 0.08427355 0.118815385 0.0006995444
000330 d1 72 db bc e0 d7 81 3d 77 85 d8 bd 59 a3 ca 3d
       -0.026788147 0.06340003 -0.105723314 0.09894437
000340 86 37 47 3e 32 4c 47 3d 95 2c 19 3d 6b 5f 8c 3d
       0.19454774 0.04865665 0.037396032 0.06854137
000350 56 8d fa 3c 33 c7 16 3e e7 a0 9f 3d b6 79 f8 3b
       0.030584972 0.14724426 0.077943616 0.0075828684
000360 ee 0a 07 3d 6c 86 c4 3d bd 27 bb 3c a5 c1 ce 3d
       0.032969408 0.095959514 0.022846097 0.100955285
000370 b1 ef 90 bd 16 88 7c bd d8 64 7e 3d eb 5f 75 be
       -0.070769675 -0.06165322 0.06210789 -0.23962371
000380 1f ff a9 bb 59 58 9a 3d 3d 2d 0b 3e 6c 8a 94 bd
       -0.0051878835 0.07536382 0.13591476 -0.072529644
000390 64 cf dc 3d ad 3a e5 bd 74 ef a6 bc 14 3a 60 3c
       0.10781744 -0.11192832 -0.020377852 0.013685722
0003a0 7c 52 64 3d 9b 4d 32 bd 19 2c 59 3d 55 e4 cf bd
       0.055742726 -0.04353104 0.05302057 -0.10150973
0003b0 cf d0 3d 3d 62 ff 42 3c 6c 85 af 3d 35 5f 19 bd
       0.046341714 0.011901708 0.0857037 -0.037444312
0003c0 3d f4 2b 3d ae 83 ee bc df 0f f1 3d 93 07 c9 3d
       0.04198097 -0.029115524 0.11770605 0.09815898
0003d0 05 8e 95 3d 33 75 7d bd f3 69 8f bd d7 e5 19 be
       0.07302479 -0.061879348 -0.0700263 -0.15029083
0003e0 51 eb 02 3d b9 5d 71 bd 35 07 a9 3d 15 4a 8e 3c
       0.031962696 -0.05892727 0.08253328 0.01736931
0003f0 5d d4 88 bd 09 cb 4c 3d 99 0f e6 bd ec ab 0c bd
       -0.0668113 0.049998317 -0.11233444 -0.034343645

volume.2.bias f4 [128]
000000 00 00 00 00 00 00 00 00 00 00 00 00 00 00 00 00
       0.0 0.0 0.0 0.0
000010 00 00 00 00 00 00 00 00 00 00 00 00 00 00 00 00
       0.0 0.0 0.0 0.0
000020 00 00 00 00 00 00 00 00 00 00 00 00 00 00 00 00
       0.0 0.0 0.0 0.0
000030 00 00 00 00 00 00 00 00 00 00 00 00 00 00 00 00
       0.0 0.0 0.0 0.0
000040 00 00 00 00 00 00 00 00 00 00 00 00 00 00 00 00
       0.0 0.0 0.0 0.0
000050 00 00 00 00 00 00 00 00 00 00 00 00 00 00 00 00
       0.0 0.0 0.0 0.0
000060 00 00 00 00 00 00 00 00 00 00 00 00 00 00 00 00
       0.0 0.0 0.0 0.0
000070 00 00 00 00 00 00 00 00 00 00 00 00 00 00 00 00
       0.0 0.0 0.0 0.0
000080 00 00 00 00 00 00 00 00 00 00 00 00 00 00 00 00
       0.0 0.0 0.0 0.0
000090 00 00 00 00 00 00 00 00 00 00 00 00 00 00 00 00
       0.0 0.0 0.0 0.0
0000a0 00 00 00 00 00 00 00 00 00 00 00 00 00 00 00 00
       0.0 0.0 0.0 0.0
0000b0 00 00 00 00 00 00 00 00 00 00 00 00 00 00 00 00
       0.0 0.0 0.0 0.0
0000c0 00 00 00 00 00 00 00 00 00 00 00 00 00 00 00 00
       0.0 0.0 0.0 0.0
0000d0 00 00 00 00 00 00 00 00 00 00 00 00 00 00 00 00
       0.0 0.0 0.0 0.0
0000e0 00 00 00 00 00 00 00 00 00 00 00 00 00 00 00 00
       0.0 0.0 0.0 0.0
0000f0 00 00 00 00 00 00 00 00 00 00 00 00 00 00 00 00
       0.0 0.0 0.0 0.0
000100 00 00 00 00 00 00 00 00 00 00 00 00 00 00 00 00
       0.0 0.0 0.0 0.0
000110 00 00 00 00 00 00 00 00 00 00 00 00 00 00 00 00
       0.0 0.0 0.0 0.0
000120 00 00 00 00 00 00 00 00 00 00 00 00 00 00 00 00
       0.0 0.0 0.0 0.0
000130 00 00 00 00 00 00 00 00 00 00 00 00 00 00 00 00
       0.0 0.0 0.0 0.0
000140 00 00 00 00 00 00 00 00 00 00 00 00 00 00 00 00
       0.0 0.0 0.0 0.0
000150 00 00 00 00 00 00 00 00 00 00 00 00 00 00 00 00
       0.0 0.0 0.0 0.0
000160 00 00 00 00 00 00 00 00 00 00 00 00 00 00 00 00
       0.0 0.0 0.0 0.0
000170 00 00 00 00 00 00 00 00 00 00 00 00 00 00 00 00
       0.0 0.0 0.0 0.0
000180 00 00 00 00 00 00 00 00 00 00 00 00 00 00 00 00
       0.0 0.0 0.0 0.0
000190 00 00 00 00 00 00 00 00 00 00 00 00 00 00 00 00
       0.0 0.0 0.0 0.0
0001a0 00 00 00 00 00 00 00 00 00 00 00 00 00 00 00 00
       0.0 0.0 0.0 0.0
0001b0 00 00 00 00 00 00 00 00 00 00 00 00 00 00 00 00
       0.0 0.0 0.0 0.0
0001c0 00 00 00 00 00 00 00 00 00 00 00 00 00 00 00 00
       0.0 0.0 0.0 0.0
0001d0 00 00 00 00 00 00 00 00 00 00 00 00 00 00 00 00
       0.0 0.0 0.0 0.0
0001e0 00 00 00 00 00 00 00 00 00 00 00 00 00 00 00 00
       0.0 0.0 0.0 0.0
0001f0 00 00 00 00 00 00 00 00 00 00 00 00 00 00 00 00
       0.0 0.0 0.0 0.0

volume.4.weight f4 [1, 128]
000000 b6 4f 1d 3d 9b b7 4a bd b7 9a 04 bd 12 86 37 bd
       0.038406096 -0.049491506 -0.03237411 -0.044805594
000010 08 1d c9 3c 93 d7 a2 bd 90 33 5e 3d 17 37 29 3e
       0.024549976 -0.07951274 0.054248393 0.16524921
000020 1f 22 9d bc 99 03 a0 3d e1 a0 73 3d 9e 48 36 be
       -0.01918131 0.07813186 0.059479598 -0.17801139
000030 8a 44 dc bb 98 42 a4 3c 83 1f bb bc b4 91 3f bd
       -0.0067220377 0.020051286 -0.022842174 -0.046769813
000040 a4 ae ba 3d 7b 0c bb bd b7 dc ff bd 1e 2d 74 3c
       0.09115341 -0.0913324 -0.1249327 0.014903335
000050 f5 7e 22 3c c0 29 87 bc 90 11 29 bd cd fd 07 be
       0.009917964 -0.0164994 -0.041276515 -0.13280411
000060 8c 42 77 3c bc 08 77 bd 8f ca 39 3d dc c4 ab 3a
       0.01509155 -0.060311064 0.04535919 0.0013104933
000070 30 8b 8c 3d 42 c8 53 bd 53 8e a7 3d ca 3d f6 bc
       0.068624854 -0.051704653 0.08181443 -0.03005876
000080 ba c2 5e 3e b5 d1 3b 3e d6 cb be bc 56 53 d6 3c
       0.2175397 0.18341716 -0.023290556 0.026162785
000090 41 d2 3a 3d 1c e0 12 bd 6d b2 7e bd bc f0 1b 3d
       0.04561067 -0.03585826 -0.06218188 0.03807138
0000a0 75 e6 ad 3c 3a f6 90 bc d3 60 b6 bd ce f9 ac bd
       0.021228055 -0.017695535 -0.089051865 -0.08446084
0000b0 3d fd d2 3c 08 fe 58 bd f6 ba 0f be be 05 ed 3d
       0.025755519 -0.052976638 -0.14036164 0.11573361
0000c0 e7 9e f5 3d 69 7e 94 bd 40 5f ce bd fd 42 74 3c
       0.11993199 -0.07250673 -0.10076761 0.014908549
0000d0 68 e4 48 bc 62 14 a0 bc 07 14 e7 3d 41 97 08 3d
       -0.012261488 -0.01954097 0.11283117 0.033347372
0000e0 c3 c4 37 be ee 28 7a bd 87 df eb bc e4 f2 3a bd
       -0.17946152 -0.06107419 -0.02879311 -0.045641795
0000f0 52 0f eb bd fd 30 2c 3d f1 58 e6 3d f9 24 04 be
       -0.114775315 0.042038906 0.11247433 -0.12904729
000100 74 42 3f bb 56 2a 16 bd 31 f4 88 bd 19 f3 15 3e
       -0.0029183896 -0.03666147 -0.06687201 0.14643516
000110 ae ba 45 bd 6e 3b c6 bc 12 1b 80 3c 00 34 1f 3d
       -0.048273735 -0.02419826 0.015637908 0.03886795
000120 bb 4f 6b bc 1f b0 e9 bd ce 3e 81 3c 0b 36 81 bd
       -0.014362271 -0.114105456 0.015777018 -0.06309136
000130 6d 34 3a bd f3 c9 c4 bd dc b7 a5 3d 98 dc 82 3c
       -0.045460153 -0.09608831 0.08091709 0.015974328
000140 9a 39 db bd 42 fb 43 be 7a 9a 35 3d 7d 72 ef bd
       -0.10704346 -0.19138816 0.044336773 -0.11691759
000150 f4 20 f8 3d ee 39 a6 3c 2c 5c ba bd 47 58 0c 3e
       0.1211566 0.020291295 -0.09099612 0.1370555
000160 23 ee a2 bd fa 50 41 bd 7d 2f 10 be 87 ce ab bd
       -0.07955577 -0.047196366 -0.14080615 -0.08389001
000170 3b d4 ef 3c bf cc de 3d 98 28 ad 3d 48 b7 c6 3c
       0.029276004 0.10878896 0.08455008 0.024257317
000180 7e 5e da 3d 59 54 34 3d 4f f7 67 3b 3a 54 a9 3d
       0.10662554 0.044025753 0.003539521 0.08268018
000190 58 cd 3c 3e 6f 5b 26 bd 6e db 22 3e 35 3d b0 3d
       0.18437707 -0.04061454 0.15904018 0.08605424
0001a0 89 0d 0b 3d 7e 2c 0a bd 3f 0f c2 bd 56 13 d3 bd
       0.033948455 -0.033733837 -0.09475564 -0.103064224
0001b0 6b e3 67 3d 65 55 7c bd 6b 37 88 3c 08 a4 a4 3d
       0.056613367 -0.061604876 0.016627988 0.08039099
0001c0 df 18 40 bc ef cb 37 be 9a 88 da 3d ee fd 27 3e
       -0.01172468 -0.17948888 0.10670586 0.1640546
0001d0 27 a7 ef bc 1b 5a b1 bc d5 49 59 3d e1 f6 33 bd
       -0.02925451 -0.021649411 0.053048927 -0.043936614
0001e0 c6 b0 cd bc f6 0b 01 3d 68 43 af bd 12 ec 9d bc
       -0.025108706 0.031505547 -0.085577786 -0.019277606
0001f0 4f 54 5b 3d bf 75 11 3b 82 0e 34 bd 87 f8 d6 bc
       0.0535472 0.0022195426 -0.04395915 -0.026241554

elmoments.0.weight f4 [128, 128]
000000 1c f1 a1 bb 7a ee 47 bd 8f c4 38 be 0e 3f 9b bb
       -0.0049420726 -0.048811413 -0.18043731 -0.0047377413
000010 69 db c2 bc 00 f3 c0 bd 4a 96 cd bd 57 4e 04 3e
       -0.023786264 -0.094213486 -0.10038431 0.1292051
000020 da ba 6f 3c 42 b8 fd 3d cd 2f ce bd c4 c7 67 bb
       0.014631951 0.1238866 -0.10067711 -0.0035366872
000030 5e 86 5e bd 3d 5e a3 3d 1c e8 3b be 91 15 8e 3e
       -0.05432736 0.07976959 -0.18350261 0.2775083
000040 22 93 df 3d 96 57 fd bc 26 f2 b1 bd 0a ba 41 be
       0.10916735 -0.030925553 -0.08688764 -0.18918625
000050 95 e2 98 bd e1 25 b3 3c 9d 09 91 bd e6 24 2e 3d
       -0.07465092 0.021868648 -0.07081912 0.042515658
000060 3b b5 96 bd fa ae 8a bd 2c 2c 17 be be b8 9d 3d
       -0.07358786 -0.067716554 -0.14762944 0.077012524
000070 7b 37 f7 3d cd 06 be bd a0 eb 53 bc 2c 50 46 3c
       0.12071129 -0.09278641 -0.012934595 0.012104075
000080 49 50 2f 3e 7c 60 0f 3d 4d bb 20 bc 07 32 18 be
       0.1712047 0.035004124 -0.009810281 -0.14862834
000090 ca ac f6 bb 4c c7 b4 3d fb db 0e 3e a2 d3 42 be
       -0.0075279223 0.08827075 0.13951103 -0.19026044
0000a0 ec 7d 22 3c 89 94 8f 3d 3a 3f e8 bd 74 fd 60 3c
       0.009917717 0.07010753 -0.113401845 0.013732303
0000b0 9c 7d 97 3d ba f3 7d bd 92 62 00 3c b4 6e 2a 3e
       0.07397005 -0.062000014 0.007836001 0.16643792
0000c0 80 d5 b4 3d 9a 3d 1e be 35 d9 fd 3d 2b fa b8 3c
       0.088297844 -0.15453187 0.123949446 0.022580227
0000d0 33 6f 8d 3d 34 d0 6e be c7 0e 4a 3e ad 51 3c 3b
       0.06905975 -0.2332161 0.197322 0.0028735206
0000e0 5c cd 1f 3c 88 c7 93 bd d2 f8 eb bc 15 a9 e4 bc
       0.009753551 -0.07215792 -0.02880517 -0.027912656
0000f0 27 9e 02 bd 46 27 65 3d d1 61 32 bd b4 2e 69 3c
       -0.031889107 0.055945657 -0.043550316 0.014232326
000100 c5 9f 24 be c3 2d 04 be 98 71 df 3d 47 b3 18 be
       -0.16076572 -0.12908082 0.10910338 -0.14912139
000110 07 6d 92 3d 9b c4 10 3e 27 b1 ef bd 39 cb 9a bc
       0.071497016 0.14137499 -0.11703711 -0.018895732
000120 01 89 99 bd dc e9 81 bd 97 90 80 3d 8b 00 ca bd
       -0.074968345 -0.06343433 0.06277578 -0.09863385
000130 98 e4 d8 bc bc 02 9b bd de 56 a7 3c 9b 6a c7 bd
       -0.02647619 -0.07568881 0.020427164 -0.0973713
000140 b8 13 27 bd d2 63 e9 3d 90 c8 57 be 04 05 f7 3d
       -0.04079029 0.11395992 -0.21072602 0.120615035
000150 2f cd 66 bd 8c 0f c1 bc f7 a3 f4 3d 2b 6a e4 3c
       -0.056348022 -0.023566984 0.11945336 0.027882656
000160 99 03 40 3d 85 45 af bd 89 09 09 bd 23 ec 2a be
       0.04687843 -0.08558182 -0.03345636 -0.16691642
000170 5c 01 81 bc c5 48 f1 3c 59 50 c2 3d 37 5e 44 3e
       -0.015747719 0.029453645 0.09487981 0.19176565
000180 21 80 b6 bd 95 39 fb 3d ca 60 ec 3c 51 fb cd bd
       -0.089111574 0.12266842 0.028854746 -0.100577004
000190 62 49 56 bd 83 d2 89 3d 35 04 1d 3b 19 1d 00 bd
       -0.052316077 0.06729605 0.0023958806 -0.03127775
0001a0 97 a2 b2 3d 75 f0 15 be 23 6f 0b 3d bc 8f 9a bc
       0.08722418 -0.14642508 0.034041535 -0.018867366
0001b0 f5 a1 61 bd e6 37 2f 3e 7a 64 f8 3d 58 89 70 bd
       -0.055086095 0.17111167 0.121285394 -0.05872473
0001c0 c4 36 92 3d 04 84 86 3d f7 90 1d 3e af 8a f7 bc
       0.07139352 0.06568149 0.15387331 -0.030217497
0001d0 42 ed 66 bc d1 ba ec 3d 6e 2f e8 bd 20 9f cb bd
       -0.014094653 0.1155907 -0.113371715 -0.0994246
0001e0 d5 bb 39 3b 5c 11 16 be e2 4c 14 bd de 6d a2 3d
       0.0028340716 -0.1465506 -0.036206134 0.07931112
0001f0 94 83 96 3c b7 f9 91 bd a4 cd 14 be 60 46 09 be
       0.018373288 -0.071277075 -0.1453157 -0.13405752
000200 d1 11 5b be fe 08 46 bc c0 86 ce bc bd cb b4 3d
       -0.21393515 -0.012087105 -0.025210738 0.088279225
000210 15 62 d8 3c 63 e9 c4 3d 4c dd f2 bd 3f 99 09 3d
       0.026413957 0.096148275 -0.11858615 0.033593412
000220 c9 61 2a 3e 98 17 a3 bd 0e a8 e4 3c a0 f6 39 bd
       0.16638865 -0.079634845 0.027912166 -0.045401216
000230 de 9f b9 bd 5d 2e 2c be 06 ca f2 bd dd 71 46 3d
       -0.09063695 -0.16814561 -0.11854939 0.048448432
000240 48 c2 d5 bc ae 4a 1a be 72 e3 9b bc ca 39 72 bd
       -0.026093617 -0.1506755 -0.019029353 -0.059137143
000250 e7 7e 40 3d dc c8 07 bb dc 0b f3 bd 67 94 1f 3d
       0.046996024 -0.0020719087 -0.11867496 0.038959887
000260 c9 0a 00 bd 0e db 3a be f5 66 bc 3d e9 bc 79 3a
       -0.031260286 -0.18247625 0.09199325 0.0009526746
000270 74 0b e3 bc 53 fa 9c 3d b4 ff 4a be a9 cd 87 bd
       -0.027715422 0.07664933 -0.19824106 -0.066310234
000280 2e 0e de bd 66 c2 b4 3c 33 3d 8e 3d be 7d 7f bd
       -0.10842548 0.022065353 0.069452666 -0.062375776
000290 1e f2 a6 3d 8a 90 2d be 0a 70 e5 bd 68 b1 33 be
       0.08151649 -0.16949669 -0.112030104 -0.17548144
0002a0 9b c2 c3 3d e6 d6 93 bc a2 de dd 3d 93 a8 89 bd
       0.095586024 -0.018046807 0.108334795 -0.06721606
0002b0 1f 84 69 3e 57 d2 ef bb 3f ad cb bd 0f 49 be bc
       0.22804306 -0.0073187756 -0.099451534 -0.023228196
0002c0 6b d7 07 be e8 e2 08 3d 38 8a ba 3c c7 93 2c 3c
       -0.13265769 0.03341952 0.022770986 0.01053328
0002d0 a7 e4 9c 3d 44 02 09 be d9 e5 90 bd 86 ad 66 bd
       0.076607995 -0.1337977 -0.0707509 -0.05631783
0002e0 8f 6f b7 3c b2 f6 95 bd 45 a0 b4 bd 11 e7 6a bd
       0.022392062 -0.07322444 -0.088196315 -0.05734927
0002f0 fa 92 c0 3d 66 7e 43 bc e7 39 3d 3d ad 67 bb bd
       0.094030336 -0.011931991 0.046197798 -0.09150634
000300 3c 62 51 3b 2f 80 8e 3e 91 21 02 be 26 d3 e4 3d
       0.0031949421 0.2783217 -0.12708117 0.11173086
000310 6e ce 90 bd 69 a8 95 3d 49 c4 3b 3c 28 68 66 bd
       -0.07070623 0.07307512 0.011460372 -0.056251675
000320 46 bd 5c be 2a 2e bf 3d 92 ee 7e 3d b2 33 27 ba
       -0.21556577 0.09334977 0.062239237 -0.00063782476
000330 e5 ef 1d 3e a6 b1 12 be 3f c8 59 be 33 b2 1c bd
       0.15423544 -0.1432558 -0.21267794 -0.03825588
000340 be 08 9e 3c 07 dc 85 3d cd 5d 9a 3c bf 2c 5f be
       0.019291278 0.065361075 0.018843556 -0.21794413
000350 db db 9c 3d 40 22 1c 3e ae 4b 29 be 01 5d 01 be
       0.076591216 0.1524744 -0.16532776 -0.12633134
000360 d5 ea 1f bd 2d 1c 92 bd cd 96 cf 3a da a3 8f 3d
       -0.039042313 -0.0713428 0.0015837789 0.07013674
000370 c7 10 59 3d cf 90 7d 3d 1d b3 f2 3d 05 59 9d bb
       0.052994516 0.06190568 0.118505694 -0.0048018717
000380 41 47 0f be ed 2a a5 3d ac f8 bb bd e1 a5 4b bd
       -0.13992025 0.08064828 -0.0917829 -0.04971874
000390 ed 44 cb bd 84 46 e9 3d b2 c8 84 bc 32 ab 59 bd
       -0.09925256 0.11390403 -0.01620898 -0.05314178
0003a0 ca 14 3a bd b4 b0 05 be e4 0c 80 3b 20 80 b0 3d
       -0.045429982 -0.13055688 0.0039077867 0.08618188
0003b0 d6 4b da bd 4f 54 be bc 5b 07 a5 3d 7a 0c d6 3d
       -0.10658996 -0.02323356 0.080580436 0.104515985
0003c0 06 80 71 bb 4e f4 1b 3e c2 2b f4 3c 74 06 39 bd
       -0.003684999 0.15229914 0.029806022 -0.04517217
0003d0 e8 0d 66 bd b4 89 20 bc 43 7c 25 be b9 db 1b bd
       -0.056165606 -0.009798456 -0.16160683 -0.03805134
0003e0 12 79 bd bc e7 a7 a6 3d 59 50 50 3d f7 eb f8 3d
       -0.02312902 0.081374936 0.050857875 0.12154382
0003f0 78 3c 06 3d 1b 00 5b be 5e a4 12 bc eb 02 99 bd
       0.03277251 -0.21386759 -0.008950321 -0.0747126

elmoments.0.bias f4 [128]
000000 00 00 00 00 00 00 00 00 00 00 00 00 00 00 00 00
       0.0 0.0 0.0 0.0
000010 00 00 00 00 00 00 00 00 00 00 00 00 00 00 00 00
       0.0 0.0 0.0 0.0
000020 00 00 00 00 00 00 00 00 00 00 00 00 00 00 00 00
       0.0 0.0 0.0 0.0
000030 00 00 00 00 00 00 00 00 00 00 00 00 00 00 00 00
       0.0 0.0 0.0 0.0
000040 00 00 00 00 00 00 00 00 00 00 00 00 00 00 00 00
       0.0 0.0 0.0 0.0
000050 00 00 00 00 00 00 00 00 00 00 00 00 00 00 00 00
       0.0 0.0 0.0 0.0
000060 00 00 00 00 00 00 00 00 00 00 00 00 00 00 00 00
       0.0 0.0 0.0 0.0
000070 00 00 00 00 00 00 00 00 00 00 00 00 00 00 00 00
       0.0 0.0 0.0 0.0
000080 00 00 00 00 00 00 00 00 00 00 00 00 00 00 00 00
       0.0 0.0 0.0 0.0
000090 00 00 00 00 00 00 00 00 00 00 00 00 00 00 00 00
       0.0 0.0 0.0 0.0
0000a0 00 00 00 00 00 00 00 00 00 00 00 00 00 00 00 00
       0.0 0.0 0.0 0.0
0000b0 00 00 00 00 00 00 00 00 00 00 00 00 00 00 00 00
       0.0 0.0 0.0 0.0
0000c0 00 00 00 00 00 00 00 00 00 00 00 00 00 00 00 00
       0.0 0.0 0.0 0.0
0000d0 00 00 00 00 00 00 00 00 00 00 00 00 00 00 00 00
       0.0 0.0 0.0 0.0
0000e0 00 00 00 00 00 00 00 00 00 00 00 00 00 00 00 00
       0.0 0.0 0.0 0.0
0000f0 00 00 00 00 00 00 00 00 00 00 00 00 00 00 00 00
       0.0 0.0 0.0 0.0
000100 00 00 00 00 00 00 00 00 00 00 00 00 00 00 00 00
       0.0 0.0 0.0 0.0
000110 00 00 00 00 00 00 00 00 00 00 00 00 00 00 00 00
       0.0 0.0 0.0 0.0
000120 00 00 00 00 00 00 00 00 00 00 00 00 00 00 00 00
       0.0 0.0 0.0 0.0
000130 00 00 00 00 00 00 00 00 00 00 00 00 00 00 00 00
       0.0 0.0 0.0 0.0
000140 00 00 00 00 00 00 00 00 00 00 00 00 00 00 00 00
       0.0 0.0 0.0 0.0
000150 00 00 00 00 00 00 00 00 00 00 00 00 00 00 00 00
       0.0 0.0 0.0 0.0
000160 00 00 00 00 00 00 00 00 00 00 00 00 00 00 00 00
       0.0 0.0 0.0 0.0
000170 00 00 00 00 00 00 00 00 00 00 00 00 00 00 00 00
       0.0 0.0 0.0 0.0
000180 00 00 00 00 00 00 00 00 00 00 00 00 00 00 00 00
       0.0 0.0 0.0 0.0
000190 00 00 00 00 00 00 00 00 00 00 00 00 00 00 00 00
       0.0 0.0 0.0 0.0
0001a0 00 00 00 00 00 00 00 00 00 00 00 00 00 00 00 00
       0.0 0.0 0.0 0.0
0001b0 00 00 00 00 00 00 00 00 00 00 00 00 00 00 00 00
       0.0 0.0 0.0 0.0
0001c0 00 00 00 00 00 00 00 00 00 00 00 00 00 00 00 00
       0.0 0.0 0.0 0.0
0001d0 00 00 00 00 00 00 00 00 00 00 00 00 00 00 00 00
       0.0 0.0 0.0 0.0
0001e0 00 00 00 00 00 00 00 00 00 00 00 00 00 00 00 00
       0.0 0.0 0.0 0.0
0001f0 00 00 00 00 00 00 00 00 00 00 00 00 00 00 00 00
       0.0 0.0 0.0 0.0

elmoments.2.weight f4 [128, 128]
000000 0a 11 41 3c a4 c0 a0 bc 05 20 5f 3d 4a 54 5f 3d
       0.011783848 -0.019623108 0.054473896 0.054523744
000010 01 a1 4a be 55 b4 dc 3c b5 ab ad bd bb 88 0c bc
       -0.1978798 0.026941458 -0.08480016 -0.008577521
000020 b2 20 c7 3d 5c 96 3a bd d3 ac bc 3d 8c 4a 3c 3e
       0.09723033 -0.04555355 0.09212651 0.18387812
000030 30 a3 f7 3c 1e 32 b1 3c f9 46 64 3d 14 a6 51 bd
       0.030229181 0.021630343 0.055731747 -0.051183775
000040 f2 1d 97 bc 6c 11 b5 bc 45 39 dc 3d d4 1f 05 bd
       -0.018446896 -0.022103034 0.10753111 -0.032501057
000050 42 2c 65 bd 77 3d 9b bd bf b4 86 3d 6b 87 9d 3b
       -0.05595041 -0.07580083 0.06577443 0.004807403
000060 8f da 92 3c 5e bb 22 3e 19 80 8a 3d f3 0b 8b bd
       0.017926482 0.15891787 0.06762714 -0.067893885
000070 70 ce ba bd 05 7f bc bd 76 63 c3 3c 50 69 00 3d
       -0.09121406 -0.092039146 0.023851138 0.031350434
000080 df d0 4b 3e f9 66 0b 3e f9 ce b5 3d 3b 94 1f 3c
       0.19903897 0.136135 0.088773675 0.009739931
000090 f1 10 e9 3b 84 4a db bd 99 03 64 bc 26 ee eb bc
       0.0071126153 -0.10707572 -0.013916873 -0.028800081
0000a0 2b 44 a1 3d 55 fb 18 3e e1 01 05 3d 28 66 37 be
       0.0787433 0.14939626 0.032472495 -0.17910063
0000b0 88 84 88 be 1f 58 d5 bc eb 4a 59 bd 0d cf fa bc
       -0.26663613 -0.026042996 -0.053049963 -0.030616308
0000c0 ce ac 88 bd 8d 31 6d bd 6d 8a f1 bd b0 36 89 bd
       -0.06673585 -0.057908583 -0.11793981 -0.06699884
0000d0 1d 82 52 3d d1 11 7d 3d 65 c9 4e 3c 85 4d 9c bd
       0.051393617 0.06178457 0.012621258 -0.07631973
0000e0 39 29 0b 3c c7 34 17 3e 1c bd 13 be 60 fa ee bb
       0.008493715 0.14766227 -0.14427608 -0.0072930306
0000f0 e7 a8 21 bd e9 bc b0 bd 9b 20 96 3c fc a4 69 3b
       -0.03946772 -0.08629782 0.018326094 0.0035651317
000100 6f 5d ac 3a f0 87 f6 bd 9d f0 c0 bd 1d 6e bd bc
       0.0013150404 -0.12037647 -0.09420893 -0.023123795
000110 1a 29 15 bd a0 dd 69 bd 5a e2 1f 3d 92 ca aa bd
       -0.03641615 -0.057096124 0.039034225 -0.083394185
000120 ce 58 8a 3c c9 fa e5 3c f7 1c 49 3e 83 bd 8c 3c
       0.016888048 0.028073685 0.19639955 0.01718021
000130 d3 a7 cd 3b 84 9e 6a bd ad 20 b6 bd fe d3 2a 3e
       0.0062761097 -0.05728008 -0.08892951 0.16682431
000140 ad e4 0b 3e 28 5f 93 bd c5 e6 82 bd dc 23 c2 3c
       0.13661452 -0.07195884 -0.06391672 0.02369874
000150 28 d0 4b 3c 83 56 00 3d f2 43 ed 3d 8a cb 52 be
       0.012439765 0.031332504 0.11585225 -0.20585456
000160 da f5 a5 bd 2a b5 1b 3e 56 61 03 3c 3a 60 27 3e
       -0.08103533 0.15205827 0.008018812 0.16345301
000170 dc d1 0c 3b 7a 4b 2a 3c c8 b1 34 3d 42 6a ab bd
       0.002148739 0.010393972 0.044114858 -0.083698764
000180 52 ff 90 3d 4c 3f 1e bc 46 f0 ca 3a 69 e1 8a 3d
       0.070799485 -0.009658646 0.0015482984 0.06781275
000190 c1 ac c3 3d 49 eb f1 bd c3 02 38 3e f5 f9 f5 3a
       0.095544346 -0.11812455 0.17969804 0.001876651
0001a0 7c 81 54 be 30 7b 4e 3d 6a 79 42 3d de 3d fb bd
       -0.2075252 0.05041045 0.04747907 -0.122676596
0001b0 2c 5d 00 bd 43 c5 a0 bd 3c f9 1d be e0 8d 72 3d
       -0.031338856 -0.07850125 -0.15427107 0.059217334
0001c0 67 89 13 3d 18 31 5d bd 10 63 94 bd 79 a3 3f 3d
       0.03601971 -0.054001898 -0.07245457 0.04678676
0001d0 03 76 2f ba 3f e6 24 3e 1b f6 05 3e 26 86 3d 3d
       -0.00066933053 0.16103457 0.13082163 0.046270512
0001e0 4d ac 0c 3d ef dd 99 3d f9 a2 42 3c 29 e2 cf bd
       0.034344006 0.075130336 0.011879676 -0.101505585
0001f0 71 7c b6 bd fb 17 75 bd b1 b5 21 3d 79 18 17 be
       -0.08910454 -0.059837323 0.039479915 -0.1475543
000200 f1 9d 66 3d da 17 34 bd 9a 45 e6 3d 6a 7d a4 bd
       0.05630297 -0.04396806 0.11243744 -0.08031733
000210 e5 fa 1d bd 11 9e 3d bd 06 50 0d be 54 52 14 be
       -0.03856935 -0.046293322 -0.13800058 -0.1448453
000220 70 fe 94 bd 06 b2 ae 3d 42 76 c5 bd 56 fe 8c 3d
       -0.072750926 0.08530049 -0.096416965 0.06884448
000230 98 c1 40 bd 54 b0 4b 3e 70 4e fd 3a 1f 1d e3 3d
       -0.047059625 0.19891483 0.0019325744 0.11089539
000240 15 1a 62 bd c8 4a 0d 3e 50 ff 09 3e 8d fc 8c 3d
       -0.055200655 0.13798058 0.134763 0.06884108
000250 8d 18 06 3d b2 f6 7a 3d 7b ef c6 bc 9c 87 f5 3d
       0.032738257 0.061270423 -0.024284115 0.11988756
000260 57 8d a2 3d cd 20 f2 bc 08 95 10 be da ad cf bd
       0.07937115 -0.029556656 -0.14119351 -0.101405814
000270 3f ea 9e 3d 9f 7d ea bd 1f e4 2b be 6b 65 e5 3d
       0.07759523 -0.114497416 -0.1678624 0.112009846
000280 cb 8b e3 3d 83 4e 3e 3d 60 98 05 3e 22 38 a0 3d
       0.11110648 0.046461593 0.13046408 0.078232065
000290 79 be 51 bc 29 af 4c 3c a9 a4 ef 3d 85 38 60 3d
       -0.01280176 0.012492933 0.11701328 0.0547414
0002a0 c2 bf 09 3d 5d cf 2c be a8 36 72 3d 7a 0e 33 3d
       0.03363014 -0.16875978 0.059134156 0.043714978
0002b0 c7 6e 12 3e a3 62 0b bd 7c 4d 0d bd da e0 7c 3d
       0.1430007 -0.034029614 -0.034497723 0.061737873
0002c0 72 5e cf bd 05 91 cf 3d d6 a9 b1 bd d8 fb 29 bb
       -0.10125436 0.10135082 -0.08674972 -0.0025937464
0002d0 7e ad a4 bc 04 3a c7 bd c4 65 0a bc b6 a4 70 bc
       -0.020102259 -0.097278625 -0.008447114 -0.014687708
0002e0 35 e2 83 bc 1f 60 b7 bb 5f 68 0c 3e 37 ed bb bd
       -0.016099075 -0.0055961753 0.1371169 -0.091761045
0002f0 b1 9c af 3d a6 97 89 3d 20 2b ea 3d 0f de 8a 3d
       0.085748084 0.06718378 0.11434007 0.067806356
000300 ba e5 a8 3c 27 55 7a bd fd d7 c9 bd d6 75 a6 3d
       0.020617355 -0.061116364 -0.098556496 0.08127944
000310 51 1f b5 3c d0 e1 8c bd 8a 5e 33 3c be 62 0e 3e
       0.02210966 -0.06879008 0.010947833 0.13904855
000320 55 4f 72 bd 90 68 86 bd ac 13 06 3e 87 a7 5b bd
       -0.05915769 -0.065629125 0.13093442 -0.053626563
000330 1e 2d dc 3d 53 2e 96 3d 11 f2 ed 3d 90 e7 bc 3c
       0.10750793 0.073330544 0.11618436 0.023059636
000340 71 a0 1f bd 2a a8 89 bd d6 af ef bd 6b ea 8e 3d
       -0.03897137 -0.06721528 -0.1170346 0.069783054
000350 0b 16 b0 bd c5 f3 9f 3d 90 d2 39 3d 39 2d 92 bc
       -0.08597954 0.07810167 0.045366824 -0.01784383
000360 b7 2a b6 3b 10 eb 1b 3e 9a 55 1f be 86 8b d1 39
       0.005559291 0.15226388 -0.15559998 0.0003996754
000370 86 04 42 3e f8 b4 5a bb c5 d1 3e be ea 64 d2 bd
       0.18947038 -0.0033372026 -0.18634708 -0.10273154
000380 c0 c3 6d 3c e8 75 d4 3c a4 f0 66 3d 55 71 d8 3d
       0.0145120025 0.025935128 0.056381837 0.10568491
000390 88 c9 60 bd 27 fe a5 3d 3c 49 eb 3c 7f cb 30 be
       -0.054879695 0.08105116 0.028721444 -0.17265128
0003a0 8e 69 45 bd 22 c9 46 3d 27 58 0b be 8a 1d 37 3c
       -0.048196368 0.04853166 -0.13607846 0.011176476
0003b0 d8 33 a6 3d d7 6a aa bc ce c1 f9 bd f6 a6 96 bd
       0.08115357 -0.020802898 -0.121951684 -0.07356064
0003c0 bb 5b 12 bd e6 59 d0 3c 58 50 7f bd c9 a2 63 bd
       -0.035732012 0.025433492 -0.06233248 -0.055575166
0003d0 c3 a6 0d 3e 6d 46 3e 3e 6b e5 cd 3c 2c f5 75 3d
       0.13833146 0.18581553 0.02513381 0.060048267
0003e0 c7 21 0c 3c 0f 11 97 3d 79 47 62 bd dc 97 4f 3d
       0.008552975 0.073763005 -0.055243943 0.050681934
0003f0 a2 87 0b 3e bf 30 d1 bb b1 40 0a 3c ef bd 56 bd
       0.13625959 -0.006383985 0.008438275 -0.05242723

elmoments.2.bias f4 [128]
000000 00 00 00 00 00 00 00 00 00 00 00 00 00 00 00 00
       0.0 0.0 0.0 0.0
000010 00 00 00 00 00 00 00 00 00 00 00 00 00 00 00 00
       0.0 0.0 0.0 0.0
000020 00 00 00 00 00 00 00 00 00 00 00 00 00 00 00 00
       0.0 0.0 0.0 0.0
000030 00 00 00 00 00 00 00 00 00 00 00 00 00 00 00 00
       0.0 0.0 0.0 0.0
000040 00 00 00 00 00 00 00 00 00 00 00 00 00 00 00 00
       0.0 0.0 0.0 0.0
000050 00 00 00 00 00 00 00 00 00 00 00 00 00 00 00 00
       0.0 0.0 0.0 0.0
000060 00 00 00 00 00 00 00 00 00 00 00 00 00 00 00 00
       0.0 0.0 0.0 0.0
000070 00 00 00 00 00 00 00 00 00 00 00 00 00 00 00 00
       0.0 0.0 0.0 0.0
000080 00 00 00 00 00 00 00 00 00 00 00 00 00 00 00 00
       0.0 0.0 0.0 0.0
000090 00 00 00 00 00 00 00 00 00 00 00 00 00 00 00 00
       0.0 0.0 0.0 0.0
0000a0 00 00 00 00 00 00 00 00 00 00 00 00 00 00 00 00
       0.0 0.0 0.0 0.0
0000b0 00 00 00 00 00 00 00 00 00 00 00 00 00 00 00 00
       0.0 0.0 0.0 0.0
0000c0 00 00 00 00 00 00 00 00 00 00 00 00 00 00 00 00
       0.0 0.0 0.0 0.0
0000d0 00 00 00 00 00 00 00 00 00 00 00 00 00 00 00 00
       0.0 0.0 0.0 0.0
0000e0 00 00 00 00 00 00 00 00 00 00 00 00 00 00 00 00
       0.0 0.0 0.0 0.0
0000f0 00 00 00 00 00 00 00 00 00 00 00 00 00 00 00 00
       0.0 0.0 0.0 0.0
000100 00 00 00 00 00 00 00 00 00 00 00 00 00 00 00 00
       0.0 0.0 0.0 0.0
000110 00 00 00 00 00 00 00 00 00 00 00 00 00 00 00 00
       0.0 0.0 0.0 0.0
000120 00 00 00 00 00 00 00 00 00 00 00 00 00 00 00 00
       0.0 0.0 0.0 0.0
000130 00 00 00 00 00 00 00 00 00 00 00 00 00 00 00 00
       0.0 0.0 0.0 0.0
000140 00 00 00 00 00 00 00 00 00 00 00 00 00 00 00 00
       0.0 0.0 0.0 0.0
000150 00 00 00 00 00 00 00 00 00 00 00 00 00 00 00 00
       0.0 0.0 0.0 0.0
000160 00 00 00 00 00 00 00 00 00 00 00 00 00 00 00 00
       0.0 0.0 0.0 0.0
000170 00 00 00 00 00 00 00 00 00 00 00 00 00 00 00 00
       0.0 0.0 0.0 0.0
000180 00 00 00 00 00 00 00 00 00 00 00 00 00 00 00 00
       0.0 0.0 0.0 0.0
000190 00 00 00 00 00 00 00 00 00 00 00 00 00 00 00 00
       0.0 0.0 0.0 0.0
0001a0 00 00 00 00 00 00 00 00 00 00 00 00 00 00 00 00
       0.0 0.0 0.0 0.0
0001b0 00 00 00 00 00 00 00 00 00 00 00 00 00 00 00 00
       0.0 0.0 0.0 0.0
0001c0 00 00 00 00 00 00 00 00 00 00 00 00 00 00 00 00
       0.0 0.0 0.0 0.0
0001d0 00 00 00 00 00 00 00 00 00 00 00 00 00 00 00 00
       0.0 0.0 0.0 0.0
0001e0 00 00 00 00 00 00 00 00 00 00 00 00 00 00 00 00
       0.0 0.0 0.0 0.0
0001f0 00 00 00 00 00 00 00 00 00 00 00 00 00 00 00 00
       0.0 0.0 0.0 0.0

elmoments.4.weight f4 [4, 128]
000000 39 79 81 3d 20 ae 45 be 50 f8 56 3d 69 46 56 bd
       0.063219495 -0.19304705 0.052482903 -0.052313242
000010 a4 74 ad bc 4b 5b 04 bd 36 f9 4a bc 96 25 10 3d
       -0.021173783 -0.032313626 -0.012388518 0.035192095
000020 bb ff 23 bc 9b 96 33 be 41 08 74 3d 94 3b b7 bd
       -0.010009701 -0.1753792 0.059578184 -0.089469105
000030 1e 5d a9 3d 82 df 22 be 8f 7c 21 3e 42 04 43 bd
       0.08269714 -0.15905574 0.15770172 -0.047611482
000040 09 eb 06 be f1 c6 06 3e f5 43 eb 3c 11 4a 04 3e
       -0.13175596 0.13161828 0.028718928 0.12918879
000050 26 ef 02 3e 6e 07 b9 3d f6 dc c0 bd 5f c8 09 be
       0.1278654 0.0903462 -0.09417145 -0.13455342
000060 97 fb f0 bd 6e fe 00 3e 09 4f 46 3e 04 13 05 3d
       -0.11766737 0.12597057 0.19366087 0.032488838
000070 24 1c 0a be c0 5b 7b bd fb be d2 bc b9 84 88 bc
       -0.13487297 -0.061366796 -0.025725832 -0.01666485
000080 36 d1 f7 bc f8 0f 6e 3d 12 cf 90 bd bf 68 03 be
       -0.030251127 0.058120698 -0.070707455 -0.12832926
000090 12 68 d4 bd bc 02 28 bd db 5a e8 3d c6 2b 61 3d
       -0.10371412 -0.041018233 0.11345454 0.054973386
0000a0 6e 5b 59 bd f5 9e 43 bd 7d 37 d6 3c 23 d4 01 be
       -0.05306571 -0.047759015 0.026149506 -0.1267858
0000b0 87 e9 d0 bd f3 b1 60 bd f0 0c 9a bd 98 a9 db bb
       -0.10200792 -0.054857206 -0.07521999 -0.0067035668
0000c0 37 c9 b1 bd 92 26 af bc 5b 7e 71 3d 2c e6 b5 3b
       -0.08680957 -0.021380696 0.058958393 0.0055511203
0000d0 ce 34 88 3d de 02 9f bd e7 56 87 bc 84 75 e8 3d
       0.06650697 -0.07764219 -0.01652093 0.11350539
0000e0 98 4f 3e bd 9a b1 7c 3c e2 59 10 3d 44 e5 2e 3b
       -0.046462625 0.015423203 0.03524197 0.0026686946
0000f0 7b af ee bc 03 e9 ee 36 3d 89 24 be d7 02 4c bd
       -0.02913641 7.120079e-06 -0.16067977 -0.049807396
000100 e2 b5 56 3d d5 f0 e2 3d 93 b0 0e 3d 2d 23 41 3e
       0.05241955 0.11081091 0.034836363 0.18861075
000110 dd e1 d4 bd 6a ac 57 3d d7 cc 11 be 57 d8 a0 3d
       -0.103946425 0.05265466 -0.14238296 0.078537636
000120 bb d5 ed 3d 13 99 d7 bd 5a 0a 90 3d e3 0a 0f 3d
       0.116130315 -0.105272435 0.070332244 0.03492249
000130 8f fd 27 3d ab 8c 05 3e ab ca 1f 3d e4 5c f9 bd
       0.041013297 0.13041942 0.03901164 -0.121759206
000140 a5 79 28 be ce fd 35 3b 46 3c 68 bc f9 1d ef bc
       -0.16452654 0.0027769688 -0.014174527 -0.029189097
000150 1c 8c 02 3d 2c 78 c1 bd 32 96 b3 bd 41 2c 1a be
       0.0318719 -0.09446749 -0.08768882 -0.15055944
000160 c9 b5 0b 3d 3d c9 9a bd 54 a4 5d 3e ec 08 c7 3d
       0.03410891 -0.075579144 0.21644717 0.097184986
000170 31 f4 97 3d c7 46 82 3d 17 ea 6d bd 8b 8e 92 bd
       0.07419623 0.06361156 -0.058084574 -0.07156094
000180 22 de e5 bc c6 5a 18 bc 49 38 1e 3e 2a 3a 06 bd
       -0.028060023 -0.009298986 0.15451159 -0.032770313
000190 51 b8 6e 3d 64 54 6b bd e5 b8 96 bc 21 05 90 3d
       0.058281247 -0.057453528 -0.018398711 0.07032228
0001a0 a6 f4 8a bd 5c 67 37 bd c5 e0 aa 3d 66 5d 9b bd
       -0.06784944 -0.044776306 0.08343653 -0.07586174
0001b0 b3 52 e6 ba d8 40 c4 bd 93 de d3 bd e4 d1 bc 3b
       -0.0017572254 -0.095826805 -0.10345187 0.0057623256
0001c0 ed 46 cb 3d b0 d8 49 3d 4d 6f b5 bd bd ab 58 bd
       0.099256374 0.049278915 -0.088591196 -0.052898157
0001d0 da 4f 73 3d 6c ac e8 bc 99 b0 3c bb 41 d3 98 bd
       0.059402324 -0.02840253 -0.0028791784 -0.074621685
0001e0 5d 4b a6 3c 96 cf c8 bd 2d ef 97 3d b0 df 06 be
       0.020299608 -0.09805219 0.07418666 -0.13171268
0001f0 af 97 41 3c 6d 00 19 3e 33 42 ac 3c 8a 87 9b bd
       0.011815949 0.14941569 0.02102766 -0.075942114
000200 7d 95 a1 bd c1 88 73 3c f9 38 d3 bd 31 88 e2 bd
       -0.07889841 0.014864148 -0.10313601 -0.11061133
000210 2e 71 82 3d 92 68 e2 bd 7e 6f 54 3d 45 cb 00 bd
       0.063692436 -0.110551015 0.05186414 -0.031443853
000220 3d 30 9d 3d 5f 20 d8 3d a1 f4 2a 3e b7 71 bd 3c
       0.07675216 0.10553049 0.16694881 0.023125513
000230 03 4c e9 bc 10 77 c3 bb 93 9e 10 3e 9f 24 0d 3e
       -0.028478628 -0.005965121 0.14122991 0.13783501
000240 57 d6 31 3e c5 a6 d4 bd 65 8c 97 bd 20 c7 53 bc
       0.1736692 -0.10383371 -0.07399825 -0.012925893
000250 13 31 8a 3d b6 ac 0f be 6b 09 3a 3d f7 df 06 be
       0.067476414 -0.14030728 0.045419138 -0.13171373
000260 67 6e 3b be d1 cd ac bd 06 5e 5f 3b fd 60 28 3d
       -0.18303834 -0.08437694 0.0034083142 0.04110812
000270 8f 76 6c 3d f4 a7 44 3d 27 16 a7 3d 3d 42 be 3d
       0.057730254 0.048011735 0.08158522 0.09289978
000280 1f db ab 3c 7a 22 c8 bd fa 84 04 be 05 4c b9 bd
       0.020978509 -0.09772201 -0.12941352 -0.09047703
000290 1b ba 37 3d a2 2d 2c 3d 88 4b 81 3d 85 0d 37 3e
       0.04485522 0.042035706 0.063132346 0.17876251
0002a0 fd c0 1f bd 50 1d 9d 3b 9d f0 c5 3c 50 b7 8d 3c
       -0.039002407 0.004794754 0.024162585 0.017299324
0002b0 2f 4a 3e be 94 2e d7 bd a8 b6 4b bd de 51 97 bd
       -0.18582986 -0.10506931 -0.04973474 -0.07388662
0002c0 a0 8f da bc a0 21 75 bd 8f 18 71 3b 41 ed e5 3d
       -0.026679814 -0.05984652 0.003678832 0.11226893
0002d0 78 e3 a3 bc ac 91 91 3d f3 09 e3 3d 9c 75 d1 3d
       -0.020005926 0.07107863 0.11085882 0.1022751
0002e0 a3 b7 0a be bc aa d5 bc 2b 61 b2 3d 1e df f0 bd
       -0.13546614 -0.026082389 0.087099396 -0.11761306
0002f0 8d 5b ce 3d 37 83 52 3d e0 14 16 3e ed f9 26 bc
       0.10076056 0.051394667 0.146564 -0.010191423
000300 92 ac b4 bd 9f 55 a3 3c 7c 71 86 bc 1c 68 f0 3c
       -0.08821978 0.019938288 -0.016411535 0.029346518
000310 67 ff 5a bd f9 29 ff bd 3a 6a 24 bd d2 c7 fb bd
       -0.053466227 -0.124591775 -0.040140368 -0.12293972
000320 86 55 21 bc ff 30 4a bd 6c d3 6d bd 10 1d ec bd
       -0.0098470505 -0.049363133 -0.058062956 -0.11528981
000330 53 87 e6 3d 96 16 d7 bd 11 c2 f1 3d 57 3e 91 bb
       0.1125628 -0.10502355 0.11804593 -0.0044324803
000340 0f 78 ae bc c7 72 4a 3e c7 c3 0f be f4 88 2e bd
       -0.021297483 0.19770347 -0.14039527 -0.042611077
000350 2d e4 64 bc 9e cc 54 bc 72 bb 4e bd c7 f5 66 3c
       -0.013970417 -0.012988238 -0.05047173 0.014096684
000360 64 13 2b bd ea 05 71 bd a8 02 14 3d 9a 3c 11 be
       -0.04176654 -0.05884353 0.036135346 -0.14183274
000370 36 89 5a bc 79 1d e9 3b e6 df a4 3d fe cb aa 3d
       -0.013338378 0.007114109 0.08050518 0.0833969
000380 2a be 2b bc 85 8b 2e be b4 f7 8f bb c4 ab 57 3d
       -0.01048235 -0.1704541 -0.004393542 0.052654043
000390 b6 26 ad 3d cb e1 a1 bd 3e 6d 0e 3e 39 43 6a bd
       0.08454649 -0.07904395 0.1390886 -0.057193015
0003a0 2b 1c cb bd d0 80 ea 3c 9a 36 de 3d d8 b3 05 3e
       -0.09917482 0.028625876 0.10850258 0.13056886
0003b0 6d 7c 68 bd 12 62 29 3d ed 32 32 bd 4a b9 2a 3e
       -0.056759287 0.041353293 -0.043505598 0.16672245
0003c0 e8 97 9c bd 22 7e 33 3e 36 ca fb bc d0 03 2c bd
       -0.07646161 0.17528585 -0.03073607 -0.041995823
0003d0 70 d9 56 be 29 b3 20 3e c8 c7 f4 bc e1 07 b6 3d
       -0.20981383 0.15693344 -0.02988042 0.088882215
0003e0 07 fb a4 3c c2 d8 fb bc cb 47 0a be b4 12 55 3b
       0.02013923 -0.030743007 -0.1350395 0.0032512369
0003f0 0f fa d1 3d 03 72 e3 bd 47 45 92 bc 54 af 2e bd
       0.10252773 -0.111057304 -0.0178553 -0.042647675

elmoments.4.bias f4 [4]
000000 00 00 00 00 00 00 00 00 00 00 00 00 00 00 00 00
       0.0 0.0 0.0 0.0
