aimnet/pretrained/aimnet/aimnet_mt_cv0.pt (torch_old, 401730 bytes, 16 tensors)

volume.0.weight f4 [128, 128]
000000 2f 25 cf bd 9a 7c 21 3d d0 83 e7 bd 9c 88 08 bd
       -0.10114514 0.03942547 -0.11304438 -0.033333406
000010 bb 99 2c 3e 08 fe 27 3d 50 b6 49 be cd 80 a5 bd
       0.16855519 0.041013747 -0.19698453 -0.080812074
000020 fc 92 9c 3c d8 25 3c bb 8d 6c 42 bd 9b 32 e9 bc
       0.019113056 -0.002870908 -0.047466803 -0.028466513
000030 6d 4f 6e 3d 61 8d f5 bd bd e4 c6 3c b7 e0 c5 bd
       0.058181215 -0.119898565 0.024278993 -0.096620016
000040 27 74 2e bd 0b 2b 7e 3b d5 af a7 bd 4c 9e 94 3c
       -0.04259124 0.003878298 -0.08187834 0.018141888
000050 be d1 93 3d b7 57 7c bd fa d2 39 bc 5e ba 19 be
       0.072177395 -0.06160709 -0.011341805 -0.150125
000060 18 56 43 bc 35 55 d2 3c fe fd 19 3e 88 97 ba bd
       -0.011922382 0.025675396 0.15038297 -0.091109335
000070 54 2f ff 3d e3 ce 8b 3d eb f5 79 bd 0e f5 16 3d
       0.12460199 0.0682657 -0.06102554 0.036854796
000080 20 b5 08 3e 29 de 8e bd fd 72 34 3d b2 a3 49 bd
       0.13350344 -0.069759674 0.044054974 -0.049228378
000090 3d 43 9d 3d ed 76 87 3d b9 ce 00 3c ec dd 8c bd
       0.0767884 0.0661448 0.0078617865 -0.06878266
0000a0 77 88 84 3c 52 f5 89 bd 49 03 c5 3d 18 ae c2 bd
       0.016178353 -0.06736244 0.09619767 -0.09505862
0000b0 a5 29 67 3d 05 f9 66 bd a1 64 c9 3d 96 5b 5e bd
       0.0564362 -0.056389827 0.098336466 -0.054286562
0000c0 d2 8b 0c 3d c0 16 0b bc f7 26 57 bd 73 b8 e3 bc
       0.03431303 -0.008489311 -0.052527394 -0.027797913
0000d0 47 fa 2b 3e 53 26 39 3e 59 7d fb 3c e7 a5 be bd
       0.16794692 0.18081026 0.030699419 -0.09308987
0000e0 6d ba 17 bd 0f 32 08 3b 35 e1 31 bd 38 a1 dc bd
       -0.037043024 0.002078179 -0.043427665 -0.107729375
0000f0 9f 0f 71 3d 1a 04 52 be 10 9c 85 bd c1 53 ba 3d
       0.058852788 -0.20509377 -0.06523907 0.09098006
000100 1d bc 0d 3a 1b 69 bf 3d 0d 71 51 bc 5c eb 83 bd
       0.0005406754 0.09346219 -0.012783301 -0.064413756
000110 8b cf b1 bd 5d ec 34 3e c7 f2 fc bc 2a 19 b4 bd
       -0.08682164 0.1766829 -0.030877484 -0.08793862
000120 b7 1d 12 bd d2 2b cd 3c 3b 7a f2 bd 3a 6a 13 3d
       -0.03567287 0.02504531 -0.1183972 0.035989977
000130 2a f3 63 3d 10 1e 25 3d 0e 54 f9 bb 96 e8 0a 3d
       0.05565182 0.040311873 -0.007608897 0.033913217
000140 25 84 49 3d 1d 31 a4 3d 5e c0 fc bd f3 7d 65 3e
       0.04919829 0.0801718 -0.12341379 0.22411327
000150 2c 66 86 bc fc 07 0c be db d4 80 3d 27 b7 5c bb
       -0.016406141 -0.13674921 0.06290599 -0.0033678503
000160 fc 92 32 be b3 7e 94 3d 85 e0 ae bd ae c9 6d bd
       -0.17438883 0.072507285 -0.085389175 -0.058053665
000170 02 93 a5 bd ec 54 ef 3b 91 ee d5 bd e6 ab b8 3d
       -0.0808468 0.0073038246 -0.104458936 0.09017162
000180 2c bb d4 bd 2d 5d f2 3c b1 4a 8b bd a8 a6 52 bd
       -0.10387263 0.029585445 -0.06801356 -0.051428467
000190 e7 e5 c1 bc ad 46 0b be 63 88 13 be de 41 8d bd
       -0.023669196 -0.1360118 -0.14407496 -0.06897329
0001a0 d9 f5 00 3d f6 47 8f bc dd 41 83 3c 78 03 a2 3d
       0.03148446 -0.017490368 0.016022617 0.07910818
0001b0 ff f6 f1 bc 11 f2 aa bd 0b 9a e1 3d 5f e0 78 bd
       -0.029536722 -0.08346952 0.110157095 -0.060760852
0001c0 28 79 26 bd 92 48 e6 3c fd 32 3b bc 20 15 d1 3d
       -0.040642887 0.028110776 -0.011425731 0.102091074
0001d0 ca b0 5e be 4f 47 fe 3c 29 3f 76 3d 48 ef 8c 3d
       -0.21747127 0.031039862 0.060118828 0.06881577
0001e0 1b a4 2a 3d 96 f3 0a 3a d1 fe 91 3d a2 ef a4 bd
       0.04166041 0.00053005794 0.071286805 -0.08053519
0001f0 a6 eb dd bd bb c5 ee 3d 7b 93 f4 3d 19 05 b6 3d
       -0.10835962 0.11658808 0.11942192 0.08887691
000200 a8 de b7 3d 9a 6c 87 3c 75 99 05 bd d3 79 59 3d
       0.08978015 0.016531277 -0.03261705 0.053094696
000210 7e 0b 9c 3d 27 84 7c bd 6d d0 35 3d 24 85 73 bc
       0.076193795 -0.061649468 0.044388223 -0.014863286
000220 b9 3c 4b 3e 50 5e 34 3d ba b6 89 bc 72 4f b5 3d
       0.19847383 0.044035256 -0.016810764 0.088530436
000230 36 48 59 bd f0 11 2c 3d f4 72 04 be 44 7f 1f ba
       -0.05304738 0.042009294 -0.12934476 -0.00060843327
000240 fc 5c 82 bd 7c c8 1f bd 9e 09 19 3d 9b 21 81 bd
       -0.063653916 -0.039009556 0.037362687 -0.06305238
000250 33 43 1a 3d 48 2b ab bc 77 53 55 bc c3 19 6a 3c
       0.037661742 -0.020894662 -0.013020388 0.014288369
000260 5a 4e 96 bc c8 81 1c bd 57 44 0e 3d 9b 76 e1 3d
       -0.018347908 -0.038209707 0.034733143 0.1100895
000270 7e 91 74 bd 74 09 5e bc d7 7d 4f 3e b0 da 53 bd
       -0.059709065 -0.0135520585 0.20262848 -0.05172223
000280 90 67 8f bb db 63 70 be 2b 22 36 3e 4f 40 7c 3d
       -0.0043763593 -0.23475592 0.17786472 0.061584767
000290 97 a0 aa bb e2 de dd 3c 0d 3f a6 3d 39 ea de 3c
       -0.005207132 0.027083818 0.08117495 0.027211295
0002a0 ac 25 19 3d 53 3c 35 bc 61 a1 28 bd b3 39 ee 3d
       0.037389442 -0.011061746 -0.041169528 0.11632099
0002b0 9d fd ba 3d c5 cc f5 bc ef 82 59 bd 67 fd 86 3d
       0.09130404 -0.030004868 -0.053103384 0.065913014
0002c0 fa 23 a2 3c e4 bd 3a be 85 5c cb 3d 6a fd 90 bd
       0.019792546 -0.182365 0.09929756 -0.07079585
0002d0 48 8a 42 3d 16 0d 70 bc 1c 62 96 3d 53 94 91 3c
       0.047495157 -0.014651557 0.07342932 0.017770922
0002e0 0c 7f b5 3d 47 27 fa 3d f6 af ad 3d 3c 03 58 3d
       0.08862123 0.12214523 0.084808275 0.05273746
0002f0 23 37 c8 bd 69 41 66 3d 16 9c 9d bc aa 9f af 3c
       -0.097761415 0.056214724 -0.019239467 0.021438438
000300 a1 d1 7f 3b bb 87 56 3b 6b f4 15 3d da 8c af bd
       0.003903486 0.003273471 0.03661005 -0.08571787
000310 a7 b3 93 bb 91 b7 02 3d 38 5b 98 3c 08 fa 23 3e
       -0.0045075 0.031913344 0.018598184 0.16013348
000320 4c a5 f5 bd e6 c3 45 3e 2f 85 19 3e c7 a6 a6 3c
       -0.119944185 0.1931301 0.14992212 0.020343198
000330 a4 33 72 3d 87 f3 e6 bb fd 26 2f bd c9 3e f7 bc
       0.05913128 -0.0070480737 -0.04276179 -0.030181305
000340 d1 c4 80 be 79 d6 34 3b 02 55 ca 3c c3 8d a2 bd
       -0.2515016 0.0027593656 0.024698738 -0.07937195
000350 39 f8 91 3d e6 64 8c bc 76 62 85 3d 02 fb af 3d
       0.07127423 -0.017137956 0.065129206 0.08592798
000360 fe 01 28 be 49 14 77 bd 94 53 e6 bb 1f d6 7a 3c
       -0.1640701 -0.06032208 -0.0070290063 0.0153098395
000370 2a 1e bb bd 97 da 11 3c cd f0 fa 3d 67 cd f6 3c
       -0.09136613 0.008902214 0.1225296 0.03012724
000380 07 62 cc 3d 10 9f 21 3e d7 76 69 3e 14 e5 84 bd
       0.09979635 0.15783334 0.2279924 -0.06489006
000390 d7 d3 e8 3a d2 d8 ac bc 77 fd a3 3d e9 f5 e8 3d
       0.0017763329 -0.021099482 0.08007329 0.11375029
0003a0 47 fe 66 3d ba 84 cd 3c 90 d1 37 3e 2c 7f 67 bd
       0.05639484 0.025087703 0.17951035 -0.056517765
0003b0 b1 52 ca 3d f0 f3 1d 3d ed 68 fe 3d 0f fe 12 3d
       0.098790534 0.038562715 0.12422357 0.03588682
0003c0 0d 2a 87 bd be b9 47 bd dc 1d 36 bd 9a cb 1f bd
       -0.065998174 -0.048761122 -0.04446207 -0.03901253
0003d0 5a 2e ed 3d dc 88 fa 3d c0 2f c5 3c 53 a2 da bd
       0.115811065 0.12233135 0.02407062 -0.10675492
0003e0 b8 20 c9 bd 7f 9f 72 bc e3 7c f3 bd fa 10 2d 3e
       -0.09820694 -0.014808535 -0.118890546 0.16901007
0003f0 51 64 7e 3d b5 e7 1c 3e e1 6b 4c 3d f4 f7 3b bd
       0.062107388 0.15322764 0.04990757 -0.045890763

volume.0.bias f4 [128]
000000 00 00 00 00 00 00 00 00 00 00 00 00 00 00 00 00
       0.0 0.0 0.0 0.0
000010 00 00 00 00 00 00 00 00 00 00 00 00 00 00 00 00
       0.0 0.0 0.0 0.0
000020 00 00 00 00 00 00 00 00 00 00 00 00 00 00 00 00
       0.0 0.0 0.0 0.0
000030 00 00 00 00 00 00 00 00 00 00 00 00 00 00 00 00
       0.0 0.0 0.0 0.0
000040 00 00 00 00 00 00 00 00 00 00 00 00 00 00 00 00
       0.0 0.0 0.0 0.0
000050 00 00 00 00 00 00 00 00 00 00 00 00 00 00 00 00
       0.0 0.0 0.0 0.0
000060 00 00 00 00 00 00 00 00 00 00 00 00 00 00 00 00
       0.0 0.0 0.0 0.0
000070 00 00 00 00 00 00 00 00 00 00 00 00 00 00 00 00
       0.0 0.0 0.0 0.0
000080 00 00 00 00 00 00 00 00 00 00 00 00 00 00 00 00
       0.0 0.0 0.0 0.0
000090 00 00 00 00 00 00 00 00 00 00 00 00 00 00 00 00
       0.0 0.0 0.0 0.0
0000a0 00 00 00 00 00 00 00 00 00 00 00 00 00 00 00 00
       0.0 0.0 0.0 0.0
0000b0 00 00 00 00 00 00 00 00 00 00 00 00 00 00 00 00
       0.0 0.0 0.0 0.0
0000c0 00 00 00 00 00 00 00 00 00 00 00 00 00 00 00 00
       0.0 0.0 0.0 0.0
0000d0 00 00 00 00 00 00 00 00 00 00 00 00 00 00 00 00
       0.0 0.0 0.0 0.0
0000e0 00 00 00 00 00 00 00 00 00 00 00 00 00 00 00 00
       0.0 0.0 0.0 0.0
0000f0 00 00 00 00 00 00 00 00 00 00 00 00 00 00 00 00
       0.0 0.0 0.0 0.0
000100 00 00 00 00 00 00 00 00 00 00 00 00 00 00 00 00
       0.0 0.0 0.0 0.0
000110 00 00 00 00 00 00 00 00 00 00 00 00 00 00 00 00
       0.0 0.0 0.0 0.0
000120 00 00 00 00 00 00 00 00 00 00 00 00 00 00 00 00
       0.0 0.0 0.0 0.0
000130 00 00 00 00 00 00 00 00 00 00 00 00 00 00 00 00
       0.0 0.0 0.0 0.0
000140 00 00 00 00 00 00 00 00 00 00 00 00 00 00 00 00
       0.0 0.0 0.0 0.0
000150 00 00 00 00 00 00 00 00 00 00 00 00 00 00 00 00
       0.0 0.0 0.0 0.0
000160 00 00 00 00 00 00 00 00 00 00 00 00 00 00 00 00
       0.0 0.0 0.0 0.0
000170 00 00 00 00 00 00 00 00 00 00 00 00 00 00 00 00
       0.0 0.0 0.0 0.0
000180 00 00 00 00 00 00 00 00 00 00 00 00 00 00 00 00
       0.0 0.0 0.0 0.0
000190 00 00 00 00 00 00 00 00 00 00 00 00 00 00 00 00
       0.0 0.0 0.0 0.0
0001a0 00 00 00 00 00 00 00 00 00 00 00 00 00 00 00 00
       0.0 0.0 0.0 0.0
0001b0 00 00 00 00 00 00 00 00 00 00 00 00 00 00 00 00
       0.0 0.0 0.0 0.0
0001c0 00 00 00 00 00 00 00 00 00 00 00 00 00 00 00 00
       0.0 0.0 0.0 0.0
0001d0 00 00 00 00 00 00 00 00 00 00 00 00 00 00 00 00
       0.0 0.0 0.0 0.0
0001e0 00 00 00 00 00 00 00 00 00 00 00 00 00 00 00 00
       0.0 0.0 0.0 0.0
0001f0 00 00 00 00 00 00 00 00 00 00 00 00 00 00 00 00
       0.0 0.0 0.0 0.0

volume.2.weight f4 [128, 128]
000000 f2 9f 91 3d 4d b2 0e 3d 8d 4b 01 be f3 bc ba 3c
       0.07110585 0.03483801 -0.12626477 0.022795176
000010 f0 43 12 3d 10 a4 40 3d 6b 2e c1 bc ae ef ea 3d
       0.03570932 0.047031462 -0.023581704 0.114714965
000020 4b 3c 96 3d 16 b6 0c 3e e7 0d ac bb 61 54 0f be
       0.07335719 0.13741335 -0.0052506807 -0.13997032
000030 99 0a af 3d e7 90 4b 3c 09 1e 91 3c 75 39 26 be
       0.08546943 0.012424684 0.017714517 -0.16232856
000040 25 eb a1 3d d7 41 86 3d f8 77 73 3c b4 17 05 be
       0.079061784 0.06555527 0.014860146 -0.12997323
000050 d6 75 58 3d ab 99 88 bd a6 94 a3 3d fb 18 63 3d
       0.052846752 -0.06669935 0.07987337 0.055443745
000060 16 96 f7 bb 71 a4 71 3c f3 db 61 3d 48 72 51 bd
       -0.0075557334 0.014748679 0.0551414 -0.051134378
000070 60 8e 82 3d 4c 9b 74 bd fc 67 4c 3c aa 7a aa bd
       0.06374812 -0.059718415 0.012475964 -0.083241776
000080 e8 45 05 ba 9f fd fd 3c 6a 64 cd bb ed 1e 53 3d
       -0.0005083964 0.031004725 -0.006268074 0.051543165
000090 01 8d ef bc 5e 44 f0 3d ed 47 17 3d 48 ed 48 3e
       -0.02924204 0.1173179 0.03693383 0.19621766
0000a0 94 fd c3 bd d8 a9 34 3c 17 43 a9 3d c3 18 09 3e
       -0.095698506 0.011026822 0.082647495 0.13388352
0000b0 46 c7 25 be 70 b8 49 be 4e a3 2d bd 1b 8c 97 bd
       -0.16189298 -0.19699264 -0.042392068 -0.0739977
0000c0 3e bb 64 bd 29 88 9b bb 63 a5 62 bd 69 9b 23 3e
       -0.05584263 -0.004746456 -0.055333506 0.15977253
0000d0 84 e8 f7 bc 26 08 15 3e b2 89 e5 bc 4f f5 a6 bd
       -0.03026224 0.1455389 -0.02801976 -0.08152258
0000e0 4c 75 d0 bd 36 a8 46 3d eb 55 55 3c dd d5 91 bd
       -0.101786226 0.048500262 0.013020973 -0.07120869
0000f0 26 37 5b 3d 16 8e 21 3e b1 18 db 3d fd 93 6a 3c
       0.05351939 0.15776858 0.10698069 0.01431751
000100 4c 93 dc bc 8c 87 e9 3d 81 55 db bd 66 25 56 3e
       -0.026925705 0.11402807 -0.10709668 0.20912704
000110 84 2c 63 bc 7d 57 f7 3d 57 04 82 bd 58 8b 0f 3e
       -0.013865594 0.12077234 -0.06348484 0.14017999
000120 56 02 af 3c 4d 5f 30 bb 8c 97 d0 bd 5b de c6 bd
       0.021363419 -0.0026912272 -0.10185155 -0.0971038
000130 61 61 50 3d ac 2c 63 be bf 33 4d 3d ef 5f a1 bd
       0.050874118 -0.2218501 0.050098177 -0.07879626
000140 64 57 a5 bc db e8 b9 bd e5 bc 6a 3c e5 4d ee bd
       -0.020183273 -0.09077617 0.0143272625 -0.11635951
000150 cc 67 02 3e 63 d0 35 bd 02 c3 1b 3d fe 0b 09 3c
       0.12734908 -0.044388186 0.03802777 0.008364676
000160 63 5f 4c be 1b e6 d3 bc c3 c9 37 3d 17 93 a6 3d
       -0.19958262 -0.025866559 0.04487015 0.08133524
000170 4d 16 17 be 16 21 9f 3d ce 00 8b be 63 4e 9d 3a
       -0.14754601 0.077699825 -0.2714905 0.001200151
000180 a5 8c 9e bc 12 c1 32 bc f9 7b 9b bb 70 70 6b 3d
       -0.019354174 -0.010910289 -0.0047450033 0.057480276
000190 11 c4 14 3e a3 1b c3 3d f8 19 06 3d fc 15 14 3d
       0.14527918 0.09526756 0.03273961 0.03615378
0001a0 d0 08 d0 3d 21 3e 88 3d 0c 11 c3 bd 10 d0 cd bd
       0.10157931 0.06652475 -0.09524736 -0.100494504
0001b0 87 ee 49 bd de a1 d0 bd ff 27 de bd e4 13 b4 3d
       -0.049299743 -0.10187124 -0.108474724 0.08792856
0001c0 78 b7 bb bc 7c 51 e1 3c 56 a7 39 bd a4 47 11 bd
       -0.022914633 0.027504675 -0.0453256 -0.035468712
0001d0 22 6e ca 3d b3 5a b9 3d 6d 01 92 bd 06 4b 1e 3d
       0.098842874 0.09050503 -0.07129178 0.038645767
0001e0 6c 90 a1 3d a5 62 6b bd e8 5f 99 bd 04 51 52 bc
       0.078888744 -0.05746712 -0.07488996 -0.012836698
0001f0 53 a1 c9 3d 12 91 91 be db a8 e4 bd d1 ac 11 bd
       0.09845223 -0.28430992 -0.11165019 -0.0355652
000200 db db b4 bc 92 73 02 be b0 ec 20 3d 18 c6 48 bd
       -0.022077492 -0.12739399 0.039288223 -0.049017042
000210 01 1b 8f bd 19 9a 0d 3e 2e a8 13 be ce 9b 83 3d
       -0.069875725 0.13828315 -0.14419624 0.06426202
000220 4b 47 95 3d 3a 31 64 bd 35 8a 32 be cf 28 82 bd
       0.07288989 -0.05571101 -0.17435534 -0.0635544
000230 c6 30 4f 3e 62 4f 0f bc 86 8f a5 bd a9 76 04 3d
       0.2023345 -0.008746954 -0.080840155 0.032339726
000240 12 fd 6a 3d d2 98 2b bd 88 1e d4 bb 77 29 bb 3d
       0.057370253 -0.041893788 -0.006473366 0.09138768
000250 28 13 12 be ed a5 01 be b3 ab d8 3a 1c 18 8a bc
       -0.1426512 -0.12660952 0.0016530663 -0.0168572
000260 71 bc a7 bd c3 bd 94 3d aa 7b fd 3d 98 bf 7d bd
       -0.08190239 0.07262757 0.12377103 -0.061950296
000270 dd b3 d8 3d 61 44 76 3c cc 03 69 bd 46 bd e5 3c
       0.10581181 0.015030951 -0.056888387 0.028044354
000280 22 3f 53 3d 9e db 71 bc 06 c5 67 3d e4 79 e7 bd
       0.05157388 -0.0147618335 0.05658438 -0.11302546
000290 6a 54 2d bc eb fe e7 bc df 6b 73 3c 8a 4c 16 be
       -0.010579208 -0.028319797 0.014857261 -0.14677635
0002a0 00 1b b4 bc 96 8b d5 bd ac 91 d2 bd 18 4b d8 bd
       -0.02198553 -0.104270145 -0.10281691 -0.10561198
0002b0 0c d6 94 bb a0 dd f8 bd d7 75 f5 bd d9 79 12 be
       -0.004542118 -0.121516466 -0.11985367 -0.14304294
0002c0 25 c9 8a bc 28 23 cd 3d b7 15 33 3d 51 e3 5f bd
       -0.016941616 0.10016471 0.04372188 -0.054660145
0002d0 48 ad fb 3d ba aa 95 bd 9f 0e 12 3d 7d a0 a5 3b
       0.1228891 -0.07307954 0.035658475 0.005054532
0002e0 28 72 25 38 81 26 d9 3b 91 f4 b8 3c 65 30 cc 3c
       3.9445382e-05 0.0066269045 0.022577556 0.02492542
0002f0 da db c3 3b e8 ec 85 bd 91 9b 3b bd c3 5b 3e bd
       0.005977136 -0.06539327 -0.045802657 -0.04647423
000300 54 ec af bb 40 46 d1 3c 25 3c 30 3d a6 70 00 be
       -0.0053687487 0.025546193 0.04302611 -0.12542972
000310 a5 e4 0b 3e 42 c6 00 3e 4a 1f d8 bd 5e 21 b7 bd
       0.1366144 0.1257563 -0.10552843 -0.08941911
000320 44 5c b5 bd 89 a7 ba 3d 3f 24 d2 ba 72 17 1e 3b
       -0.08855489 0.09113986 -0.0016032531 0.0024122861
000330 65 de 0c 3d 9c b6 da 3d f3 ad 32 3e 6d 08 1c be
       0.03439178 0.10679361 0.17449169 -0.15237589
000340 af 84 3c 3e 7b e0 04 3d af e7 0c be da ac 09 bd
       0.1840999 0.032440644 -0.13760255 -0.03361211
000350 06 48 2f be 47 cb 67 3d 53 59 10 3e 5f 73 d7 3d
       -0.17117319 0.056590345 0.14096574 0.10520052
000360 94 64 70 3e 28 c8 fe 3b 9a aa a5 bc 65 ef 3c 3c
       0.23475868 0.0077753253 -0.02022295 0.0115316855
000370 89 fb 89 bc 13 a4 33 be 4c c4 fa 3c bc 52 98 3d
       -0.016843574 -0.17543058 0.03061118 0.07437655
000380 28 7a b3 3c 48 65 92 3d 4c 6a b5 3d e4 47 02 3d
       0.021908835 0.07148224 0.08858165 0.03180684
000390 bc b7 6b 3d d0 4f 2a 3d 63 f4 b8 bc 79 15 ac 3c
       0.05754827 0.04158002 -0.02257747 0.021006333
0003a0 45 fb 8b bd 29 4a 39 bd ec 59 3d bd 2b 31 6a be
       -0.06835035 -0.04523674 -0.046228334 -0.22870319
0003b0 b9 17 b8 bd 81 10 34 bc bb 9e 65 3d 12 1e 7e bd
       -0.089889 -0.010990263 0.05605958 -0.062040396
0003c0 00 84 94 3c 4b 13 41 3c a4 1f 28 3d 2f 3c bb bd
       0.018129349 0.011784385 0.0410458 -0.091423385
0003d0 a1 fb 22 3d d6 e5 60 bd 6a 3e 0e bc 08 16 db bd
       0.039790753 -0.05490669 -0.008681873 -0.106975615
0003e0 3b f1 bf 3d 31 31 5e 3d 4d 57 8b bd ad 85 44 be
       0.09372183 0.05424613 -0.06803761 -0.19191618
0003f0 0a 89 6d ba 36 75 9c 3d 07 a0 18 3e fd f0 a8 3c
       -0.0009061253 0.07639544 0.14904796 0.020622725

volume.2.bias f4 [128]
000000 00 00 00 00 00 00 00 00 00 00 00 00 00 00 00 00
       0.0 0.0 0.0 0.0
000010 00 00 00 00 00 00 00 00 00 00 00 00 00 00 00 00
       0.0 0.0 0.0 0.0
000020 00 00 00 00 00 00 00 00 00 00 00 00 00 00 00 00
       0.0 0.0 0.0 0.0
000030 00 00 00 00 00 00 00 00 00 00 00 00 00 00 00 00
       0.0 0.0 0.0 0.0
000040 00 00 00 00 00 00 00 00 00 00 00 00 00 00 00 00
       0.0 0.0 0.0 0.0
000050 00 00 00 00 00 00 00 00 00 00 00 00 00 00 00 00
       0.0 0.0 0.0 0.0
000060 00 00 00 00 00 00 00 00 00 00 00 00 00 00 00 00
       0.0 0.0 0.0 0.0
000070 00 00 00 00 00 00 00 00 00 00 00 00 00 00 00 00
       0.0 0.0 0.0 0.0
000080 00 00 00 00 00 00 00 00 00 00 00 00 00 00 00 00
       0.0 0.0 0.0 0.0
000090 00 00 00 00 00 00 00 00 00 00 00 00 00 00 00 00
       0.0 0.0 0.0 0.0
0000a0 00 00 00 00 00 00 00 00 00 00 00 00 00 00 00 00
       0.0 0.0 0.0 0.0
0000b0 00 00 00 00 00 00 00 00 00 00 00 00 00 00 00 00
       0.0 0.0 0.0 0.0
0000c0 00 00 00 00 00 00 00 00 00 00 00 00 00 00 00 00
       0.0 0.0 0.0 0.0
0000d0 00 00 00 00 00 00 00 00 00 00 00 00 00 00 00 00
       0.0 0.0 0.0 0.0
0000e0 00 00 00 00 00 00 00 00 00 00 00 00 00 00 00 00
       0.0 0.0 0.0 0.0
0000f0 00 00 00 00 00 00 00 00 00 00 00 00 00 00 00 00
       0.0 0.0 0.0 0.0
000100 00 00 00 00 00 00 00 00 00 00 00 00 00 00 00 00
       0.0 0.0 0.0 0.0
000110 00 00 00 00 00 00 00 00 00 00 00 00 00 00 00 00
       0.0 0.0 0.0 0.0
000120 00 00 00 00 00 00 00 00 00 00 00 00 00 00 00 00
       0.0 0.0 0.0 0.0
000130 00 00 00 00 00 00 00 00 00 00 00 00 00 00 00 00
       0.0 0.0 0.0 0.0
000140 00 00 00 00 00 00 00 00 00 00 00 00 00 00 00 00
       0.0 0.0 0.0 0.0
000150 00 00 00 00 00 00 00 00 00 00 00 00 00 00 00 00
       0.0 0.0 0.0 0.0
000160 00 00 00 00 00 00 00 00 00 00 00 00 00 00 00 00
       0.0 0.0 0.0 0.0
000170 00 00 00 00 00 00 00 00 00 00 00 00 00 00 00 00
       0.0 0.0 0.0 0.0
000180 00 00 00 00 00 00 00 00 00 00 00 00 00 00 00 00
       0.0 0.0 0.0 0.0
000190 00 00 00 00 00 00 00 00 00 00 00 00 00 00 00 00
       0.0 0.0 0.0 0.0
0001a0 00 00 00 00 00 00 00 00 00 00 00 00 00 00 00 00
       0.0 0.0 0.0 0.0
0001b0 00 00 00 00 00 00 00 00 00 00 00 00 00 00 00 00
       0.0 0.0 0.0 0.0
0001c0 00 00 00 00 00 00 00 00 00 00 00 00 00 00 00 00
       0.0 0.0 0.0 0.0
0001d0 00 00 00 00 00 00 00 00 00 00 00 00 00 00 00 00
       0.0 0.0 0.0 0.0
0001e0 00 00 00 00 00 00 00 00 00 00 00 00 00 00 00 00
       0.0 0.0 0.0 0.0
0001f0 00 00 00 00 00 00 00 00 00 00 00 00 00 00 00 00
       0.0 0.0 0.0 0.0

volume.4.weight f4 [1, 128]
000000 25 1d 4c 3e d9 88 d1 bd 9c 6c 30 3e 4b 81 8f 3d
       0.19932993 -0.1023118 0.17228931 0.070070826
000010 09 34 e4 bc 37 5a 6a bd b2 84 81 3d 0b 58 98 3c
       -0.027856844 -0.05721494 0.06324138 0.01859667
000020 11 ef 7d 3d f1 70 70 bd 63 35 b8 3d 79 a0 2d be
       0.06199557 -0.05870146 0.08994558 -0.16955747
000030 d7 d3 66 bd 65 40 17 bc 6a 66 50 3a e2 0b 0f bd
       -0.05635437 -0.009231661 0.0007949831 -0.03492344
000040 4c 9e a5 bd 00 91 70 bd f6 6c b5 bc 40 2d 8c 3d
       -0.08086833 -0.058732033 -0.022146683 0.06844568
000050 a2 dd e1 bb a2 05 35 3c 79 c3 03 be 43 05 0f 3d
       -0.006892876 0.011048706 -0.12867536 0.034917127
000060 82 e2 e2 3d b5 ca 33 3e 20 89 ff 3d bc d7 f4 3d
       0.11078359 0.17557795 0.124773264 0.119552106
000070 cc 2c 3c 3d d6 e0 7f bd bd c1 91 3c da bb c3 bc
       0.04594116 -0.06247028 0.017792577 -0.023893286
000080 0f 6b b5 bd 37 fc f5 bd 1e de 8a 3d 8b 22 8a 3c
       -0.088583104 -0.12010997 0.06780647 0.016862174
000090 60 d5 30 3e 43 f1 ef bd 2c 42 9d bd f3 9e 13 3d
       0.17268896 -0.11715939 -0.07678637 0.036040258
0000a0 da 3f 7f 3c 05 45 eb 3d ab b1 2c 3e fa 4b 3e 3d
       0.015579188 0.11487774 0.1686465 0.046459176
0000b0 8d d9 ec bc b3 4b 4c bd 49 1d 28 bd d5 23 b9 bd
       -0.02891233 -0.04987688 -0.041043554 -0.090400375
0000c0 51 1c 9f 3d a5 26 7b 3d 22 f5 87 bc f3 23 fb bd
       0.07769073 0.06131615 -0.01659638 -0.12262716
0000d0 01 93 a0 bd 94 3e 95 3c f3 12 bd bd ba 87 fc 3d
       -0.07840539 0.018218316 -0.0923213 0.12330575
0000e0 6b e8 f7 bd af 32 ea 3d 4e c9 3a bc 17 0b 7c bd
       -0.12104877 0.114354484 -0.011400534 -0.061534014
0000f0 89 d6 36 bd 01 58 90 bd 2e d0 3c be 4c 0b 96 3b
       -0.04463819 -0.070480354 -0.18438789 0.0045789834
000100 dd 25 a6 bd 60 6d da 3c 80 91 ce bd df 0c 91 bd
       -0.081126906 0.026663482 -0.10086346 -0.07082533
000110 fc 9a 63 bd 21 e2 41 be 24 6c 3f be 36 d7 61 3e
       -0.055567726 -0.18933918 -0.18693596 0.22054753
000120 1e 2f 9f 3d 2a 92 a0 bd 76 e3 f5 bc 58 94 8a 3c
       0.07772659 -0.078403786 -0.030015688 0.016916439
000130 8c 7c 10 3e 0a 68 64 3d 9b 21 b7 3c 07 b3 c4 3d
       0.14110011 0.055763282 0.022354892 0.09604459
000140 f3 92 c7 bd 72 96 1f 3d a5 c3 46 bd e9 31 2a bd
       -0.09744825 0.038961835 -0.048526425 -0.041551504
000150 28 6e 50 3d 48 d6 b4 bb 41 47 08 be 47 cb 96 39
       0.050886303 -0.0055187084 -0.13308431 0.00028761683
000160 50 a3 5c 3d a8 3b 08 be 8b 23 d0 3d e5 ca 03 3e
       0.053866684 -0.13304007 0.10163029 0.12870367
000170 4d a0 c0 3d 46 47 18 3c ef 70 25 be cc f2 d1 3c
       0.09405575 0.009294337 -0.16156362 0.02562847
000180 bf be 8c 3c fc cc b9 bb fd 9c 3b 3e e0 a9 ad 3b
       0.017180799 -0.005670188 0.18321605 0.0052997917
000190 8c 56 17 3e c8 9c 22 3e a6 a5 9d 3d 01 44 30 bd
       0.14779109 0.1588012 0.076976106 -0.043033604
0001a0 4d 27 d6 bd 8d d9 a7 3d 50 4e 4f bd a6 ba 79 3d
       -0.10456715 0.081957914 -0.050611794 0.060969017
0001b0 45 30 34 3e 37 8a 54 bd ba d3 01 3e be a2 d2 3c
       0.17596538 -0.051889624 0.12678424 0.025712367
0001c0 bd 0e 28 3d ac c0 61 3d 3b 3f b9 bc d0 1c 8b bc
       0.04102968 0.055115387 -0.022613158 -0.016981512
0001d0 de 92 48 3d c0 77 fc 3c f8 fc ab 3d 10 d3 bf bc
       0.04896819 0.03081882 0.08397859 -0.023416072
0001e0 c3 ee 6c bd a8 97 4b be b6 fd 0b bc 70 f7 5d be
       -0.05784489 -0.19882071 -0.008544376 -0.21676421
0001f0 14 07 d8 bd bc da e1 3c 07 04 ac bc d5 bf b7 3c
       -0.10548225 0.027570121 -0.020998014 0.02243034

elmoments.0.weight f4 [128, 128]
000000 39 ec 0d bd 64 16 bf bd 81 32 22 be 83 44 f5 bb
       -0.034649108 -0.093304425 -0.15839578 -0.007484974
000010 6a 05 93 3d 98 94 68 bc ac a8 99 3c 20 44 d1 bb
       0.07178767 -0.014195584 0.018757187 -0.006386295
000020 3f a8 91 3b bd 98 ea bc e4 df e8 bd 1d 6d 55 3d
       0.0044451053 -0.028637284 -0.11370829 0.05210601
000030 d6 7e 5d 3e 24 9a 43 bc d9 1e dd bc 15 d8 ef 3c
       0.21630415 -0.011938605 -0.026992248 0.02927784
000040 4c e9 3d 3d 45 14 8e 3d d0 f1 db bc 80 73 fd 3d
       0.046365067 0.0693746 -0.026848704 0.123755455
000050 21 4c ce 3c 45 3f 4e 3c 79 cb 8a 3d 26 8a af 3d
       0.025182785 0.012588327 0.067770906 0.085712716
000060 ff 52 57 bd cc 30 f9 bc a8 c4 09 be 6a 97 cb 3c
       -0.052569386 -0.030418776 -0.13453925 0.024852473
000070 01 82 86 bd b8 52 44 3c 6a 94 55 3e 0a 81 3e bd
       -0.06567765 0.011982612 0.20857397 -0.04650978
000080 67 98 08 bd 02 4a 81 3d b1 46 00 bd 19 1f fe 3c
       -0.033348467 0.06312944 -0.031317417 0.031020688
000090 82 f8 0b bb 31 af bc 3d f4 0d ff bd 10 e5 81 bc
       -0.002135784 0.092131026 -0.12453833 -0.015856296
0000a0 cc 30 0d 3e 8c 42 ec bb 6b 23 03 bc 40 a6 65 3d
       0.13788146 -0.0072100814 -0.00800405 0.05606675
0000b0 99 f1 eb bd 75 f3 89 bd 5d fc 0b bd 8e 74 36 3d
       -0.115206905 -0.06735889 -0.03417622 0.04454475
0000c0 1d e6 91 bd ee 32 75 3d 9f 92 04 3e e8 b8 16 bd
       -0.07123969 0.059863023 0.12946557 -0.036797434
0000d0 61 99 c8 ba ff a7 da bd 99 6c 3b be b7 9d a1 bd
       -0.00153045 -0.10676574 -0.18303145 -0.0789141
0000e0 1d 58 a0 bc 19 bd 8f 3d 83 70 eb bc 00 c8 94 bd
       -0.019573266 0.070184894 -0.028740173 -0.072647095
0000f0 9f 43 73 bd 5c 31 62 3d 01 04 e0 bc 8e 0b 8a bc
       -0.05939066 0.055222854 -0.02734566 -0.016851213
000100 69 f4 e0 bd fa 40 b4 bd 9e cb c8 bd 91 c5 ea 3c
       -0.109841175 -0.08801456 -0.09804462 0.02865866
000110 c6 3e d0 ba 6a 1a 24 3d bc 36 b9 bd 93 07 76 3b
       -0.0015887849 0.040064253 -0.09043643 0.0037541136
000120 1d b4 48 3d be 28 36 bc 7b ed fd bd 44 ff 36 be
       0.048999894 -0.011118112 -0.123988114 -0.17870814
000130 13 3d 6e 3e ba 29 e1 bd 0e 5e 23 be ee 41 c9 bc
       0.23265485 -0.10994287 -0.15953848 -0.02456757
000140 e0 3b 00 3e e1 a8 9e bc 60 e3 f6 bc 13 15 b0 bd
       0.1252284 -0.019367637 -0.030137718 -0.085977696
000150 c0 ac 8b 3c d9 48 4c 3d 45 78 de 3d 8e 3d 6a 3e
       0.017050147 0.04987416 0.10862783 0.22875044
000160 d1 92 32 bd 8c ec 0b be a3 4b ad bd e6 44 5c 3a
       -0.043597046 -0.13664454 -0.08461692 0.00084026007
000170 26 d0 84 3d 46 e8 46 be cf 60 b0 bd 5b dc 58 bb
       0.06485014 -0.19424543 -0.08612215 -0.0033090326
000180 3f 1c f1 bd 50 c4 b4 3c 7f ef 1e bd 88 24 b2 3d
       -0.11772966 0.022066265 -0.03880262 0.08698374
000190 25 ae 67 3d 25 fc e0 bc db 4a 10 3e a6 68 cf 3b
       0.05656256 -0.027463982 0.14091055 0.0063296137
0001a0 f9 11 1d be 83 af 92 3d 4c 29 d4 bd 50 3d a4 3d
       -0.15338887 0.071623825 -0.10359439 0.08019507
0001b0 b5 68 f0 bc a7 b2 d5 3d b5 0a 93 3d 1e 88 9c bc
       -0.029346803 0.10434466 0.071797766 -0.019107874
0001c0 cd 52 7b bd 75 27 1a bd 3b bd ad 3c c1 e0 8f 3d
       -0.06135826 -0.037635285 0.021208396 0.0702529
0001d0 f2 dd d5 3c 3b 8e 92 3d 93 5e af 3d f7 4f 0c 3e
       0.026106808 0.071560346 0.085629605 0.13702379
0001e0 b8 10 42 bd 36 2e 04 be f6 db b9 bd ba 15 c7 3d
       -0.047379225 -0.12908253 -0.09075157 0.09720941
0001f0 c4 f2 42 be 12 48 b7 3d 83 2a 8b bc 4e 97 60 bd
       -0.1903792 0.08949293 -0.016988045 -0.054831795
000200 6c fe 51 bd f2 fe f8 bd 06 2f 06 bd d0 87 73 bc
       -0.051268026 -0.12158002 -0.03275969 -0.014863923
000210 b3 13 06 bc 40 ec c5 3c 05 8e 98 bd 42 38 b8 3c
       -0.008183408 0.024160504 -0.07448963 0.022487763
000220 8c 34 a8 3c c8 cd d2 3d 39 82 e0 3d a8 50 2d 3d
       0.020532869 0.10293156 0.10962338 0.042313248
000230 9b 2a 93 3c 03 c5 ce bc 3b a9 49 3d 07 c8 df bc
       0.017964652 -0.025240427 0.049233656 -0.02731706
000240 22 bf 30 bd d8 1e 9b bc e0 eb 6c be 30 c7 92 bd
       -0.04315103 -0.018935606 -0.23136854 -0.07166898
000250 81 59 1e be 05 a6 1e 3e 9a e8 07 3d 9c cf 31 bc
       -0.1546383 0.15493019 0.03318081 -0.010852721
000260 2d ac 04 3e c4 08 58 be 70 5c f0 3c 7b e6 65 bd
       0.12956305 -0.21097094 0.029340953 -0.056128006
000270 76 2a 83 3d 28 da ab bc 06 38 6a 3d b1 59 06 3d
       0.06404583 -0.020978048 0.057182334 0.03280038
000280 23 5e 5a 3c ae 48 84 3d d5 dd 0f 3d b7 73 45 bd
       0.013328108 0.06459175 0.035123665 -0.048206057
000290 b8 7c 00 be e4 25 1f 3d 3f e8 47 bc 10 99 9b 3d
       -0.12547576 0.038854495 -0.012201368 0.07597554
0002a0 13 7a 86 bd b1 7a 05 3d f4 3d 58 3b 24 87 09 bd
       -0.065662526 0.03258771 0.0032995911 -0.033576146
0002b0 47 c7 f5 3d 3e b7 1f bd 73 bd ce bc 1d 0d c9 3d
       0.120009 -0.038993113 -0.02523682 0.09816954
0002c0 fe ac 3a 3d ac 82 2a 3e 66 b3 c9 bd b4 3c eb bc
       0.045575134 0.1665141 -0.09848671 -0.028715469
0002d0 69 d2 22 be fb db 8e bd 14 97 0f bd 3c 23 93 bd
       -0.15900578 -0.06975552 -0.03505619 -0.07184455
0002e0 c6 21 c3 bc 3b 78 bc bd 05 d8 02 3d 24 79 f5 3d
       -0.023819815 -0.0920262 0.031944294 0.11985996
0002f0 bb 07 c4 3d e0 53 5e 3c 9c 32 12 bc 87 7a 0e 3e
       0.09571787 0.013569802 -0.008923199 0.13913928
000300 d9 60 90 bc d8 7e b5 3d d0 4f a9 bd 04 b9 44 3e
       -0.017624306 0.08862084 -0.08267176 0.19211203
000310 ac af 89 be 64 c7 dc bc 2c 72 01 3e b4 32 67 bd
       -0.2689184 -0.026950546 0.1264121 -0.05644484
000320 68 1a 98 bd e9 e9 29 bc b9 17 21 3c 3f f0 d4 3c
       -0.074269116 -0.01037071 0.009832316 0.025993465
000330 65 35 a5 bd 3e e9 03 bc d7 77 15 3e 6d e7 5a 3c
       -0.08066825 -0.008051215 0.14596497 0.01336084
000340 c3 90 a9 ba c6 e5 e6 bd 01 5a 59 bd d9 ad a0 bd
       -0.0012936819 -0.112742946 -0.05306435 -0.07845659
000350 1f 23 98 bd fc 4d 47 bc 13 22 39 3e 9a 6a 6f bd
       -0.07428574 -0.012164589 0.18079405 -0.058451273
000360 ad 3a 92 bb a8 06 90 3d 2b 7a 99 3d 37 6b 58 bd
       -0.004462561 0.070325196 0.07494005 -0.052836623
000370 95 25 48 3e 5c 87 be 3d 5b 20 a4 3d 0d 85 99 3d
       0.19545586 0.093031615 0.08013984 0.074960805
000380 2f b3 0f be 5b cb 03 3e 18 38 8d 3d 46 70 1e 3e
       -0.14033197 0.12870543 0.06895465 0.15472516
000390 8c 91 c4 3d 8b 9a 10 3e 97 66 5e bd 66 12 4f bd
       0.09598073 0.14121453 -0.054297056 -0.050554655
0003a0 41 87 a0 bd ab 88 70 3d 7a 9e a6 3d 4d f3 0b be
       -0.07838298 0.058724087 0.08135696 -0.1366703
0003b0 0b 22 d1 bd 9f 84 15 be f3 16 69 3d 63 0c 83 3c
       -0.10211571 -0.14601372 0.05690665 0.015997117
0003c0 76 a3 87 3a 7b 3a a1 bd b0 44 55 be f3 a3 f9 3d
       0.0010348398 -0.078724824 -0.20826983 0.12189474
0003d0 86 4f 05 be 76 d4 3d 3d fd ad b9 bd c7 26 7a ba
       -0.13018617 0.046345197 -0.09066389 -0.00095425214
0003e0 e3 38 0c 3d 21 3d c2 bd 79 03 da bd a7 52 96 bd
       0.03423394 -0.09484316 -0.106451936 -0.073399834
0003f0 3a 85 85 bd bf ee ad bd 01 19 c8 3c 14 b1 91 bc
       -0.065195516 -0.08492803 0.024425985 -0.017784633

elmoments.0.bias f4 [128]
000000 00 00 00 00 00 00 00 00 00 00 00 00 00 00 00 00
       0.0 0.0 0.0 0.0
000010 00 00 00 00 00 00 00 00 00 00 00 00 00 00 00 00
       0.0 0.0 0.0 0.0
000020 00 00 00 00 00 00 00 00 00 00 00 00 00 00 00 00
       0.0 0.0 0.0 0.0
000030 00 00 00 00 00 00 00 00 00 00 00 00 00 00 00 00
       0.0 0.0 0.0 0.0
000040 00 00 00 00 00 00 00 00 00 00 00 00 00 00 00 00
       0.0 0.0 0.0 0.0
000050 00 00 00 00 00 00 00 00 00 00 00 00 00 00 00 00
       0.0 0.0 0.0 0.0
000060 00 00 00 00 00 00 00 00 00 00 00 00 00 00 00 00
       0.0 0.0 0.0 0.0
000070 00 00 00 00 00 00 00 00 00 00 00 00 00 00 00 00
       0.0 0.0 0.0 0.0
000080 00 00 00 00 00 00 00 00 00 00 00 00 00 00 00 00
       0.0 0.0 0.0 0.0
000090 00 00 00 00 00 00 00 00 00 00 00 00 00 00 00 00
       0.0 0.0 0.0 0.0
0000a0 00 00 00 00 00 00 00 00 00 00 00 00 00 00 00 00
       0.0 0.0 0.0 0.0
0000b0 00 00 00 00 00 00 00 00 00 00 00 00 00 00 00 00
       0.0 0.0 0.0 0.0
0000c0 00 00 00 00 00 00 00 00 00 00 00 00 00 00 00 00
       0.0 0.0 0.0 0.0
0000d0 00 00 00 00 00 00 00 00 00 00 00 00 00 00 00 00
       0.0 0.0 0.0 0.0
0000e0 00 00 00 00 00 00 00 00 00 00 00 00 00 00 00 00
       0.0 0.0 0.0 0.0
0000f0 00 00 00 00 00 00 00 00 00 00 00 00 00 00 00 00
       0.0 0.0 0.0 0.0
000100 00 00 00 00 00 00 00 00 00 00 00 00 00 00 00 00
       0.0 0.0 0.0 0.0
000110 00 00 00 00 00 00 00 00 00 00 00 00 00 00 00 00
       0.0 0.0 0.0 0.0
000120 00 00 00 00 00 00 00 00 00 00 00 00 00 00 00 00
       0.0 0.0 0.0 0.0
000130 00 00 00 00 00 00 00 00 00 00 00 00 00 00 00 00
       0.0 0.0 0.0 0.0
000140 00 00 00 00 00 00 00 00 00 00 00 00 00 00 00 00
       0.0 0.0 0.0 0.0
000150 00 00 00 00 00 00 00 00 00 00 00 00 00 00 00 00
       0.0 0.0 0.0 0.0
000160 00 00 00 00 00 00 00 00 00 00 00 00 00 00 00 00
       0.0 0.0 0.0 0.0
000170 00 00 00 00 00 00 00 00 00 00 00 00 00 00 00 00
       0.0 0.0 0.0 0.0
000180 00 00 00 00 00 00 00 00 00 00 00 00 00 00 00 00
       0.0 0.0 0.0 0.0
000190 00 00 00 00 00 00 00 00 00 00 00 00 00 00 00 00
       0.0 0.0 0.0 0.0
0001a0 00 00 00 00 00 00 00 00 00 00 00 00 00 00 00 00
       0.0 0.0 0.0 0.0
0001b0 00 00 00 00 00 00 00 00 00 00 00 00 00 00 00 00
       0.0 0.0 0.0 0.0
0001c0 00 00 00 00 00 00 00 00 00 00 00 00 00 00 00 00
       0.0 0.0 0.0 0.0
0001d0 00 00 00 00 00 00 00 00 00 00 00 00 00 00 00 00
       0.0 0.0 0.0 0.0
0001e0 00 00 00 00 00 00 00 00 00 00 00 00 00 00 00 00
       0.0 0.0 0.0 0.0
0001f0 00 00 00 00 00 00 00 00 00 00 00 00 00 00 00 00
       0.0 0.0 0.0 0.0

elmoments.2.weight f4 [128, 128]
000000 24 01 dc 3d 7c e0 50 bc 60 3a 27 bc 8d 8f 84 bd
       0.10742405 -0.012748834 -0.010206789 -0.06472693
000010 88 c7 9e bc 1b 97 f6 3b 1e fd 13 bd ab 03 93 bd
       -0.019382253 0.0075253374 -0.036130063 -0.07178434
000020 13 92 4f 3d a8 4f 1f 3c 4d 16 6e bd 57 ef 70 bb
       0.050676417 0.009723581 -0.058126736 -0.0036763751
000030 3b f0 a3 bc e1 44 a7 bd 27 b8 15 3e 18 e0 65 3b
       -0.020012012 -0.081674345 0.1462103 0.0035076197
000040 60 77 66 bd a6 c8 a2 3d c9 bb 59 bd d7 08 56 be
       -0.05626619 0.07948427 -0.0531576 -0.2090181
000050 64 25 c6 bd a4 de 42 bd a9 28 9b bd a1 56 8b 3d
       -0.096751004 -0.047575608 -0.07576115 0.068036325
000060 04 ab 09 3d ed dc b2 3b df 8a 1d 3e c3 d1 59 3a
       0.03361036 0.0054584653 0.15385006 0.000830915
000070 fe 21 fc 3d 5c 12 79 ba eb 05 d1 3d df 1e 8c bc
       0.12311171 -0.0009501332 0.10206207 -0.017104564
000080 7f f4 1d 3e f4 b0 47 3d ca df d3 3d 3b 6c c8 bd
       0.15425299 0.04875274 0.10345419 -0.09786268
000090 1f c9 a3 3c 94 a6 e2 bd ac 32 ca 3c 2c 1c 95 bd
       0.019993363 -0.110669285 0.024682365 -0.07280764
0000a0 c5 46 0c 3d 1b 00 f7 bc 9a 31 44 3b 13 87 f9 bd
       0.03424718 -0.030151417 0.0029936791 -0.121839665
0000b0 66 dc bb bd d8 46 f6 bd 67 ba 14 3e ec 75 d5 bc
       -0.09172897 -0.12025231 0.14524232 -0.026057206
0000c0 75 35 68 bd 52 0c 04 bc 20 1d 83 bd 80 05 e6 3d
       -0.056691606 -0.008059578 -0.064020395 0.11231518
0000d0 35 5e 74 3c 11 e1 b1 3b ec 94 87 bd 50 eb a8 3d
       0.014915039 0.0054284413 -0.066202015 0.08248007
0000e0 db 1e c1 3b 43 e0 a5 bd c0 c0 3a 3d 44 ae 89 bd
       0.005893571 -0.08099415 0.045593977 -0.06722692
0000f0 62 54 24 3d da af 56 3d 74 38 72 bd 50 8c ec bc
       0.040119536 0.0524138 -0.05913587 -0.0288755
000100 b8 40 19 be 84 c5 8b 3d 87 94 b1 bb 4e d3 a1 3d
       -0.14966094 0.068247825 -0.005419317 0.07901631
000110 c9 17 95 3e 95 f3 f3 3c 00 be 48 bd 7d 91 98 bd
       0.2911971 0.029779235 -0.049009323 -0.07449625
000120 c1 e9 d1 3d 12 3b c7 bc a0 65 30 3e c0 bb 52 3c
       0.10249663 -0.02432016 0.17226267 0.012862146
000130 af b6 ea bc f7 e9 b5 bc 9f 08 17 3e a4 82 51 3c
       -0.028651563 -0.02220629 0.14749382 0.012787495
000140 47 a7 bb 3d 92 5f 03 3e 70 cc 3b 3d ea cf 1d be
       0.09162765 0.12829426 0.045849264 -0.15411344
000150 49 8b 8f 3d 23 c4 9c 3c cd ec 7c bd 9e 1f b3 3d
       0.070089884 0.019136494 -0.06174927 0.08746265
000160 08 2d a0 3d 36 16 42 bd 49 10 3b bd 67 75 37 3e
       0.07821089 -0.047384463 -0.045669828 0.17915879
000170 bb 9a 76 3a 6c ef 9b bd 18 46 d5 bc 42 20 76 3d
       0.0009407212 -0.076140255 -0.0260344 0.060089357
000180 7f 42 93 3c f3 4e 6b 3d ab 04 01 3e 30 17 40 3e
       0.017976044 0.05744834 0.12599437 0.18758845
000190 8d b8 74 bd 16 2d b9 3d 19 d8 72 bd 56 72 97 b9
       -0.059746314 0.090418026 -0.059288118 -0.0002888615
0001a0 30 31 f1 3c 57 f9 9b 3d 45 f8 46 be ea ec a9 3d
       0.0294424 0.07615917 -0.19430645 0.08297141
0001b0 7b 30 44 3b c9 5a 88 bc 11 d4 99 3d 9d 8a ee bd
       0.0029936123 -0.016644852 0.075111516 -0.11647532
0001c0 0e ac 33 3d 69 82 61 3d a4 7f 87 bd 54 33 c4 3d
       0.043865256 0.05505601 -0.066161424 0.095801026
0001d0 c6 6b 03 3c 15 08 97 bb 9f 90 8f bd b9 cc 90 bb
       0.008021301 -0.0046091178 -0.07010006 -0.004418936
0001e0 af ab 8f 3d 8b e0 80 bd 88 dc ac 3d 03 cb 03 be
       0.07015168 -0.06292828 0.084405005 -0.12870412
0001f0 53 8a ce bd 44 59 80 bd f0 be 0b 3c 6e 08 cf bd
       -0.10084977 -0.06267026 0.00852941 -0.1010903
000200 25 8e f1 bc c9 24 c5 bd 32 fc be bd 33 df 38 3d
       -0.029486725 -0.09626157 -0.09325446 0.045134734
000210 45 2a d7 3d 27 ed 51 bd 30 f8 86 3d 24 24 b5 bc
       0.10506109 -0.051251557 0.06590307 -0.02211196
000220 5b 9a 86 bd df fe f1 3d 63 7e a7 bc b4 66 f3 bd
       -0.0657241 0.11816191 -0.020446008 -0.118848234
000230 f6 38 d0 3d 6e 36 1e be 12 20 d3 bd e1 18 93 3d
       0.101671144 -0.15450451 -0.10308851 0.0718248
000240 3b 27 0c bd 06 5a 2a be 51 a0 01 bd d7 e9 d6 bd
       -0.0342171 -0.16635904 -0.03164703 -0.1049382
000250 71 4f 09 3d 99 6b 9b 3d 3b b1 02 3d 07 1e 8e 3d
       0.033523027 0.07588882 0.0319073 0.06939321
000260 e6 49 dd bc fe 7d 74 3d d2 d0 9b 3d 9d aa f9 bd
       -0.027012777 0.059690468 0.07608189 -0.12190745
000270 49 a8 a4 bd 94 51 75 3c 1b 5c 80 bc 8f e8 de 3d
       -0.0803991 0.014973063 -0.01566892 0.10884201
000280 1f 6e 5a bd 19 99 8d bc da 15 eb 3d ee 56 21 3d
       -0.053327676 -0.017284917 0.11478777 0.039389543
000290 b5 f9 b7 3d d7 1f 6c 3d 45 de 2d bd 32 d4 82 3d
       0.08983175 0.057647552 -0.0424483 0.06388129
0002a0 2f 07 00 bd c6 4e ad bd 33 8e 55 bd 8e 14 c9 3d
       -0.03125685 -0.084622905 -0.052137565 0.098183736
0002b0 cd ca 92 bd 5a 32 c2 3d d1 99 97 3d 7e 98 3a be
       -0.071675874 0.0948226 0.07402385 -0.18222234
0002c0 02 40 1b 3b df 11 81 3d bc 62 0f bd 5b 9d f5 3d
       0.0023689275 0.06302237 -0.03500627 0.11992904
0002d0 1d 68 db 3b 7c b1 96 3d 10 67 0e 3d 1e 85 9d 3d
       0.006695761 0.07358071 0.034766257 0.07691406
0002e0 10 eb 3b bd be bb e5 bd 48 b4 d5 3a 72 cf 40 3d
       -0.04587847 -0.112174496 0.0016304338 0.047072835
0002f0 00 65 84 3d bf d5 df bd d5 10 bb 3c 39 c8 e5 bc
       0.06464577 -0.10929441 0.022835175 -0.028049575
000300 28 fe 71 3d 24 1a cf bc 8e 50 35 3c 25 24 f1 3c
       0.059080273 -0.02528102 0.011066569 0.02943618
000310 4d d3 03 bc c9 03 f8 bc 7f 0d 87 bd 3b 77 04 3e
       -0.0080459835 -0.030275242 -0.06594371 0.12936108
000320 ae 9f a7 3c 1c 6c a2 bc 2f 9f 15 bc 42 c5 0a bd
       0.020461883 -0.019826941 -0.009132191 -0.033879526
000330 ab 82 c1 bd 71 dc 97 3d a5 5f 70 3e 62 26 89 3d
       -0.09448751 0.07415093 0.23473985 0.06696774
000340 d5 77 27 bd 06 d7 3c be 83 a3 0c 3c 2e a1 fb 3d
       -0.040885765 -0.184414 0.008583906 0.12286602
000350 54 0c 6e 3e f4 c1 df 3d 44 3f 3a be 9f cd 99 3c
       0.2324689 0.109256655 -0.18188196 0.018774806
000360 7b 6d 24 3e ea a2 8c bd ae 80 bd bd 5a d2 04 be
       0.16057388 -0.06867011 -0.09253059 -0.12970868
000370 64 3a 6c 3e 0f 2f 05 3e 35 82 29 3c 2b e8 c4 bc
       0.2306915 0.13006233 0.010345985 -0.024036488
000380 dd c4 77 bd 5b 64 b9 3d 41 8f 08 bb f3 04 f0 3c
       -0.060490478 0.090523444 -0.002083734 0.029299235
000390 52 d1 62 bd f9 56 d5 3d 59 45 c0 bc 1e f2 35 be
       -0.055375405 0.10416979 -0.023470568 -0.17768142
0003a0 96 6c 34 3e eb 34 1c be e0 55 cf 3d 69 e0 fa 3d
       0.17619547 -0.15254562 0.10123801 0.12249834
0003b0 50 d2 b5 bd 78 f4 91 bd 46 94 f8 bd b5 71 09 3e
       -0.088780046 -0.07126707 -0.12137656 0.13422282
0003c0 2d b2 a4 3d 0c 22 3d 3d 2a 81 22 be 3c a3 34 bc
       0.08041797 0.046175048 -0.15869585 -0.011025246
0003d0 a5 89 3c 3e 43 47 42 3e b5 55 ff bd a8 1f 90 bd
       0.18411882 0.18972497 -0.12467519 -0.07037288
0003e0 e0 0f 49 bd 53 bb 26 3d 44 48 24 bd 32 81 b9 3d
       -0.049087405 0.04070599 -0.04010798 0.09057845
0003f0 da 94 5b 3d 9d 21 33 3b 5a 88 ec 3b 3d 77 54 3d
       0.053608753 0.0027333267 0.007218403 0.051871527

elmoments.2.bias f4 [128]
000000 00 00 00 00 00 00 00 00 00 00 00 00 00 00 00 00
       0.0 0.0 0.0 0.0
000010 00 00 00 00 00 00 00 00 00 00 00 00 00 00 00 00
       0.0 0.0 0.0 0.0
000020 00 00 00 00 00 00 00 00 00 00 00 00 00 00 00 00
       0.0 0.0 0.0 0.0
000030 00 00 00 00 00 00 00 00 00 00 00 00 00 00 00 00
       0.0 0.0 0.0 0.0
000040 00 00 00 00 00 00 00 00 00 00 00 00 00 00 00 00
       0.0 0.0 0.0 0.0
000050 00 00 00 00 00 00 00 00 00 00 00 00 00 00 00 00
       0.0 0.0 0.0 0.0
000060 00 00 00 00 00 00 00 00 00 00 00 00 00 00 00 00
       0.0 0.0 0.0 0.0
000070 00 00 00 00 00 00 00 00 00 00 00 00 00 00 00 00
       0.0 0.0 0.0 0.0
000080 00 00 00 00 00 00 00 00 00 00 00 00 00 00 00 00
       0.0 0.0 0.0 0.0
000090 00 00 00 00 00 00 00 00 00 00 00 00 00 00 00 00
       0.0 0.0 0.0 0.0
0000a0 00 00 00 00 00 00 00 00 00 00 00 00 00 00 00 00
       0.0 0.0 0.0 0.0
0000b0 00 00 00 00 00 00 00 00 00 00 00 00 00 00 00 00
       0.0 0.0 0.0 0.0
0000c0 00 00 00 00 00 00 00 00 00 00 00 00 00 00 00 00
       0.0 0.0 0.0 0.0
0000d0 00 00 00 00 00 00 00 00 00 00 00 00 00 00 00 00
       0.0 0.0 0.0 0.0
0000e0 00 00 00 00 00 00 00 00 00 00 00 00 00 00 00 00
       0.0 0.0 0.0 0.0
0000f0 00 00 00 00 00 00 00 00 00 00 00 00 00 00 00 00
       0.0 0.0 0.0 0.0
000100 00 00 00 00 00 00 00 00 00 00 00 00 00 00 00 00
       0.0 0.0 0.0 0.0
000110 00 00 00 00 00 00 00 00 00 00 00 00 00 00 00 00
       0.0 0.0 0.0 0.0
000120 00 00 00 00 00 00 00 00 00 00 00 00 00 00 00 00
       0.0 0.0 0.0 0.0
000130 00 00 00 00 00 00 00 00 00 00 00 00 00 00 00 00
       0.0 0.0 0.0 0.0
000140 00 00 00 00 00 00 00 00 00 00 00 00 00 00 00 00
       0.0 0.0 0.0 0.0
000150 00 00 00 00 00 00 00 00 00 00 00 00 00 00 00 00
       0.0 0.0 0.0 0.0
000160 00 00 00 00 00 00 00 00 00 00 00 00 00 00 00 00
       0.0 0.0 0.0 0.0
000170 00 00 00 00 00 00 00 00 00 00 00 00 00 00 00 00
       0.0 0.0 0.0 0.0
000180 00 00 00 00 00 00 00 00 00 00 00 00 00 00 00 00
       0.0 0.0 0.0 0.0
000190 00 00 00 00 00 00 00 00 00 00 00 00 00 00 00 00
       0.0 0.0 0.0 0.0
0001a0 00 00 00 00 00 00 00 00 00 00 00 00 00 00 00 00
       0.0 0.0 0.0 0.0
0001b0 00 00 00 00 00 00 00 00 00 00 00 00 00 00 00 00
       0.0 0.0 0.0 0.0
0001c0 00 00 00 00 00 00 00 00 00 00 00 00 00 00 00 00
       0.0 0.0 0.0 0.0
0001d0 00 00 00 00 00 00 00 00 00 00 00 00 00 00 00 00
       0.0 0.0 0.0 0.0
0001e0 00 00 00 00 00 00 00 00 00 00 00 00 00 00 00 00
       0.0 0.0 0.0 0.0
0001f0 00 00 00 00 00 00 00 00 00 00 00 00 00 00 00 00
       0.0 0.0 0.0 0.0

elmoments.4.weight f4 [4, 128]
000000 aa 8a f8 3c 2e fc 33 3e 6b 19 87 3d b6 c1 04 3e
       0.030339558 0.17576668 0.06596645 0.1296452
000010 a4 ce cc 3d 5f 5f aa bb 9f e1 0f 3c 01 31 0e be
       0.10000351 -0.0051993574 0.00878182 -0.13885881
000020 17 c4 15 3e 8a de 27 3d 12 d8 0f 3d 73 1b 8b 3d
       0.14625584 0.040983714 0.03511817 0.06792345
000030 1a 07 b3 bc c0 5a 6b bb 9d 74 84 bd 88 b8 84 bc
       -0.021853972 -0.0035912246 -0.06467555 -0.016201273
000040 66 7b 0a be 44 87 d8 bd bd 49 4b be 12 76 12 bd
       -0.13523635 -0.10572675 -0.19852348 -0.035757132
000050 a0 2a 87 bd 8a d0 2b be 75 33 18 3c 4f 08 1e 3e
       -0.06599927 -0.1677877 0.009289612 0.15432857
000060 a7 1b 0a be ce 9c a2 3d 91 eb 8e 3d 3d 5c b6 3c
       -0.13487111 0.07940064 0.069785245 0.02226078
000070 f9 c7 da 3d f9 26 0f be 53 d9 2a 3d 71 24 40 3e
       0.10682673 -0.1397971 0.041711163 0.18763901
000080 d1 17 0f 3d 96 0c b1 bc 88 77 fb 3d 80 52 72 3d
       0.034934822 -0.021612447 0.12278658 0.05916071
000090 43 c3 81 3d 55 a1 0c bd 5c b8 ec 3d 28 25 d9 bd
       0.06336071 -0.034333546 0.11558601 -0.1060279
0000a0 12 54 91 bd a6 79 57 39 37 f5 42 bd 60 21 8e 3d
       -0.07096113 0.00020549315 -0.047597136 0.069399595
0000b0 01 c5 aa bd e1 df 78 3d f8 f6 80 3d 3e aa 7b 3c
       -0.08338357 0.060760383 0.062971056 0.015360413
0000c0 2a 83 a4 3d 46 65 42 bc a6 3c e5 3d 42 99 c9 3d
       0.0803283 -0.011864966 0.111932084 0.09843685
0000d0 d1 03 6d 3c d5 9d 43 be 5d ba 4c 3d 9a 58 19 3e
       0.014466242 -0.19103177 0.049982417 0.14975205
0000e0 16 45 32 bc 13 39 86 3c 8e ae 24 3d 89 42 61 bc
       -0.010880729 0.016384637 0.04020553 -0.013748773
0000f0 36 74 a2 3d db ec 1c be ac 92 e9 bd c7 74 65 bd
       0.07932322 -0.15324728 -0.114049286 -0.05601957
000100 42 49 91 bc d8 1e 04 3d 0a fd 8d 3c 75 b2 a6 3d
       -0.017735127 0.032255977 0.017332572 0.08139507
000110 c4 4e 01 3c 45 74 e3 bd b9 74 b4 3d f2 dc c3 bd
       0.007892314 -0.11106161 0.088113256 -0.09563626
000120 7a dc 71 bd ca 8e 0a 3c a8 8f a1 bd f5 13 6e 3c
       -0.059048153 0.008456895 -0.078887284 0.014531125
000130 1b de 8a bd 3f e0 f7 bd 62 a3 85 3d 6c a8 66 bc
       -0.067806445 -0.121033184 0.065253034 -0.014078241
000140 d2 cc ba 3c 34 ad a1 3c a9 47 29 bd 40 46 85 ba
       0.022802744 0.01973591 -0.041328106 -0.0010168031
000150 1d 96 fa 3d 0d 98 bc bd cc bb ae bd 54 e5 24 3d
       0.12235663 -0.09208689 -0.08531913 0.040257767
000160 a8 89 25 be 45 4a ab bd d7 8f 47 be 1c a7 46 3d
       -0.16165793 -0.08363775 -0.19488464 0.04849921
000170 ce c3 e6 bc ce ec f7 bb 3c 6a 46 bd aa 1a ac 3c
       -0.028169539 -0.007566071 -0.048441157 0.021008808
000180 47 c5 3b 3c f1 b1 85 bc fc 0c 93 bd 0c 07 8b 3d
       0.011460609 -0.0163202 -0.07180211 0.067884535
000190 82 53 9e 3c 06 e9 a1 bd 0c 6e b6 bd d6 6d 7c 3d
       0.019326929 -0.07905774 -0.089077085 0.061628185
0001a0 5b 17 85 3d 3c be b3 3d 6a 38 ab 3d 5c a5 79 3d
       0.06498595 0.08776519 0.083603695 0.060948715
0001b0 85 47 c6 bb a0 6d 69 bd 49 3e 80 3d 08 56 b9 3a
       -0.0060510063 -0.056989312 0.0626188 0.0014140019
0001c0 f8 68 d3 bc 9a 1f 8b 3d 7c e4 b4 bd b3 6c 88 bc
       -0.025806889 0.06793137 -0.088326424 -0.016653394
0001d0 26 02 78 bd cc f2 46 bd 11 56 f1 3b 37 67 cd bd
       -0.060548924 -0.048571393 0.0073649962 -0.10029452
0001e0 57 73 b8 bc 23 4c 55 3e 63 d5 a3 bd 1b 1f 21 be
       -0.022515936 0.20829825 -0.07999685 -0.15734522
0001f0 08 e5 a1 bd 10 64 4f 3d 7b e2 78 3d 46 d4 3e be
       -0.07905012 0.050632536 0.060762864 -0.18635663
000200 f7 14 2e 3d 20 ec 27 bd 40 e5 8d 3d 35 03 12 3d
       0.042500462 -0.04099667 0.069284916 0.03564759
000210 75 56 52 3e fa 6a 05 3e b7 73 02 be 52 4a fe bd
       0.20540793 0.1302909 -0.12739454 -0.12416519
000220 b1 33 bf bd b6 b3 60 3d a5 7e c0 bd 5e 32 11 bd
       -0.09336031 0.054858886 -0.093991555 -0.035448425
000230 d0 5b 16 3d e4 f9 5a 3d ae 88 c4 bd 7e 07 3c 3c
       0.036708653 0.05346097 -0.09596382 0.011476396
000240 00 9c 00 3e 67 6a 26 3e b5 1e 16 3e 0a bc d3 bc
       0.1255951 0.16251527 0.14660151 -0.0258465
000250 86 7c 11 be c8 f1 f4 3d ae 49 31 3d 38 65 be 3d
       -0.14207658 0.119601786 0.043283157 0.0929665
000260 3b 64 1d 3d 34 4e 86 3c 54 92 bc bd ca d6 a2 3d
       0.038425665 0.016394712 -0.092075974 0.07951124
000270 9a 93 3f 3e 34 46 b4 3c da 39 d4 bc 2a 28 f7 bd
       0.1870865 0.022006132 -0.025906492 -0.120682076
000280 ec 50 a9 bd f8 2b 3d 3e f3 1b 15 be b2 6b 60 bc
       -0.08267388 0.18473804 -0.14561443 -0.013697552
000290 fa 1e d3 bc 5f f5 c8 3d a4 15 58 bb a4 34 a7 3c
       -0.025771607 0.09812426 -0.0032971883 0.020410843
0002a0 ee 02 00 3e 66 13 a6 bc 52 fd 71 bd 26 45 f6 bd
       0.12501118 -0.020272922 -0.059079476 -0.12024908
0002b0 e3 ab 4e bd 84 e1 c5 ba 5c d9 4e 3d bd f8 fe bc
       -0.050456893 -0.0015097116 0.05050026 -0.031124467
0002c0 4a ea e3 3c 6d 97 1f be c2 b5 35 3d 4c 9e 5e bd
       0.027821679 -0.15585108 0.04436279 -0.054350182
0002d0 3a e6 53 3d 77 1f 95 bc df 15 14 be 58 04 d7 3d
       0.051733233 -0.01820348 -0.14461468 0.104988754
0002e0 d3 bc 4a be ac 33 48 bd 65 30 b0 bc 41 df 22 3e
       -0.19798593 -0.048877403 -0.021507451 0.15905477
0002f0 91 66 da bc 6b 5c ea 3d 44 17 b1 3c 9d 65 4e bd
       -0.026660236 0.114434086 0.02161754 -0.050389875
000300 7e 25 c6 bd eb 34 8d 3d aa df aa 3d dc c2 41 bc
       -0.0967512 0.06894859 0.08343442 -0.011826243
000310 2e 9b d4 bd d4 a0 e0 bd d9 87 74 bc c7 49 ab 3c
       -0.10381161 -0.109681755 -0.014924967 0.020909203
000320 97 ec a3 3d 15 92 13 3e 8e 10 40 bc 43 b2 6b be
       0.0800411 0.14411195 -0.011722697 -0.2301722
000330 5b 74 90 bc a6 a3 96 bd 05 5e cd bd 67 06 a8 3d
       -0.017633608 -0.07355432 -0.100276984 0.08204346
000340 a4 eb c5 3d 94 9f 82 3c 0a f8 af 3c 88 10 b3 bd
       0.096640855 0.015945233 0.021480579 -0.087433875
000350 40 68 41 3d 4f f3 13 3e 9b f7 ce bc 6f f0 13 be
       0.04721856 0.14448284 -0.025264552 -0.14447187
000360 69 a3 0c 3c e1 e1 1d bd 36 7c 65 3d b9 75 a4 3c
       0.008583882 -0.038545493 0.05602666 0.020075666
000370 4e 0b 24 3d 85 77 8f be db 25 2b 3e 14 0d 01 3d
       0.040049843 -0.28020874 0.1671366 0.031506613
000380 9a 9d a9 3d cb 63 07 be 5d 3b 72 bd b5 64 12 bd
       0.08282013 -0.13221662 -0.059138644 -0.035740573
000390 89 3d 03 3e 9c 47 54 3e 1c 2d 01 be 9f 8e cd bd
       0.12816443 0.20730442 -0.12614864 -0.100369684
0003a0 bc 30 25 3d 7e 25 aa bd 5d c5 d9 3d 1c e9 24 3e
       0.04032968 -0.08307932 0.10633347 0.16104549
0003b0 58 06 23 bd 0d 44 7c 3d 83 71 8f 3d 81 55 1a bd
       -0.03980097 0.061588336 0.070040725 -0.0376792
0003c0 5b 04 79 3d 8a 28 4d 3c 44 c2 2f bd 46 ad ed bc
       0.06079517 0.012521872 -0.042909876 -0.029013287
0003d0 e9 fa 0a be ae cc 09 3e 01 9e ee bc 0f 1f f6 3d
       -0.13572277 0.13456985 -0.029128077 0.12017643
0003e0 f4 19 48 3d 1c e0 9d 3c f1 58 bd bd 40 85 5a bc
       0.048852876 0.019271903 -0.0924548 -0.013337433
0003f0 30 e9 b0 3d 89 da 80 3e ef 6d bb bd 82 e2 63 bd
       0.08638227 0.2516673 -0.091518275 -0.055635937

elmoments.4.bias f4 [4]
000000 00 00 00 00 00 00 00 00 00 00 00 00 00 00 00 00
       0.0 0.0 0.0 0.0
