aimnet/pretrained/aimnet/aimnet_mt_cv2.pt (torch_old, 401730 bytes, 16 tensors)

volume.0.weight f4 [128, 128]
000000 25 6f a2 3b b8 ad ed bc f6 11 1e 3e 3e 24 1e 3e
       0.004957097 -0.0290135 0.15436539 0.15443513
000010 cc 95 75 bd 5e 86 9e bc d0 97 b0 3c 1c 76 e6 3c
       -0.05995731 -0.01935118 0.021556765 0.02813249
000020 0f 2a ff bc a7 e1 97 ba 97 21 3b 3e aa 59 cd bc
       -0.031147985 -0.0011587635 0.18274532 -0.02506717
000030 5e 6d 1e 3c ea 65 16 bd 5b 58 e4 3d 8f d5 6a 3c
       0.00966963 -0.036718287 0.11149665 0.014333143
000040 9c bf 0c bc 65 11 fe bd db 8f 5f ba 78 f4 1c bd
       -0.008590605 -0.124056615 -0.0008528211 -0.03831908
000050 13 12 b1 bd f0 73 d9 bd cf 67 a5 bd 82 02 ca bd
       -0.086460255 -0.106178164 -0.080764405 -0.098637596
000060 b8 5e 9a be b7 dd 3e be 2b fd 82 bc 33 1e 15 bd
       -0.3015039 -0.18639265 -0.01598986 -0.036405753
000070 95 ee 99 bc 18 20 b3 3c 68 76 0f bd 50 82 8a 3e
       -0.018790523 0.02186589 -0.03502503 0.27052546
000080 3e a5 27 3d fb a5 8d 3d 39 2e b2 3d d8 54 3d 3b
       0.04092907 0.06916424 0.087002225 0.0028889682
000090 23 23 be bd 26 6a f1 bd 77 65 4d bc 11 da 0f be
       -0.092840455 -0.11787824 -0.012536398 -0.1404803
0000a0 7e 34 a8 bd 1f c0 0d 3d 10 92 91 bd bb cf 9a bc
       -0.08213137 0.03460705 -0.07107937 -0.018897882
0000b0 4c b9 bd 3d 99 29 92 3d ad 47 4b be 8f ff 0f 3d
       0.09263858 0.071368404 -0.19851561 0.03515583
0000c0 8f c1 1b bd c8 27 f2 bd 34 34 ad bb 10 cf c4 3d
       -0.03802639 -0.11823994 -0.005285764 0.096098065
0000d0 d6 19 0d bd d3 83 7e 3d 7e 03 76 bd 57 b1 33 3e
       -0.034448467 0.062137436 -0.060061924 0.17548119
0000e0 b4 8a f6 bc cf 41 95 3d 25 d3 05 3e 5c 4d 2f 3e
       -0.030095436 0.072879426 0.13068826 0.17119354
0000f0 57 20 cc bd 7f 35 72 bd 14 3a a3 3d 1e 59 13 3c
       -0.09967106 -0.05913305 0.07970062 0.008993415
000100 94 4e 2b be 21 47 0c bd 6b 87 27 bd 80 83 a0 3d
       -0.16729194 -0.03424752 -0.04090063 0.07837582
000110 e9 78 65 38 05 cd a3 bd c4 97 3b bc a8 f3 8f bd
       5.471046e-05 -0.07998089 -0.011449758 -0.070288956
000120 12 24 53 bd a2 f2 74 bd b4 6d 8b 3d ef 79 a7 bc
       -0.05154807 -0.059801705 0.068080336 -0.020443885
000130 ea 9e 63 3d 61 3e 22 bc c8 e2 4b 3d 0f cd da bb
       0.055571474 -0.009902568 0.049776822 -0.006677277
000140 ea a6 c6 3d ee 30 de bd dc 05 0f bd 1e 7d 0f 3c
       0.09699805 -0.10849176 -0.034917697 0.008757858
000150 90 38 b8 bd 82 f1 82 bd 94 ff 20 3d a3 57 8a 3d
       -0.089951634 -0.0639372 0.03930624 0.06754997
000160 7f 60 7f 3d 78 aa 1e 3c 69 2f a1 bd f0 90 cf bb
       0.062347885 0.009684198 -0.07870371 -0.0063344166
000170 81 2d 5c 3d a5 7a 32 3e 50 d4 6d 3c b0 e3 07 be
       0.053754333 0.17429598 0.014515951 -0.1327045
000180 e0 52 92 bd d6 f3 72 bc 2f ff 0c 3e 67 6f 94 3a
       -0.071447134 -0.014828643 0.1376922 0.0011324704
000190 7f af e1 3b c3 3a 30 bd d9 ae 4d 3d 26 d0 85 bd
       0.006887376 -0.04302479 0.050215576 -0.06533842
0001a0 2b e7 37 be e0 cd 7c 3d 97 29 55 be 4c a9 f1 3d
       -0.17959277 0.061719775 -0.20816647 0.11799869
0001b0 c5 fd 68 bd 58 6a 9e 3c a2 e3 27 bd 7a 6b a7 3b
       -0.05688264 0.019337818 -0.040988572 0.0051092478
0001c0 57 da 98 bd 93 c1 dd 3d 0d 4d 90 bc dd ab 80 bd
       -0.0746352 0.10827937 -0.017614866 -0.0628278
0001d0 72 5f 92 3c 5f 4a 9c 3c 92 d7 ec 3c a4 61 c7 bd
       0.017867777 0.019078432 0.028911386 -0.0973542
0001e0 2f 64 54 3e 93 c7 6a 3d b9 a0 93 3d 3d 97 47 3c
       0.20741342 0.057319235 0.0720839 0.012182054
0001f0 d9 f7 f5 bd 58 bf 33 3d 1d 8b 3d be c4 4c 0f be
       -0.12010164 0.04388365 -0.18510099 -0.13994128
000200 af 16 c9 bd 7f a5 5a 3c 54 16 29 be e9 15 cb 3d
       -0.0981878 0.013345121 -0.16512424 0.099162884
000210 b2 82 13 3e a5 a3 5e bd 21 86 44 3d 7c 1c 40 3d
       0.14405325 -0.054355282 0.047979478 0.046902165
000220 51 d9 23 3b f1 6c d3 bd 0a c9 81 3c 80 99 d9 3d
       0.0025001357 -0.10323513 0.015842933 0.10624981
000230 d9 3a 10 be d1 3b 4e 3c 27 ca b2 bd e3 02 d0 3d
       -0.14084949 0.0125875035 -0.08729964 0.101568006
000240 fc ad 8b 3d 27 5f 10 be 13 b6 5e 3c d5 8e 14 3d
       0.06820294 -0.14098798 0.013593215 0.036269028
000250 f8 95 e4 3d b2 aa 1a 3d b1 a6 4f 3d f2 62 52 3d
       0.11161417 0.037760444 0.05069608 0.051363893
000260 f2 ca 2f bd cf 85 2d 3d 6e bc cd bc ac 47 03 3e
       -0.042918153 0.042363938 -0.025114264 0.1282031
000270 a7 f0 d5 bd a8 15 3d be 1b ec ae bc a0 28 b8 bb
       -0.104462914 -0.18465292 -0.021352818 -0.0056200773
000280 f9 a4 11 be 01 55 00 be fd 24 d3 3d 44 48 3c bd
       -0.14223088 -0.12532426 0.10309789 -0.045967355
000290 5e e6 3a bb 10 28 96 3d 97 c9 8b 3c 60 68 44 3d
       -0.0028518657 0.0733186 0.017063899 0.047951102
0002a0 32 a6 b3 3d 92 50 8c bc 0f 48 ca bd 72 44 59 bd
       0.087719336 -0.017128263 -0.09877025 -0.05304379
0002b0 d5 84 4b bd 25 3c 53 bd 74 d4 a3 3b cd 9e 70 3b
       -0.049687225 -0.05157103 0.0049996916 0.0036715746
0002c0 e3 af e1 3d 70 5c 48 3e 4a 5f f2 3b 9c 16 82 3d
       0.11019876 0.19566512 0.0073966132 0.06351969
0002d0 95 3a 7e 3e e6 82 37 3d 37 12 1b be 20 e3 2a be
       0.24827035 0.04480257 -0.15143667 -0.16688204
0002e0 9e 28 08 be b2 42 ba bd 39 8b db bd c2 1b 03 3e
       -0.13296744 -0.09094752 -0.10719914 0.12803558
0002f0 10 43 95 bc 65 2d b8 bc 03 1b 49 bb af 6e 8e 3c
       -0.018220454 -0.022482583 -0.0030686266 0.017386762
000300 f3 0f d1 bc df c4 c3 3d d0 c7 80 3c 0a 52 c8 3c
       -0.0255203 0.095590346 0.015720278 0.024453182
000310 87 83 08 3d d1 ca 91 bd 1a 4f 07 bc 1c 8a ec 3c
       0.03332856 -0.07118762 -0.008258605 0.02887445
000320 82 55 e9 3d 2e 43 d6 bb 16 4e e7 3d 20 18 50 3d
       0.113932624 -0.00653877 0.112941906 0.050804257
000330 11 44 01 3e 82 58 27 be be b2 d8 bc df a8 36 bb
       0.12623622 -0.16342357 -0.026452418 -0.002787165
000340 35 44 d8 bd 4c c4 ff bd 1c 09 f4 3d 80 f4 1a bd
       -0.105598845 -0.124886125 0.119158 -0.03783083
000350 17 a3 54 3d 17 bd 4e 3b 87 d2 7a bd cd 5a 9d bd
       0.051913347 0.0031545812 -0.06123593 -0.076833345
000360 f3 cf 1d 3d eb 40 d9 bd a5 67 da bd 9b 35 a4 3d
       0.038528394 -0.10608085 -0.106643 0.08018037
000370 11 21 9f bd b3 4a 28 be 1b 26 a6 bc 55 ab da bc
       -0.07769979 -0.16434745 -0.020281842 -0.026693026
000380 90 80 c4 bd a6 af cc bb 6e 12 78 3d 27 c7 b2 bd
       -0.09594834 -0.006246525 0.06056445 -0.087293915
000390 8b 6a c3 3a 03 1e 4b be 7a 8b 21 be 96 ea c3 3d
       0.0014909072 -0.19835667 -0.15775862 0.09566228
0003a0 87 e7 75 be 51 65 68 3b e6 ef 10 3d 22 7a c6 3c
       -0.24014102 0.003546078 0.035385035 0.02422816
0003b0 dd 51 c9 3d 8f b6 fc bd 6e 03 0d bc 67 d9 32 be
       0.09830067 -0.12339508 -0.008606775 -0.17465745
0003c0 58 92 b1 3d 71 15 9c bd 38 c1 b7 bd ef 1e 59 3c
       0.08670491 -0.07621277 -0.089724004 0.013252004
0003d0 84 cd 76 bd 49 5d 90 ba 84 0e 15 be 92 75 d3 3d
       -0.06025459 -0.0011014129 -0.14556319 0.10325159
0003e0 a3 af 21 bd 16 89 1c 3c 7a d5 89 3d 32 e7 a4 bd
       -0.03947414 0.009554168 0.067301705 -0.080519095
0003f0 a7 e4 92 bd 3e 90 04 3e fd 64 86 bd fc 2c 16 bd
       -0.07172518 0.12945649 -0.06562231 -0.036663994

volume.0.bias f4 [128]
000000 00 00 00 00 00 00 00 00 00 00 00 00 00 00 00 00
       0.0 0.0 0.0 0.0
000010 00 00 00 00 00 00 00 00 00 00 00 00 00 00 00 00
       0.0 0.0 0.0 0.0
000020 00 00 00 00 00 00 00 00 00 00 00 00 00 00 00 00
       0.0 0.0 0.0 0.0
000030 00 00 00 00 00 00 00 00 00 00 00 00 00 00 00 00
       0.0 0.0 0.0 0.0
000040 00 00 00 00 00 00 00 00 00 00 00 00 00 00 00 00
       0.0 0.0 0.0 0.0
000050 00 00 00 00 00 00 00 00 00 00 00 00 00 00 00 00
       0.0 0.0 0.0 0.0
000060 00 00 00 00 00 00 00 00 00 00 00 00 00 00 00 00
       0.0 0.0 0.0 0.0
000070 00 00 00 00 00 00 00 00 00 00 00 00 00 00 00 00
       0.0 0.0 0.0 0.0
000080 00 00 00 00 00 00 00 00 00 00 00 00 00 00 00 00
       0.0 0.0 0.0 0.0
000090 00 00 00 00 00 00 00 00 00 00 00 00 00 00 00 00
       0.0 0.0 0.0 0.0
0000a0 00 00 00 00 00 00 00 00 00 00 00 00 00 00 00 00
       0.0 0.0 0.0 0.0
0000b0 00 00 00 00 00 00 00 00 00 00 00 00 00 00 00 00
       0.0 0.0 0.0 0.0
0000c0 00 00 00 00 00 00 00 00 00 00 00 00 00 00 00 00
       0.0 0.0 0.0 0.0
0000d0 00 00 00 00 00 00 00 00 00 00 00 00 00 00 00 00
       0.0 0.0 0.0 0.0
0000e0 00 00 00 00 00 00 00 00 00 00 00 00 00 00 00 00
       0.0 0.0 0.0 0.0
0000f0 00 00 00 00 00 00 00 00 00 00 00 00 00 00 00 00
       0.0 0.0 0.0 0.0
000100 00 00 00 00 00 00 00 00 00 00 00 00 00 00 00 00
       0.0 0.0 0.0 0.0
000110 00 00 00 00 00 00 00 00 00 00 00 00 00 00 00 00
       0.0 0.0 0.0 0.0
000120 00 00 00 00 00 00 00 00 00 00 00 00 00 00 00 00
       0.0 0.0 0.0 0.0
000130 00 00 00 00 00 00 00 00 00 00 00 00 00 00 00 00
       0.0 0.0 0.0 0.0
000140 00 00 00 00 00 00 00 00 00 00 00 00 00 00 00 00
       0.0 0.0 0.0 0.0
000150 00 00 00 00 00 00 00 00 00 00 00 00 00 00 00 00
       0.0 0.0 0.0 0.0
000160 00 00 00 00 00 00 00 00 00 00 00 00 00 00 00 00
       0.0 0.0 0.0 0.0
000170 00 00 00 00 00 00 00 00 00 00 00 00 00 00 00 00
       0.0 0.0 0.0 0.0
000180 00 00 00 00 00 00 00 00 00 00 00 00 00 00 00 00
       0.0 0.0 0.0 0.0
000190 00 00 00 00 00 00 00 00 00 00 00 00 00 00 00 00
       0.0 0.0 0.0 0.0
0001a0 00 00 00 00 00 00 00 00 00 00 00 00 00 00 00 00
       0.0 0.0 0.0 0.0
0001b0 00 00 00 00 00 00 00 00 00 00 00 00 00 00 00 00
       0.0 0.0 0.0 0.0
0001c0 00 00 00 00 00 00 00 00 00 00 00 00 00 00 00 00
       0.0 0.0 0.0 0.0
0001d0 00 00 00 00 00 00 00 00 00 00 00 00 00 00 00 00
       0.0 0.0 0.0 0.0
0001e0 00 00 00 00 00 00 00 00 00 00 00 00 00 00 00 00
       0.0 0.0 0.0 0.0
0001f0 00 00 00 00 00 00 00 00 00 00 00 00 00 00 00 00
       0.0 0.0 0.0 0.0

volume.2.weight f4 [128, 128]
000000 4a 0c 12 3e 82 99 88 3d 8d 5e d4 ba 90 f9 31 3e
       0.142625 0.06669904 -0.0016202495 0.17380357
000010 de 47 03 3e c8 5b 14 3e be 3d ec bc d8 a1 06 3d
       0.12820384 0.14488137 -0.028838035 0.03286919
000020 ad 6b 62 3d 71 12 e7 bd 91 7c b2 bd ec 79 b9 bd
       0.05527847 -0.11282814 -0.087151654 -0.09056458
000030 d1 c1 86 3d 29 c8 5f bb 22 4b 68 bd fb 04 1b 3d
       0.06579936 -0.0034146404 -0.056712277 0.037846547
000040 e2 80 90 bd 83 6c b8 3d 67 25 34 3c 52 70 2b 3c
       -0.070558324 0.09005072 0.010995246 0.010463791
000050 d0 24 8a 3c cc 56 f0 3d c9 62 5d bd 0c 50 9f bd
       0.016863257 0.11735305 -0.054049287 -0.077789396
000060 63 5a 0f 3d 10 ee c7 3c e8 70 08 be 2c a3 c0 3a
       0.03499831 0.02440551 -0.1332432 0.0014697067
000070 19 e1 0c be 4f fa 44 3e 74 0a 21 3d 7c 0e 75 bd
       -0.13757743 0.1923611 0.03931661 -0.059828267
000080 05 2c 11 3c a2 71 b6 3d a7 16 dc 3c bc b6 af 3d
       0.008860593 0.089083925 0.02686627 0.08579776
000090 4b 41 50 bd 5b bc 73 3d ff 17 8f bc 67 c6 7d bd
       -0.05084352 0.0595058 -0.017467497 -0.06195679
0000a0 3a 4e 5a 3d 53 c6 05 3d 4b c8 95 3d d9 e7 5a bd
       0.05329726 0.03265984 0.073135935 -0.053443763
0000b0 8c e1 43 bc 33 3d 28 3c 70 f4 a0 3b b8 be 28 bc
       -0.01195563 0.010268497 0.0049119517 -0.010299377
0000c0 40 8c 94 3c 98 a6 33 3d 1b a8 9b 3b 7b 73 19 bd
       0.018133283 0.043860048 0.0047502643 -0.037463646
0000d0 f7 9d 7e 3d c8 84 32 bd 29 f1 f3 bd 87 98 1a 3e
       0.062162366 -0.04358366 -0.11911232 0.15097247
0000e0 a4 bf 03 3e 61 07 19 be 03 23 f4 3d 8c d8 63 3c
       0.12866074 -0.14944221 0.119207405 0.013906609
0000f0 d2 08 82 bd c9 02 5d 3d 12 d7 a6 bd ba e7 59 ba
       -0.063493386 0.053957734 -0.0814649 -0.0008312423
000100 60 e3 39 3e 66 a1 90 bd ab 56 b5 3d c3 48 00 bd
       0.18153143 -0.07062034 0.08854421 -0.03131939
000110 3f 32 04 bb e1 5d f3 bd 31 70 da bc 37 56 24 bb
       -0.002017155 -0.1188314 -0.026664825 -0.0025075802
000120 08 60 8a 3d 01 a9 90 bd 6e c5 d8 3d 66 5b 16 3d
       0.06756598 -0.07063485 0.10584532 0.036708258
000130 72 48 90 3d d5 46 fa bd f6 54 c2 bd cc e7 2f bd
       0.07045068 -0.122205414 -0.09488861 -0.042945668
000140 7a 65 4b be 24 64 af 3d 15 a2 11 3e a3 10 33 bd
       -0.19862929 0.08564022 0.14221986 -0.043717038
000150 72 05 91 bd d3 07 11 bd e9 63 d9 3c 54 c2 18 3d
       -0.07081117 -0.035407852 0.026536899 0.0372947
000160 0a 17 42 3c 30 1c 1e bd 2b 02 90 3c e7 9d 12 ba
       0.011846313 -0.0386011 0.017579159 -0.0005592987
000170 64 a0 82 3d 23 df 2d 3e f0 4b 3d bd d5 00 ab bd
       0.06378248 0.16979651 -0.046214998 -0.08349768
000180 b9 62 eb bd 72 a2 da 3c 62 97 8e ba cf 95 2a 3d
       -0.11493439 0.026688788 -0.0010878856 0.041646775
000190 58 66 9f 3d 2c 88 33 3d 40 12 8d ba 3e c3 8c 3d
       0.077831924 0.043831035 -0.0010762885 0.06873177
0001a0 cb 97 6f bd b0 54 6f 3c 64 43 d0 3b 5b 07 68 3c
       -0.05849437 0.014607593 0.00635569 0.01416191
0001b0 44 d9 7a bd d8 87 59 3b df f2 bd 3c 04 aa 54 3c
       -0.061242357 0.0033192541 0.023187099 0.012979988
0001c0 41 b8 ac 3d 7e be ca bd 5b 79 bf bc 19 b8 e1 3d
       0.08433581 -0.09899615 -0.023373296 0.11021442
0001d0 18 d4 ab 3d 7c 87 83 3d e6 ae 16 bd 1f 28 b6 bd
       0.08390063 0.06422326 -0.03678789 -0.08894371
0001e0 95 5a 37 3d 67 93 37 3d 19 df f7 3d 7a 15 0d 3d
       0.04476412 0.04481831 0.121030994 0.03444431
0001f0 92 73 18 be 88 b6 b5 3d 8c 89 81 bd 31 2a 40 bd
       -0.14887837 0.08872706 -0.06325063 -0.046915237
000200 19 16 e1 bc 9c 53 72 3d be 46 db 3d 47 d4 fc 3a
       -0.027476357 0.059161767 0.107068524 0.0019289338
000210 c9 5d 71 bd 40 b4 6e bd 7e 1e d4 bd 2a b1 b8 3c
       -0.05892733 -0.05827737 -0.103573784 0.022545416
000220 c9 32 e2 bb 8e 3e c2 3d a3 99 36 bd 37 af 68 be
       -0.0069030267 0.094845876 -0.044580113 -0.22723089
000230 99 10 4f be 48 f4 d3 bd 52 b4 22 be 6f a0 28 3d
       -0.20221175 -0.10349327 -0.15889099 0.041168626
000240 0f 31 2a 3d 34 1e 37 bd 70 e3 c1 bc 2e 59 0e be
       0.041550692 -0.04470654 -0.023668021 -0.13901207
000250 d2 ba 22 bd c8 53 14 bd d4 f2 32 bd a7 2e b1 bd
       -0.039728947 -0.036212713 -0.04368861 -0.08651476
000260 fc ff e6 3d 52 36 e3 bd 01 04 ae 3b e8 90 ce 3d
       0.11279294 -0.11094345 0.005310536 0.100862324
000270 23 04 12 3b 4f 0f ce 3d 13 55 02 be fa 2a f0 3d
       0.0022280298 0.10061514 -0.12727766 0.11726947
000280 e5 00 e0 bb c0 ad 93 3c 71 6d a9 bd 67 71 1d be
       -0.006836044 0.018027186 -0.082728274 -0.15375291
000290 d4 07 61 bd 9f 90 3d bd d5 da ef b9 24 d7 d1 3d
       -0.054939106 -0.0462805 -0.00045748675 0.10246113
0002a0 f5 74 30 bc a3 c4 7c bd ae 0b 2e 3e 2b 66 17 3e
       -0.010770072 -0.061710965 0.16996643 0.14785068
0002b0 92 8e 12 3d cd 9d 74 3d ee b2 85 3e 88 e0 e6 3c
       0.035780497 0.059720803 0.26113075 0.028183237
0002c0 4d 06 7d bc fb 12 55 bd 1c 4b b7 bd 1b 60 72 3d
       -0.015443397 -0.052020054 -0.08949873 0.059173685
0002d0 38 c6 db 3b c2 9c 15 be 67 0c 0e 3c d2 fd 39 be
       0.006706979 -0.1461058 0.008669949 -0.18163231
0002e0 06 6f 91 be 92 c8 fd bd 68 c7 1c bd d5 dc ad bb
       -0.28405017 -0.123917714 -0.038276106 -0.0053058662
0002f0 84 24 8a bc ac 84 d0 bd 7a 04 42 bd a2 c5 44 bc
       -0.016863115 -0.10181555 -0.04736755 -0.01201001
000300 6e f7 65 be 47 d2 bc 3d 47 4c f0 3d f3 87 c0 3d
       -0.22457668 0.09219795 0.11733299 0.0940093
000310 42 7c 11 bd 0a db 0b 3e 3f 37 8f bc fa 5b 09 be
       -0.035518892 0.13657776 -0.017482398 -0.13413993
000320 c4 86 62 be 96 8d 45 3c 4c 44 5f 3d 4d c5 d5 3b
       -0.22121722 0.0120576825 0.054508492 0.006523764
000330 45 60 6f bd 6f c3 e3 3d b7 89 b9 bc 4d 8e 96 bc
       -0.05844142 0.111212604 -0.022648675 -0.018378401
000340 5b 88 36 3d 98 35 33 bd 75 fc f2 bc df ef e8 3c
       0.044563632 -0.043752283 -0.029661397 0.028434692
000350 6c 41 46 bd 22 f7 91 3d 0f 8e 01 be cf 21 8f bd
       -0.048402235 0.07127215 -0.12651847 -0.0698887
000360 47 29 c5 b9 eb 91 38 3d 66 14 89 bd 1c 03 ec 3d
       -0.00037605522 0.045061033 -0.06693344 0.115240306
000370 a8 79 7a 3e 8d 04 92 bd 0b 6c c3 bd b3 cb 15 be
       0.2446047 -0.07129774 -0.09542092 -0.14628486
000380 06 9c b7 3b 72 72 8e 3c 1e 09 32 3d 3a 28 6b bd
       0.0056033162 0.017388556 0.043465726 -0.05741141
000390 0a 7c 18 3d 02 a7 48 bd d2 d2 e4 3d 39 2f e6 bd
       0.037227668 -0.048987396 0.11173023 -0.11239476
0003a0 4e 57 92 bd 31 cf 70 bd f5 0b 0a 3e 57 3c 0e bd
       -0.07145558 -0.058791343 0.13481124 -0.034725513
0003b0 6e 66 fe bd 6c cf be 3d e5 45 04 be ab 97 6d 3d
       -0.12421881 0.09316906 -0.12917288 0.05800597
0003c0 87 ea 16 3e 53 6a d7 ba 48 a9 97 bd dd 28 1e 3b
       0.14737903 -0.0016434885 -0.07405335 0.0024133243
0003d0 5c 65 14 3d f1 f0 8c bc ba 2d 76 3e 61 5f 98 3c
       0.036229476 -0.017204734 0.24040881 0.018600168
0003e0 33 ca 58 3a d0 e5 30 3e 67 de 4a 3d ec d9 15 bd
       0.0008269876 0.17275167 0.049528506 -0.03658478
0003f0 28 ba d8 3d 5d 52 ed b9 de 97 07 be db 7a 27 3c
       0.105823815 -0.00045265528 -0.13241526 0.010222162

volume.2.bias f4 [128]
000000 00 00 00 00 00 00 00 00 00 00 00 00 00 00 00 00
       0.0 0.0 0.0 0.0
000010 00 00 00 00 00 00 00 00 00 00 00 00 00 00 00 00
       0.0 0.0 0.0 0.0
000020 00 00 00 00 00 00 00 00 00 00 00 00 00 00 00 00
       0.0 0.0 0.0 0.0
000030 00 00 00 00 00 00 00 00 00 00 00 00 00 00 00 00
       0.0 0.0 0.0 0.0
000040 00 00 00 00 00 00 00 00 00 00 00 00 00 00 00 00
       0.0 0.0 0.0 0.0
000050 00 00 00 00 00 00 00 00 00 00 00 00 00 00 00 00
       0.0 0.0 0.0 0.0
000060 00 00 00 00 00 00 00 00 00 00 00 00 00 00 00 00
       0.0 0.0 0.0 0.0
000070 00 00 00 00 00 00 00 00 00 00 00 00 00 00 00 00
       0.0 0.0 0.0 0.0
000080 00 00 00 00 00 00 00 00 00 00 00 00 00 00 00 00
       0.0 0.0 0.0 0.0
000090 00 00 00 00 00 00 00 00 00 00 00 00 00 00 00 00
       0.0 0.0 0.0 0.0
0000a0 00 00 00 00 00 00 00 00 00 00 00 00 00 00 00 00
       0.0 0.0 0.0 0.0
0000b0 00 00 00 00 00 00 00 00 00 00 00 00 00 00 00 00
       0.0 0.0 0.0 0.0
0000c0 00 00 00 00 00 00 00 00 00 00 00 00 00 00 00 00
       0.0 0.0 0.0 0.0
0000d0 00 00 00 00 00 00 00 00 00 00 00 00 00 00 00 00
       0.0 0.0 0.0 0.0
0000e0 00 00 00 00 00 00 00 00 00 00 00 00 00 00 00 00
       0.0 0.0 0.0 0.0
0000f0 00 00 00 00 00 00 00 00 00 00 00 00 00 00 00 00
       0.0 0.0 0.0 0.0
000100 00 00 00 00 00 00 00 00 00 00 00 00 00 00 00 00
       0.0 0.0 0.0 0.0
000110 00 00 00 00 00 00 00 00 00 00 00 00 00 00 00 00
       0.0 0.0 0.0 0.0
000120 00 00 00 00 00 00 00 00 00 00 00 00 00 00 00 00
       0.0 0.0 0.0 0.0
000130 00 00 00 00 00 00 00 00 00 00 00 00 00 00 00 00
       0.0 0.0 0.0 0.0
000140 00 00 00 00 00 00 00 00 00 00 00 00 00 00 00 00
       0.0 0.0 0.0 0.0
000150 00 00 00 00 00 00 00 00 00 00 00 00 00 00 00 00
       0.0 0.0 0.0 0.0
000160 00 00 00 00 00 00 00 00 00 00 00 00 00 00 00 00
       0.0 0.0 0.0 0.0
000170 00 00 00 00 00 00 00 00 00 00 00 00 00 00 00 00
       0.0 0.0 0.0 0.0
000180 00 00 00 00 00 00 00 00 00 00 00 00 00 00 00 00
       0.0 0.0 0.0 0.0
000190 00 00 00 00 00 00 00 00 00 00 00 00 00 00 00 00
       0.0 0.0 0.0 0.0
0001a0 00 00 00 00 00 00 00 00 00 00 00 00 00 00 00 00
       0.0 0.0 0.0 0.0
0001b0 00 00 00 00 00 00 00 00 00 00 00 00 00 00 00 00
       0.0 0.0 0.0 0.0
0001c0 00 00 00 00 00 00 00 00 00 00 00 00 00 00 00 00
       0.0 0.0 0.0 0.0
0001d0 00 00 00 00 00 00 00 00 00 00 00 00 00 00 00 00
       0.0 0.0 0.0 0.0
0001e0 00 00 00 00 00 00 00 00 00 00 00 00 00 00 00 00
       0.0 0.0 0.0 0.0
0001f0 00 00 00 00 00 00 00 00 00 00 00 00 00 00 00 00
       0.0 0.0 0.0 0.0

volume.4.weight f4 [1, 128]
000000 cc e6 b7 3c 9e c2 d7 bd d3 8e 92 bc 42 1c d5 3d
       0.02244892 -0.10535167 -0.01789037 0.104057804
000010 7a 3f 23 bd 17 bd 98 3d db 41 7d bb fb 8a bb bc
       -0.039855458 0.07457941 -0.003864399 -0.02289342
000020 d8 f1 12 be 26 17 04 3c 61 70 5b 3d 99 e6 29 be
       -0.14350069 0.00806216 0.05357397 -0.16591872
000030 36 04 99 3c 05 a0 a1 3c cd ce 28 3e 76 62 79 3d
       0.018678766 0.019729624 0.16485138 0.060884915
000040 11 70 77 3d 9d 65 b9 3d c9 da f9 3d 2f 13 23 3d
       0.06040961 0.09052584 0.12199933 0.039813217
000050 f6 ef 7b 3d c3 46 94 bb b8 bf 82 3b 2c 45 94 bc
       0.06150814 -0.004525037 0.00399014 -0.01809939
000060 6f 1f 8d 3d 8a 3e af 3d c6 c6 4c be f6 b8 2e 3e
       0.06890761 0.0855685 -0.19997701 0.17062744
000070 63 ff 9f bd ac db 30 3d d7 52 36 bd 36 e6 fd 3c
       -0.07812383 0.043178245 -0.044512596 0.030993562
000080 b3 24 18 3e 93 12 91 bc c2 19 b4 bd 53 78 03 be
       0.1485775 -0.017709052 -0.087939754 -0.12838869
000090 bd 2c d0 bd 1b 4b bf bc 34 4d 4e bd f7 a2 1d be
       -0.10164783 -0.023351243 -0.050366595 -0.15394197
0000a0 6c 16 af 3d a0 28 e2 3d 93 96 d8 3d ff 69 3d 3d
       0.085491985 0.11042905 0.10575595 0.046243664
0000b0 93 31 94 3d 1b be 2a 3d b9 78 0c be 9d cb 38 bd
       0.07236018 0.041685205 -0.13717927 -0.045116056
0000c0 f6 eb 88 bd 32 45 36 3b 73 e3 c1 bd 43 92 a4 bc
       -0.06685631 0.002781224 -0.094672106 -0.020089274
0000d0 c2 ea 8d bb 84 2d 83 3b ca 50 58 bd d4 cc 59 bb
       -0.004330964 0.0040032286 -0.05281142 -0.003323366
0000e0 f1 59 0d 3e 1d 6b 53 bd 11 d6 d0 bd bb c1 3d bd
       0.13803841 -0.051615823 -0.1019708 -0.046327334
0000f0 b3 2f 06 3d b5 b6 d1 bb 46 40 73 3d 06 e8 b5 bd
       0.032760333 -0.006399954 0.059387468 -0.088821456
000100 5e 22 ac bd 53 dc 1c bd 38 cc ad bb f8 14 1e 3d
       -0.084049925 -0.038296055 -0.005303886 0.038594216
000110 3e 6c c9 bd 41 46 84 bd 17 70 1e be cd 5e 2d be
       -0.09835099 -0.06458712 -0.15472446 -0.16930695
000120 6c 25 2e 3d 28 b5 0b bb 55 1e d8 3d f1 5b cd 3d
       0.042516157 -0.0021317694 0.105526604 0.10027302
000130 36 10 24 be 0a ae 95 bd fa e9 a4 3a bc e0 f3 bd
       -0.16021809 -0.07308586 0.0012581937 -0.11908099
000140 c1 07 93 bd e1 9f bf bc 1a 19 17 3d 52 8d 3f bd
       -0.07179213 -0.023391666 0.036889173 -0.046765633
000150 9d 36 0e be 64 f5 7b 3d e3 24 0c 3d ba f4 fb bd
       -0.13888021 0.06151332 0.034214865 -0.12302537
000160 e7 c6 d0 bd bb 35 0a 3e 04 d4 a4 bd f8 fd 55 3d
       -0.101941876 0.13497059 -0.08048251 0.052244157
000170 95 83 36 3e 21 2a df 3d 54 8e 3e bd 94 21 ae 3d
       0.17823632 0.10896707 -0.046522453 0.08502498
000180 2f 0b ab 3c 4e df 12 be c1 f6 a6 3d 25 36 18 3d
       0.020879356 -0.14342996 0.08152533 0.03716101
000190 8a 92 27 3d 8d 9e 2f bd 64 92 81 bd 37 cf 90 bd
       0.040911235 -0.042875815 -0.0632675 -0.07070773
0001a0 29 9f d0 3d 54 74 2e 3c 00 a0 bd 3d 5c d3 a9 3d
       0.101866074 0.010647852 0.09259033 0.08292267
0001b0 9a a6 83 3d 1a c8 14 3e 6f 56 1e be 75 79 d2 3d
       0.06428261 0.14529458 -0.1546266 0.10277072
0001c0 f2 b6 7c 3d cc 3f 94 3d c3 49 9d bd 2f 7e 47 be
       0.061697908 0.07238731 -0.076800846 -0.19481729
0001d0 d7 c8 ec bd c0 26 f7 3c 5f 6e 0a 3d a2 af 70 bd
       -0.11561745 0.030169845 0.033796664 -0.058761247
0001e0 19 18 9c bc 38 b0 95 3b f9 30 e5 3d 8b f9 81 3d
       -0.01905446 0.004568126 0.111909814 0.06346425
0001f0 85 73 25 3e 8a 8d bb bd e9 59 28 3e c1 d0 dc bd
       0.16157348 -0.09157856 0.16440548 -0.10782004

elmoments.0.weight f4 [128, 128]
000000 07 cf 74 bd 4a a4 96 3b 4f a7 72 3c 1e cb 2a bd
       -0.05976775 0.0045972215 0.014810397 -0.041697614
000010 17 9b 68 bd 9c 72 22 bd d6 50 c7 3d 76 18 b8 3d
       -0.05678853 -0.03966008 0.09732215 0.089890406
000020 a9 5e 23 3e 20 25 a8 3d ab 2a 80 bd e2 1e c0 bd
       0.15954079 0.08210206 -0.06258138 -0.093808904
000030 84 24 a0 bd 61 cf f0 3d 1f ab e3 bd b4 62 10 3e
       -0.07819465 0.117583044 -0.11116623 0.14100152
000040 08 d2 05 3e 2d 80 a3 3d bd 46 f6 bc ae 0b 8f bd
       0.13068402 0.07983432 -0.030063028 -0.069846496
000050 9d fe ca 3d 88 61 f7 3d 41 36 e6 3d 68 37 c8 bd
       0.09911845 0.120791495 0.11240817 -0.09776193
000060 40 03 ea 3d d1 3b 28 3d 64 60 43 3e a4 6a a8 3d
       0.11426401 0.04107267 0.19079739 0.08223465
000070 c5 9e 09 3e 3a de bc 3b 39 27 31 bd b4 95 04 bd
       0.13439472 0.005763796 -0.043250296 -0.03236933
000080 2b bd 3d 3d d8 6b b6 bd ec 6f c5 3c f0 c4 28 3d
       0.046322983 -0.08907288 0.02410122 0.04120344
000090 5f 8f 33 bd 84 6a 9b ba d8 33 a0 bd 52 b5 0a 3d
       -0.0438379 -0.0011857306 -0.078223884 0.033864327
0000a0 5b cc 6b 3d 7d 74 d8 bd 6f 9b fd bc 80 33 d1 bd
       0.057567935 -0.105690934 -0.030957906 -0.10214901
0000b0 d8 4e 98 bc f4 c8 63 bd d2 71 34 bd 73 1a 85 3d
       -0.018592283 -0.055611566 -0.04405386 0.064991854
0000c0 b2 f9 09 be 7d 90 66 3d 13 12 1a 3e 28 d0 05 be
       -0.13474157 0.05629014 0.15045957 -0.13067687
0000d0 72 b5 0d 3e cd 02 31 bc 59 45 1e bd db 92 58 3e
       0.13838747 -0.01080389 -0.038640354 0.21149771
0000e0 67 96 6a 3d 89 fb c2 bc cc 37 54 be e9 df 00 be
       0.05727234 -0.023801582 -0.2072441 -0.12585415
0000f0 6b ed 01 3e d7 bd 08 be 97 89 6c be 70 d3 85 bd
       0.12688224 -0.13353668 -0.23099361 -0.06534469
000100 a8 bd 9d bc 38 57 bd 3d 15 7a 30 be 3d ec 2b 3d
       -0.019255474 0.09245151 -0.1723407 0.04197334
000110 80 1c 5d bc cd 71 12 be 60 fd 71 3d 8f e8 8d bc
       -0.013495564 -0.14301224 0.059079528 -0.017322807
000120 d0 b3 ff bd 80 44 c7 3d 05 b4 83 3d 68 37 ab 3d
       -0.124854684 0.09729862 0.064308204 0.08360177
000130 3f 51 cc 3d c2 76 9d 3b 2b 31 3d bd 0c 03 a2 bd
       0.09976434 0.004805417 -0.04618947 -0.079107374
000140 2f 02 f8 3d 43 15 13 3d 3b fc 89 bc 0f 97 07 bb
       0.121097915 0.03590895 -0.016843906 -0.0020689403
000150 7b 39 2d bc 9d f6 4c be ef 76 85 bd e7 fb 7b bd
       -0.010572786 -0.2001595 -0.065168254 -0.06151953
000160 be d5 53 3d 22 06 08 3d 33 5b ea 3d bb cd 27 bd
       0.051717512 0.033208974 0.11443176 -0.040967684
000170 1b 30 f3 bd 31 df c8 3c a6 87 2f bd 23 e9 29 3d
       -0.1187441 0.024520488 -0.042853974 0.041482102
000180 bd ce 71 bd 35 c8 15 be 26 f4 da bd 8e f7 fa bd
       -0.05903505 -0.14627154 -0.10691099 -0.122542486
000190 21 3c 18 3c 88 fe f7 bc 81 41 80 3c 71 6f d3 3c
       0.00929168 -0.030272737 0.015656235 0.025809975
0001a0 a1 15 18 be 76 73 80 3d ed 1b 00 be d3 e3 68 3d
       -0.14852001 0.062720224 -0.12510653 0.056857895
0001b0 35 c6 d3 3d 3d 6f d7 bd 0c 06 5b 3d 25 b0 09 3d
       0.10340539 -0.10519264 0.053472564 0.03361525
0001c0 3d 0c 69 3d e3 1e 74 bc b8 a8 ab bb f7 d8 61 3d
       0.056896437 -0.014899942 -0.0052386187 0.055138554
0001d0 a8 10 f1 3c 1f 4d 24 3e 41 c7 3a be fb 16 5e 3b
       0.029426888 0.16045044 -0.18240072 0.003388821
0001e0 bc ff ae bb 12 6a ed bc ec f7 3e be 22 0e d3 3d
       -0.0053405445 -0.028981242 -0.18649262 0.1030543
0001f0 dd 5d 8e bd 14 cb c9 3d 0b a7 2f be 48 20 17 bd
       -0.06951497 0.09853187 -0.17153566 -0.03689602
000200 b7 2b c2 3d 6c dd ab bd c3 d6 4b 3c bd 6a 8f bd
       0.09480994 -0.08391842 0.01244134 -0.070027806
000210 ed 35 d3 bc 9d 18 6d bc 13 b8 1f bc 1d 9c 28 be
       -0.02578255 -0.0144712 -0.009748477 -0.16465802
000220 9f fb b1 3c 03 b1 3e 3d fe f2 16 3e 07 f5 2d 3c
       0.021726428 0.04655553 0.14741132 0.010617501
000230 fd d1 1e be 32 f0 71 bc 41 19 bf 3d 06 7c 84 bd
       -0.15509792 -0.01476674 0.09330989 -0.06468968
000240 a1 51 90 3d 3a 95 9c bc 2f b8 9e 3c b7 69 40 3d
       0.070468195 -0.019114126 0.019374935 0.046975818
000250 43 59 f9 bd 85 f5 37 3d a9 81 85 3d 52 ab 9f bd
       -0.121752284 0.04491188 0.06518871 -0.07796349
000260 d7 9b 92 bd e9 b6 ad 3d 2b b3 72 bd c7 9f 39 bd
       -0.0715863 0.08482153 -0.0592529 -0.04531839
000270 a7 82 84 bd 0d f2 23 bb ab 6f 8b bb 5d 90 d3 3d
       -0.064702325 -0.00250161 -0.004255255 0.103302695
000280 55 52 d4 bd 43 d9 02 bd d2 ae 21 3e 9b d1 03 be
       -0.10367266 -0.03194548 0.15789345 -0.12872927
000290 af e1 28 3e 90 72 fa 3c be cc 34 3d f7 b2 96 3d
       0.16492341 0.030572206 0.04414057 0.073583536
0002a0 60 7e e9 bd b8 bc ff bb 71 bc 90 3d e2 fa 98 bc
       -0.11401057 -0.0078044794 0.07067192 -0.018674318
0002b0 5e 55 68 bd ed 5e 88 3d a1 cd 83 3e 31 f9 bf bd
       -0.056722037 0.06658731 0.2574282 -0.09373701
0002c0 e6 b5 a3 bd c1 58 96 3d 68 f9 be bb 20 ea af bb
       -0.07993679 0.07341147 -0.0058280714 -0.005368486
0002d0 44 39 1b 3d fb 54 fd 3d 0c 7c 8a bd b1 6e f7 3c
       0.03789641 0.12369724 -0.06761941 0.030204149
0002e0 a6 8a e0 3d 97 af 38 bd 51 be ca bd f5 f0 27 bb
       0.10963945 -0.04508933 -0.09899581 -0.00256258
0002f0 c4 e7 85 3d 76 18 b6 bc 87 dc 33 3d cf f3 2b bd
       0.065383464 -0.02222846 0.043911483 -0.04198056
000300 61 ce 8f 3c 4a a8 7b 3d bb 0a 27 3c 9f 08 c0 bc
       0.017554464 0.06143979 0.010195429 -0.02344161
000310 a9 d7 34 b8 65 d5 0d be ae e6 eb 3d 51 52 e2 3d
       -4.3116193e-05 -0.13850935 0.11518608 0.11050857
000320 25 7b fa 3d b8 14 be 3d ca d6 0a 3d e3 d4 10 3d
       0.12230519 0.092812955 0.033896245 0.035359275
000330 34 19 1f be 69 9a 0c 3e 4b 5a a7 bd 83 9a 29 bd
       -0.15536958 0.13730778 -0.08171519 -0.04140712
000340 93 52 0f be ae cd 90 bd c7 c3 b0 bd 4b 82 b3 3b
       -0.13996343 -0.0707048 -0.086310916 0.0054781786
000350 7a 3c ac 3c 53 81 3c bc ce 6d 2e be 48 51 f0 3c
       0.021024931 -0.011505443 -0.17034075 0.029335633
000360 0e 35 30 3c f4 53 33 bd 48 97 1a 3d 85 36 b8 3d
       0.010754837 -0.043781236 0.03774193 0.08994774
000370 41 db 19 bd 5f b8 0f 3c 5f f7 50 3d 42 37 19 be
       -0.037562612 0.008771985 0.05101716 -0.14962485
000380 f5 27 9f 3c 7f f0 98 bd 44 80 fc 3d 85 30 1f 3d
       0.019428233 -0.07467746 0.12329152 0.03886463
000390 64 d3 9d bd 89 dd 1e 3d 9f 5e 14 be fb f8 54 be
       -0.07706335 0.03878549 -0.1448922 -0.20798104
0003a0 8c 0a 11 be ae d8 7d 3c 1f b5 8e 3d 2c 8e 12 be
       -0.1416418 0.015493555 0.0696814 -0.14312047
0003b0 da 72 d1 3b 04 f8 a2 3b 10 f7 97 bd 10 86 e4 bd
       0.006391865 0.0049734134 -0.0742017 -0.11158383
0003c0 49 68 d4 bd 14 03 7b 3d f7 6e 47 bd bd 81 1f 3c
       -0.10371453 0.061282232 -0.04868981 0.009735522
0003d0 4d 9d 08 be 4b 6d 9b 3c 62 cc 2e be 4f f7 ed bc
       -0.13341255 0.018973013 -0.17070153 -0.02904859
0003e0 d4 51 47 bd 38 3c cd 3d 8e 58 67 bd c0 76 fa 3d
       -0.04866202 0.100212514 -0.056480937 0.12229681
0003f0 ed 11 87 bd db 2c 58 bd 80 8b 18 3d 21 c9 9e 3d
       -0.06595216 -0.052777153 0.037242413 0.07753206

elmoments.0.bias f4 [128]
000000 00 00 00 00 00 00 00 00 00 00 00 00 00 00 00 00
       0.0 0.0 0.0 0.0
000010 00 00 00 00 00 00 00 00 00 00 00 00 00 00 00 00
       0.0 0.0 0.0 0.0
000020 00 00 00 00 00 00 00 00 00 00 00 00 00 00 00 00
       0.0 0.0 0.0 0.0
000030 00 00 00 00 00 00 00 00 00 00 00 00 00 00 00 00
       0.0 0.0 0.0 0.0
000040 00 00 00 00 00 00 00 00 00 00 00 00 00 00 00 00
       0.0 0.0 0.0 0.0
000050 00 00 00 00 00 00 00 00 00 00 00 00 00 00 00 00
       0.0 0.0 0.0 0.0
000060 00 00 00 00 00 00 00 00 00 00 00 00 00 00 00 00
       0.0 0.0 0.0 0.0
000070 00 00 00 00 00 00 00 00 00 00 00 00 00 00 00 00
       0.0 0.0 0.0 0.0
000080 00 00 00 00 00 00 00 00 00 00 00 00 00 00 00 00
       0.0 0.0 0.0 0.0
000090 00 00 00 00 00 00 00 00 00 00 00 00 00 00 00 00
       0.0 0.0 0.0 0.0
0000a0 00 00 00 00 00 00 00 00 00 00 00 00 00 00 00 00
       0.0 0.0 0.0 0.0
0000b0 00 00 00 00 00 00 00 00 00 00 00 00 00 00 00 00
       0.0 0.0 0.0 0.0
0000c0 00 00 00 00 00 00 00 00 00 00 00 00 00 00 00 00
       0.0 0.0 0.0 0.0
0000d0 00 00 00 00 00 00 00 00 00 00 00 00 00 00 00 00
       0.0 0.0 0.0 0.0
0000e0 00 00 00 00 00 00 00 00 00 00 00 00 00 00 00 00
       0.0 0.0 0.0 0.0
0000f0 00 00 00 00 00 00 00 00 00 00 00 00 00 00 00 00
       0.0 0.0 0.0 0.0
000100 00 00 00 00 00 00 00 00 00 00 00 00 00 00 00 00
       0.0 0.0 0.0 0.0
000110 00 00 00 00 00 00 00 00 00 00 00 00 00 00 00 00
       0.0 0.0 0.0 0.0
000120 00 00 00 00 00 00 00 00 00 00 00 00 00 00 00 00
       0.0 0.0 0.0 0.0
000130 00 00 00 00 00 00 00 00 00 00 00 00 00 00 00 00
       0.0 0.0 0.0 0.0
000140 00 00 00 00 00 00 00 00 00 00 00 00 00 00 00 00
       0.0 0.0 0.0 0.0
000150 00 00 00 00 00 00 00 00 00 00 00 00 00 00 00 00
       0.0 0.0 0.0 0.0
000160 00 00 00 00 00 00 00 00 00 00 00 00 00 00 00 00
       0.0 0.0 0.0 0.0
000170 00 00 00 00 00 00 00 00 00 00 00 00 00 00 00 00
       0.0 0.0 0.0 0.0
000180 00 00 00 00 00 00 00 00 00 00 00 00 00 00 00 00
       0.0 0.0 0.0 0.0
000190 00 00 00 00 00 00 00 00 00 00 00 00 00 00 00 00
       0.0 0.0 0.0 0.0
0001a0 00 00 00 00 00 00 00 00 00 00 00 00 00 00 00 00
       0.0 0.0 0.0 0.0
0001b0 00 00 00 00 00 00 00 00 00 00 00 00 00 00 00 00
       0.0 0.0 0.0 0.0
0001c0 00 00 00 00 00 00 00 00 00 00 00 00 00 00 00 00
       0.0 0.0 0.0 0.0
0001d0 00 00 00 00 00 00 00 00 00 00 00 00 00 00 00 00
       0.0 0.0 0.0 0.0
0001e0 00 00 00 00 00 00 00 00 00 00 00 00 00 00 00 00
       0.0 0.0 0.0 0.0
0001f0 00 00 00 00 00 00 00 00 00 00 00 00 00 00 00 00
       0.0 0.0 0.0 0.0

elmoments.2.weight f4 [128, 128]
000000 0b 57 6b bd 74 23 d3 bc 61 af e4 bc 8b 76 ed bd
       -0.057456058 -0.025773741 -0.027915658 -0.11594876
000010 c0 24 6f bd 94 51 04 be f0 d1 8c 3d 07 f0 5e bd
       -0.058384657 -0.12921745 0.0687598 -0.054428127
000020 5c 37 82 ba 53 56 05 be 87 4a 2f 3e f9 1f 35 bc
       -0.0009934711 -0.13021211 0.17118274 -0.011054986
000030 e2 c4 d9 bc ce 61 2d bd 8a 91 92 bd ca 75 52 bd
       -0.026583139 -0.042329602 -0.071566656 -0.051381864
000040 51 4b c0 bd 75 6f 56 bd b9 5f 66 3c c3 aa 27 3d
       -0.093893655 -0.052352387 0.014060908 0.040934335
000050 da f8 0a 3d 24 3d ca 3d 1e 93 a1 bd e5 97 77 bd
       0.03392873 0.09874943 -0.078893885 -0.060447592
000060 36 a8 e7 3d bf cd a0 3c 94 5f 03 bd 71 fc a0 3c
       0.113113806 0.019629357 -0.032073572 0.019651623
000070 a2 a9 1b 3e 0c f3 79 3b 5e 16 1a bc 29 14 7c bd
       0.15201429 0.0038139252 -0.009404747 -0.061542664
000080 6a e6 75 3e c2 ff 1c be a1 fe eb bd 57 34 71 3b
       0.24013677 -0.15331939 -0.11523176 0.0036804879
000090 c7 56 a6 bd e2 a8 5f 3d c8 af 15 be 36 9b 67 3d
       -0.0812202 0.05460442 -0.14617836 0.056544505
0000a0 c8 6f a0 3d 9c d8 59 3e f8 ee ee 3d 7b ca 25 3d
       0.078338206 0.21274036 0.116666734 0.040476304
0000b0 0e 4f 9a bd 9a 02 85 bd c7 af 0a be a5 41 97 bd
       -0.0753461 -0.06494637 -0.13543616 -0.073855676
0000c0 e3 42 db 3d 03 06 1e 3d 1e 6d b0 3d 39 21 5c bd
       0.10706117 0.038579952 0.086145625 -0.05374262
0000d0 32 4f 1c 3c 7e 52 23 be 58 f9 3d 3e fb 1d 8b bd
       0.009540366 -0.15949437 0.18552148 -0.06792828
0000e0 74 3e 8a bd 88 dd 1d bd 08 c5 d4 3d a8 99 e1 ba
       -0.06750193 -0.038541347 0.10389143 -0.0017211931
0000f0 9e 01 6c bc f9 97 63 3b c9 79 14 3e 88 66 dc 3c
       -0.014404682 0.0034728034 0.14499582 0.02690436
000100 66 7d 15 3d 9e 13 cb 3c a2 14 92 3c 13 1b e1 bc
       0.036496542 0.024789628 0.017832104 -0.02747873
000110 b5 4c d5 3d 70 a4 55 bd df 5a 59 bd a3 cd 17 3c
       0.10415021 -0.052158773 -0.053065177 0.009265336
000120 6c dc 13 3e dd b0 4a 3d c2 5a e3 bd 67 84 2f 3d
       0.14439553 0.049485076 -0.11101295 0.042850878
000130 7b 52 95 3d 3a 2a 23 3d a4 51 07 bd 8b a6 82 3c
       0.072911225 0.039835192 -0.033036843 0.015948555
000140 5c ec 46 3c 38 27 2e 3e 7c 5f 40 bc 1b f0 7c 3d
       0.012141313 0.17007148 -0.011741515 0.06175242
000150 2e 96 d0 3d 48 21 87 bd 1d 70 ac bc 42 3b 1e be
       0.101848945 -0.06598145 -0.021049554 -0.15452293
000160 ef da bc bd e5 b5 3e bd e0 89 de bd bf 99 ba bc
       -0.09221446 -0.046560187 -0.10866141 -0.02277839
000170 80 9e 9f 3d ef f0 8f 3b d5 69 8b 3d d6 76 54 bd
       0.07793903 0.004392735 0.06807295 -0.051871143
000180 e4 99 18 be 45 4a c0 bc 86 fe ec bc 39 dd 2a 3d
       -0.14902455 -0.023472914 -0.02892996 0.04171488
000190 02 5c e0 3c 34 01 4b bd ac 96 1d 3e cc f5 ab 3d
       0.027387623 -0.049561694 0.15389508 0.083964914
0001a0 df 5a 45 bd 85 53 b4 bb 3c 2e cc 3c a1 82 ad 3d
       -0.048182365 -0.0055031204 0.02492439 0.08472181
0001b0 3b c5 0a be d4 66 b7 bd 25 89 ac 3c 47 15 a8 bd
       -0.135518 -0.0895516 0.02106149 -0.08207183
0001c0 38 d7 d5 3d d2 99 d2 3d b8 f3 db bd 35 28 a1 3c
       0.1044144 0.10283245 -0.10739845 0.019672493
0001d0 31 cf 96 bc 01 a5 36 bd 46 ae cc 3c a8 64 37 3c
       -0.018409343 -0.044590954 0.024985444 0.011193432
0001e0 92 c5 01 3d f0 9c 37 bc 74 d0 7b 3d 88 86 43 be
       0.03168256 -0.01120685 0.061478093 -0.19094288
0001f0 27 4f b6 3d 93 c5 cb bd 6a 73 3e 3c a9 ee 03 be
       0.08901816 -0.09949794 0.011624197 -0.1288401
000200 6d 76 66 bd cb a2 c7 3c e5 a8 fc 3c e0 89 76 3c
       -0.056265283 0.024369618 0.030842254 0.01504752
000210 e3 df 88 bd db 73 04 be 5c bc c6 3d 07 52 c6 bd
       -0.06683328 -0.1293482 0.097038954 -0.09683614
000220 c5 00 3e 3a e1 55 6a bc 6a 74 03 3e 6a bf 4a be
       0.00072480395 -0.014302702 0.12837377 -0.19799581
000230 bd 0e b6 3c c9 b5 93 bd 0c 56 02 be 72 ea 89 bd
       0.022223825 -0.07212407 -0.12728137 -0.0673417
000240 70 57 e2 3d fe 0a 2d bc 14 02 61 3d c9 40 8e bd
       0.11051834 -0.010561703 0.054933622 -0.069459505
000250 aa 06 04 3d 97 49 ad 3b e4 4f 10 bc df c1 f7 bb
       0.032232918 0.0052883136 -0.00880811 -0.007560953
000260 37 f1 e4 bd b9 e8 b4 bd 7f bb c0 bd 58 f0 63 3d
       -0.111788206 -0.08833451 -0.09410762 0.05564913
000270 cc a2 cc bd 16 86 04 3e 76 6b 05 3d 9b 62 d2 bc
       -0.099919885 0.12941775 0.032573186 -0.025681784
000280 d3 a2 83 bd 72 fe 40 be 58 f4 29 be 00 83 6f 3d
       -0.06427541 -0.18847063 -0.16597116 0.05847454
000290 ee a1 d7 3c 66 59 a0 bd 3b 91 db bd ef 20 51 bd
       0.026322331 -0.078295514 -0.1072106 -0.0510568
0002a0 74 d4 cf bd c0 5d a5 bc 7e c1 ca bd 77 7e f0 3d
       -0.10147944 -0.020186305 -0.09900187 0.11742871
0002b0 00 6d 5e 3a 4b f3 ac bd 11 4d 19 bd 72 38 86 bc
       0.000848487 -0.08444842 -0.037427012 -0.016384337
0002c0 8f bd 89 3d bc df 19 be 08 6d 62 3a ed 7e 50 be
       0.067256086 -0.15026754 0.0008637463 -0.20360918
0002d0 b3 ca 84 3d d9 a1 a2 bd 57 0b 75 bc ae fb 93 3d
       0.06483974 -0.07941026 -0.014956317 0.072257385
0002e0 4c 21 19 bd f4 b0 8b bc 6c d8 ef bd cc ee 6e 3c
       -0.03738527 -0.017052151 -0.11711201 0.014583301
0002f0 e7 8a 0c 3e 2c d5 99 bd c5 56 da 3c a8 c1 43 3d
       0.13724862 -0.075113624 0.026652703 0.047792107
000300 ec 4a ba 3d 80 9b 5a bc 66 0d c4 bc 1f 6f 87 bd
       0.090963215 -0.013342738 -0.02393217 -0.066129915
000310 f9 27 b1 3d 1e 83 7e bd d6 02 d0 bc 3a 7c 9b 3c
       0.08650202 -0.06213676 -0.025391977 0.018980134
000320 39 f5 0d bd a7 f1 bf 3d 07 e1 fb 3d ee 92 4b 3d
       -0.03465769 0.093722634 0.1229878 0.04970067
000330 17 d8 9e 3d f8 6e 0e 3e 7f a0 b7 3d 96 c2 b8 bb
       0.077560596 0.13909519 0.08966159 -0.005638431
000340 6b dd 1e bd 9b 67 6d 3d 4f 9b a5 bd 96 43 44 bd
       -0.03878538 0.057960134 -0.080862634 -0.047916017
000350 ec c9 a8 3d ca a0 5d 3d 13 ed b2 bd 52 ee d5 3d
       0.082416385 0.05410842 -0.087366246 0.104458466
000360 56 28 04 bd 2a b5 79 3d e5 42 f5 3a a8 54 e8 3d
       -0.03226503 0.060963787 0.0018711953 0.11344272
000370 22 bc 07 bd 31 77 45 3e 82 5b 8f bc 44 95 91 bd
       -0.0331384 0.19283749 -0.017499689 -0.07108548
000380 b3 f4 e2 3d 26 9a ce bd 1e 3e 2e bb d9 6e b4 3d
       0.11081829 -0.10087995 -0.0026587318 0.08810205
000390 17 f1 e0 3c bd f1 22 3e 57 bf 8f bb 95 68 b8 3d
       0.02745871 0.15912528 -0.004386823 0.090043224
0003a0 fa cc 2b 3d 65 97 09 3d 37 ff 88 3d ca 3e 18 3d
       0.041943528 0.033591647 0.06689303 0.037169255
0003b0 14 b1 7f 3d 19 b9 35 3d 41 05 b4 bd 09 fe 97 bc
       0.062424734 0.044365976 -0.087900646 -0.01855375
0003c0 c7 47 20 3d 61 8f 88 3d 4d d1 7d 3b c5 04 b2 3c
       0.039130952 0.06667972 0.003872949 0.02173079
0003d0 be 00 3f 3c 2d 80 04 3c 8c a1 01 3d 99 14 ab 3c
       0.011657892 0.0080872 0.031648204 0.020883845
0003e0 aa 6b 0f 3e 27 b0 b1 bc 53 e2 ca 3d 87 d7 ed 3d
       0.14005914 -0.021690441 0.09906449 0.11613374
0003f0 53 aa de bc 25 2f b9 bb cf 6b 99 3d b9 76 3f bc
       -0.027180826 -0.005651372 0.07491266 -0.0116860205

elmoments.2.bias f4 [128]
000000 00 00 00 00 00 00 00 00 00 00 00 00 00 00 00 00
       0.0 0.0 0.0 0.0
000010 00 00 00 00 00 00 00 00 00 00 00 00 00 00 00 00
       0.0 0.0 0.0 0.0
000020 00 00 00 00 00 00 00 00 00 00 00 00 00 00 00 00
       0.0 0.0 0.0 0.0
000030 00 00 00 00 00 00 00 00 00 00 00 00 00 00 00 00
       0.0 0.0 0.0 0.0
000040 00 00 00 00 00 00 00 00 00 00 00 00 00 00 00 00
       0.0 0.0 0.0 0.0
000050 00 00 00 00 00 00 00 00 00 00 00 00 00 00 00 00
       0.0 0.0 0.0 0.0
000060 00 00 00 00 00 00 00 00 00 00 00 00 00 00 00 00
       0.0 0.0 0.0 0.0
000070 00 00 00 00 00 00 00 00 00 00 00 00 00 00 00 00
       0.0 0.0 0.0 0.0
000080 00 00 00 00 00 00 00 00 00 00 00 00 00 00 00 00
       0.0 0.0 0.0 0.0
000090 00 00 00 00 00 00 00 00 00 00 00 00 00 00 00 00
       0.0 0.0 0.0 0.0
0000a0 00 00 00 00 00 00 00 00 00 00 00 00 00 00 00 00
       0.0 0.0 0.0 0.0
0000b0 00 00 00 00 00 00 00 00 00 00 00 00 00 00 00 00
       0.0 0.0 0.0 0.0
0000c0 00 00 00 00 00 00 00 00 00 00 00 00 00 00 00 00
       0.0 0.0 0.0 0.0
0000d0 00 00 00 00 00 00 00 00 00 00 00 00 00 00 00 00
       0.0 0.0 0.0 0.0
0000e0 00 00 00 00 00 00 00 00 00 00 00 00 00 00 00 00
       0.0 0.0 0.0 0.0
0000f0 00 00 00 00 00 00 00 00 00 00 00 00 00 00 00 00
       0.0 0.0 0.0 0.0
000100 00 00 00 00 00 00 00 00 00 00 00 00 00 00 00 00
       0.0 0.0 0.0 0.0
000110 00 00 00 00 00 00 00 00 00 00 00 00 00 00 00 00
       0.0 0.0 0.0 0.0
000120 00 00 00 00 00 00 00 00 00 00 00 00 00 00 00 00
       0.0 0.0 0.0 0.0
000130 00 00 00 00 00 00 00 00 00 00 00 00 00 00 00 00
       0.0 0.0 0.0 0.0
000140 00 00 00 00 00 00 00 00 00 00 00 00 00 00 00 00
       0.0 0.0 0.0 0.0
000150 00 00 00 00 00 00 00 00 00 00 00 00 00 00 00 00
       0.0 0.0 0.0 0.0
000160 00 00 00 00 00 00 00 00 00 00 00 00 00 00 00 00
       0.0 0.0 0.0 0.0
000170 00 00 00 00 00 00 00 00 00 00 00 00 00 00 00 00
       0.0 0.0 0.0 0.0
000180 00 00 00 00 00 00 00 00 00 00 00 00 00 00 00 00
       0.0 0.0 0.0 0.0
000190 00 00 00 00 00 00 00 00 00 00 00 00 00 00 00 00
       0.0 0.0 0.0 0.0
0001a0 00 00 00 00 00 00 00 00 00 00 00 00 00 00 00 00
       0.0 0.0 0.0 0.0
0001b0 00 00 00 00 00 00 00 00 00 00 00 00 00 00 00 00
       0.0 0.0 0.0 0.0
0001c0 00 00 00 00 00 00 00 00 00 00 00 00 00 00 00 00
       0.0 0.0 0.0 0.0
0001d0 00 00 00 00 00 00 00 00 00 00 00 00 00 00 00 00
       0.0 0.0 0.0 0.0
0001e0 00 00 00 00 00 00 00 00 00 00 00 00 00 00 00 00
       0.0 0.0 0.0 0.0
0001f0 00 00 00 00 00 00 00 00 00 00 00 00 00 00 00 00
       0.0 0.0 0.0 0.0

elmoments.4.weight f4 [4, 128]
000000 cc e5 0e be f1 06 43 bd b5 cb 26 be 92 5b 75 3d
       -0.13954848 -0.04761404 -0.16288646 0.05990178
000010 ac cc 25 3d 20 87 3a 3e ab 73 d1 bd 5e c2 a4 3d
       0.040478393 0.18215609 -0.1022714 0.08044885
000020 9f 76 cb bc 02 4c e4 bd 2b 91 89 bd 16 b9 f4 bd
       -0.024836836 -0.1114731 -0.06717142 -0.11949365
000030 b1 32 2b 3d 83 3d 1e be 04 0f d3 3c 7f 18 03 3d
       0.04179639 -0.15453152 0.025763996 0.032005783
000040 51 36 51 bd dd fb ac bc a7 a0 2c bd f1 6d dc bb
       -0.05107719 -0.021116192 -0.042145398 -0.006726973
000050 6b 31 c1 bb 98 43 38 bd a5 b6 18 bd fb 26 69 bd
       -0.0058957837 -0.044986337 -0.03728356 -0.05692194
000060 65 25 f8 bc 56 de 16 3e b8 db d7 bb 35 38 64 3d
       -0.030291269 0.14733252 -0.006587472 0.055717666
000070 0d d8 d4 3d 4c 22 12 be 6f 6f dd bc 11 8c ee 3c
       0.10392771 -0.14270896 -0.027030675 0.029119523
000080 c0 e5 05 be 63 d6 e4 bd c3 a4 60 bd 5f dc 06 be
       -0.13075924 -0.111737035 -0.05484463 -0.13170002
000090 db 24 42 3c 62 ed 1c bd 8c 4b b9 3d d8 8a a7 3d
       0.011849607 -0.038312323 0.090476125 0.08180779
0000a0 c3 7a ab bd 37 58 15 3d c4 59 d7 bb 2e 3c c1 bc
       -0.08373024 0.03646108 -0.00657198 -0.023588266
0000b0 7c 86 a2 3d 76 f5 7e 39 49 ee 54 3d 21 75 dc 3d
       0.07935807 0.00024314769 0.05198506 0.10764528
0000c0 ba 6b af 3d 17 d7 88 3d 05 ff 20 be 40 e5 8c 3d
       0.08565469 0.0668165 -0.15722282 0.068796635
0000d0 2f ff 2d 3d c8 37 3a bd 34 02 ad bc 59 ce 46 bb
       0.04247969 -0.045463353 -0.021119215 -0.0030335395
0000e0 02 0c 0d 3d 42 84 e7 3d 7e 98 2b bd 92 bf b7 3d
       0.03443528 0.11304523 -0.041893475 0.08972086
0000f0 98 84 4b bd bf 8e 13 3c 8e 21 98 bd bf 92 03 be
       -0.049686998 0.009006201 -0.07428275 -0.12848948
000100 86 d7 86 bd 03 d2 16 bd 8e 1f ce bd 2d 26 1f 3d
       -0.065840766 -0.036821377 -0.10064612 0.038854767
000110 b5 74 01 bd 13 1d e4 3d b3 26 a4 bd d8 8b 0e 3e
       -0.03160544 0.11138358 -0.08015194 0.13920534
000120 d4 64 4a bd 4d c2 7f 3d 6e 18 7e be d3 84 85 3d
       -0.049412563 0.06244116 -0.24814007 0.06519475
000130 d7 38 5d bd a6 1c 44 bc 8d d0 6c 3b 25 ff e4 3c
       -0.054009285 -0.011969721 0.0036135048 0.027953694
000140 02 72 c7 3d 74 8f d5 bd 0b c1 22 be 23 dc cd 3d
       0.09738542 -0.10427752 -0.15893953 0.10051753
000150 b1 aa e9 bd 56 23 44 3e 43 e7 38 3d b9 7d fa bd
       -0.1140951 0.19154105 0.045142423 -0.12231011
000160 64 cc d5 3d 28 24 c5 3b c7 19 67 3c 10 27 26 3e
       0.10439375 0.006016273 0.014105267 0.16225839
000170 a1 a6 49 3e 22 d3 67 bb 0c 67 93 ba 21 b1 f1 bd
       0.1969247 -0.0035373648 -0.001124592 -0.11801363
000180 03 37 ac bd 63 2b 17 3e 6b 56 54 bc a2 a3 a6 3d
       -0.0840893 0.14762644 -0.012960057 0.08136679
000190 79 84 64 bc ed a9 37 3d 49 e4 a4 bd ac 34 8f bd
       -0.0139476 0.04483979 -0.080513544 -0.06992468
0001a0 5b 88 0a bd 87 2b 11 3e a4 d1 e0 3a f1 c4 72 bb
       -0.033821445 0.1417676 0.0017152322 -0.0037043656
0001b0 c8 57 28 bd 0c 8c 41 3e 33 6d 5f 3a 60 d0 81 bd
       -0.04109934 0.1890108 0.0008523047 -0.063385725
0001c0 52 fd 57 3e ba c0 b0 3c c6 31 62 3d af d3 74 bd
       0.21092728 0.021576274 0.05522325 -0.05977219
0001d0 bf 0b bd 3d 46 53 ab bd cc cf 0c 3a 54 3d 8b 3d
       0.09230756 -0.083654925 0.00053715403 0.06798807
0001e0 9e 16 64 bc 7b 51 5c bd f7 ea a1 3d 42 2d 8a be
       -0.013921408 -0.053788643 0.07906144 -0.26987654
0001f0 bc e6 ea 3d bb ae 3d 3d 3a c3 05 3e 2e 62 77 3d
       0.1146979 0.046309214 0.13062754 0.060396366
000200 c9 44 88 bd 11 da 75 be ad 53 77 3c 77 49 86 bd
       -0.06653745 -0.24008967 0.015095633 -0.06556981
000210 0e ef 81 bd 88 29 a5 3d 04 45 3d 3d fd 9d 6d bd
       -0.06344424 0.08064562 0.046208397 -0.058011997
000220 24 16 9c bd 07 de 2b bd 2c bc 21 3d a3 e8 72 ba
       -0.076214105 -0.04195979 0.039486095 -0.0009266233
000230 cb fb 04 3d 37 bf 1e be 58 b6 1c be 87 17 a0 bd
       0.03246669 -0.1550263 -0.15303934 -0.078169875
000240 ce db ba 3d 3d ce 47 3d 3f 88 5e 3c 55 49 12 bd
       0.09123956 0.04878067 0.013582288 -0.035714466
000250 88 d3 56 bd 13 b3 f3 bc 51 24 06 3c 78 1f 4f bd
       -0.052447826 -0.029748475 0.008187369 -0.05056712
000260 f8 94 77 3d 9b fc 64 bd ad 3c 8c 3d 53 8d ee 3d
       0.060444802 -0.055904966 0.068475105 0.11648049
000270 e0 bb 8f 3c f5 fa 0b bd 16 30 fe 3d e9 a0 31 3e
       0.01754564 -0.03417488 0.124115154 0.17346539
000280 e1 84 fd 3d 58 34 4c 3d 45 06 07 3d e2 21 0d 3d
       0.1237886 0.049854606 0.032964963 0.03445614
000290 a8 f7 1e 3c 6c 40 97 3d cc 38 ea 3c ba 72 9a bd
       0.009702601 0.07385334 0.028591536 -0.075414136
0002a0 b6 19 b3 3c 77 a3 af 3a 57 80 30 3e ed d8 33 3c
       0.021862846 0.0013400157 0.17236458 0.010977012
0002b0 8e 8d 9f bd 33 41 10 bd 35 ee cc 3b 78 f3 b2 bb
       -0.07790671 -0.03521843 0.0062539824 -0.0054611526
0002c0 16 fb f9 bd be b8 dc bc 15 64 9b 3c 31 a2 2d bd
       -0.12206094 -0.02694356 0.018968621 -0.042391006
0002d0 01 4b 12 3c 5f 22 1f be 59 76 2f 3c 56 a2 27 be
       0.008929015 -0.15540455 0.010709369 -0.1637052
0002e0 ed fd a7 3d b3 43 23 3e 67 60 dd 3d 89 fd 9d bc
       0.082027294 0.15943794 0.10809403 -0.019285934
0002f0 f7 da c6 3c 84 15 fe bc 6d 7d 0e bc e4 29 19 3e
       0.024274332 -0.031016119 -0.008696896 0.14957386
000300 e0 15 83 bc 7d 96 b7 39 2f 2e 4a 3e 2b b9 62 3d
       -0.016001642 0.00035016602 0.1974418 0.05535237
000310 a7 c6 ad 3d 59 6f fc bd 4d 5e 9b bb 67 d3 8e bd
       0.084851556 -0.123259254 -0.004741466 -0.069739155
000320 cf 3b 7e 3d ea f8 56 3c 38 b3 b4 3d d4 33 03 be
       0.062068757 0.013120869 0.08823246 -0.1281274
000330 4b 0e c1 bb 83 0d 86 bc f7 cd 46 bd 70 1e 59 3c
       -0.0058915964 -0.016363865 -0.048536267 0.013251886
000340 8d b3 3a bd c1 c2 39 be 4b 7b 06 3c ba a8 b5 3d
       -0.04558139 -0.18140699 0.008208106 0.08870073
000350 e4 8a 21 3e ad bd 77 3d 52 91 6c bd 0b a4 4e be
       0.15775639 0.060483623 -0.057755776 -0.20179765
000360 b4 ed 61 3d ef 3a d3 3c 1d 40 f0 3d c7 fb 34 3e
       0.055158332 0.025784938 0.11730979 0.1767417
000370 30 a0 cf bd 34 5e 5c bd 6f fa 37 bd e9 0f 31 3d
       -0.10137975 -0.053800777 -0.044916566 0.043228064
000380 e6 23 6d 3d 75 93 2b 3e ef b4 3a 3d 16 43 49 be
       0.057895564 0.16755469 0.045582708 -0.19654498
000390 f9 50 8d bd c4 f4 d1 3d 17 54 2e bd c3 c1 d1 bb
       -0.0690021 0.102517635 -0.042560663 -0.006401272
0003a0 24 bc 10 3c b5 45 92 bd 4a 82 f0 3c 6c ef 02 bc
       0.008833919 -0.07142202 0.029359002 -0.007991653
0003b0 2c 13 82 3d 0f bb 56 3e 29 e6 a1 3d 1b a8 89 3c
       0.06351313 0.20969795 0.07905228 0.016803792
0003c0 a3 c2 b4 bd f8 72 7c 3d 96 23 d5 3d 9b bb 54 bc
       -0.088261865 0.06163308 0.10407178 -0.012984182
0003d0 36 55 02 be 31 07 ec 3c 47 2b 89 3c f9 95 a4 bd
       -0.12727818 0.028812023 0.016744269 -0.080364175
0003e0 73 59 f1 3d b4 48 c1 bd e0 65 3c bd 93 b1 12 3e
       0.11784639 -0.09437695 -0.045995593 0.14325552
0003f0 d0 94 8a 3c 8d 01 83 3d 95 82 37 3e 44 fe a7 bd
       0.016916662 0.0639678 0.17920907 -0.08202794

elmoments.4.bias f4 [4]
000000 00 00 00 00 00 00 00 00 00 00 00 00 00 00 00 00
       0.0 0.0 0.0 0.0
