aimnet/pretrained/aimnet/aimnet_mt_cv1.pt (torch_old, 401730 bytes, 16 tensors)

volume.0.weight f4 [128, 128]
-0.16982232 -0.026550533 0.122342 0.051502623 -0.07716477 0.07550122 -0.06000571 -0.0009219946
0.07000247 0.18978159 0.032775514 0.09287628 0.012620906 0.0699434 -0.07409756 0.06708076
0.04629801 0.022725312 0.13765293 -0.18716028 0.04866973 0.00985256 -0.118480965 0.0070881513
-0.1106471 -0.13420449 -0.07766627 -0.06925687 -0.012809652 -0.016460117 0.13174109 -0.023742063
0.011169975 -0.18883945 0.21467741 -0.06585814 0.007536877 0.10131837 -0.1531058 -0.22102177
0.1084069 -0.066814125 -0.03834743 -0.016849238 0.07567624 0.05616904 0.13538194 -0.02820472
-0.073818766 0.061990947 -0.05924115 0.17873038 -0.009089429 0.13789679 -0.07289662 0.10970412
-0.08184485 0.13600078 -0.07643902 -0.057888675 -0.07869983 0.0055700727 -0.0002157264 -0.014981257
0.04166852 0.13391103 0.051565826 -0.08192961 0.085619666 0.048580766 -0.017102454 0.03802532
0.070362166 -0.13858244 0.058744345 -0.013206479 -0.11808396 0.19883713 0.041174445 -0.0071567562
0.012473702 -0.026967423 0.047361434 0.1250074 -0.024087587 -0.09843562 -0.012066692 0.11518333
0.027133785 0.0005988014 -0.0055439514 0.13632555 0.018389301 -0.13943249 -0.010943248 0.04444509
0.068123154 0.07637052 0.2255817 -0.117562026 0.045027412 -0.005403768 -0.018289275 0.0865693
0.013526272 0.007698792 0.03919001 -0.015654795 0.046775583 0.02950038 -0.0057286653 0.1997247
-0.08778855 0.056519814 0.04455514 0.12672263 -0.030359149 0.059697505 -0.008358711 0.15039963
-0.039588675 -0.069988996 -0.0054619536 -0.2914584 -0.04191958 -0.08803527 0.014762765 0.15856422
-0.058841325 -0.13186549 -0.08018927 -0.15436167 -0.22391409 -0.04736147 0.05327004 -0.020901851
0.011178557 -0.051934678 0.08342531 -0.07924806 -0.020646589 0.04455169 0.039898884 -0.03750805
0.017554864 0.035119914 0.087048665 -0.035312254 0.03614813 0.07873501 0.010855409 -0.07182994
-0.079809144 -0.042063847 0.02092779 -0.10430154 -0.00090637227 -0.1002982 -0.026357083 0.008670852
-0.13312706 -0.03966441 -0.03740491 -0.1730038 -0.15823227 0.022295007 0.0008112338 0.07045798
-0.08151097 0.028036188 0.21173847 0.02939028 0.020137416 0.033514205 -0.07947396 -0.053272363
0.07235789 0.06897552 -0.03705262 -0.06734756 -0.060485005 -0.0849035 0.15577884 0.056472134
-0.055568982 -0.039998535 0.16844036 -0.09952715 0.18634072 0.06256808 0.07879946 0.21285187
0.026779087 -0.07541691 -0.08175091 0.05725161 -0.022674443 0.104932405 -0.13171135 -0.08215882
-0.11625943 -0.038393576 -0.18485413 0.04214718 -0.046448417 -0.016090529 0.128687 -0.026455013
0.0065511353 -0.08436729 0.050192185 0.05062057 0.011317771 -0.046922892 0.12189379 0.15261248
0.0044927695 -0.06898854 0.12062116 -0.012042077 0.01965193 0.022831464 -0.06983709 0.052731276
-0.08948327 -0.057642836 -0.024231533 -0.01523242 0.049921792 -0.16006118 0.043983757 -0.0580069
0.17012253 0.013195748 -0.06337604 0.16978112 0.11630343 -0.012925309 0.032011412 -0.16587585
0.06458518 -0.07480356 0.010977662 -0.042103037 -0.0015039678 -0.0007511719 -0.14072241 -0.08335383
0.033651024 -0.13592014 -0.035133205 -0.076877385 -0.1574538 0.06560453 0.075265296 -0.043680727
00000000: e7e5 2dbe 8180 d9bc 718e fa3d 6af4 523d
00000010: 9008 9ebd 62a0 9a3d 8cc8 75bd 03b2 71ba
00000020: 745d 8f3d 1b56 423e 9e3f 063d eb35 be3d
00000030: ebc7 4e3c 7c3e 8f3d 76c0 97bd a361 893d
00000040: fba2 3d3d 6f2a ba3c e4f4 0c3e f2a6 3fbe
00000050: e959 473d a26c 213c 26a6 f2bd b943 e83b
00000060: f29a e2bd e76c 09be 7e0f 9fbd 8cd6 8dbd
00000070: 93df 51bc 5ed7 86bc 23e7 063e b77e c2bc
00000080: 4502 373c 215f 41be 65d4 5b3e a2e0 86bd
00000090: e8f7 f63b 0180 cf3d c4c7 1cbe 8853 62be
000000a0: 7004 de3d d8d5 88bd 3212 1dbd 6a07 8abc
000000b0: 25fc 9a3d 8211 663d 90a1 0a3e 960d e7bc
000000c0: 4b2e 97bd 38ea 7d3d d9a6 72bd 1905 373e
000000d0: d4eb 14bc d134 0d3e d34a 95bd 8eac e03d
000000e0: 469e a7bd ca43 0b3e 108c 9cbd ad1c 6dbd
000000f0: 602d a1bd 2885 b63b 9d34 62b9 f273 75bc
00000100: 9cac 2a3d f91f 093e b036 533d b6ca a7bd
00000110: 5d59 af3d a0fc 463d 721a 8cbc 70c0 1b3d
00000120: 0a1a 903d 8ee8 0dbe e99d 703d fd5f 58bc
00000130: 01d6 f1bd f69b 4b3e 89a6 283d 3983 eabb
00000140: 805e 4c3c c9ea dcbc 10fe 413d f101 003e
00000150: 5553 c5bc 9d98 c9bd 60b3 45bc 3de5 eb3d
00000160: ac47 de3c e2f8 1c3a 09aa b5bb ed98 0b3e
00000170: 29a5 963c 64c7 0ebe 4f4b 33bc 0e0c 363d
00000180: 2784 8b3d 2668 9c3d e4fe 663e 5cc4 f0bd
00000190: aa6e 383d 1712 b1bb 64d3 95bc 3f4b b13d
000001a0: 4c9d 5d3c 2646 fc3b b485 203d 7c3e 80bc
000001b0: c197 3f3d c8aa f13c 87b7 bbbb a284 4c3e
000001c0: 7cca b3bd 5281 673d 737f 363d 94c3 013e
000001d0: c0b3 f8bc 5f85 743d faf2 08bc 5c02 1a3e
000001e0: bc27 22bd 6456 8fbd 30fa b2bb 093a 95be
000001f0: deb3 2bbd d64b b4bd 86df 713c a95e 223e
00000200: 9a03 71bd bf07 07be 463a a4bd fc10 1ebe
00000210: bc49 65be 1afe 41bd af31 5a3d 5c3a abbc
00000220: 4426 373c 75b9 54bd e4da aa3d cf4c a2bd
00000230: 0923 a9bc d57b 363d 036d 233d 0ba2 19bd
00000240: 38cf 8f3c e6d9 0f3d 9246 b23d 95a3 10bd
00000250: 1010 143d d23f a13d e3da 313c 931b 93bd
00000260: fa72 a3bd 244b 2cbd c270 ab3c 0c9c d5bd
00000270: 9d99 6dba 2569 cdbd cfea d7bc 3010 0e3c
00000280: 7652 08be 2677 22bd e435 19bd e827 31be
00000290: a407 22be 05a4 b63c fba8 543a 464c 903d
000002a0: 39ef a6bd 26ac e53c f8d1 583e e2c3 f03c
000002b0: 39f7 a43c 3146 093d 3ec3 a2bd 1f34 5abd
000002c0: 6030 943d 0a43 8d3d 7dc4 17bd 84ed 89bd
000002d0: 20bf 77bd e3e1 adbd 7d84 1f3e 534f 673d
000002e0: 4d9c 63bd 81d5 23bd a17b 2c3e e4d4 cbbd
000002f0: 1ad0 3e3e b223 803d 9c61 a13d d7f5 593e
00000300: d15f db3c 2e74 9abd 056d a7bd aa80 6a3d
00000310: c1bf b9bc cde6 d63d 57df 06be e242 a8bd
00000320: 6d19 eebd 9542 1dbd 674a 3dbe 85a2 2c3d
00000330: b240 3ebd 49d0 83bc 86c6 033e 2fb8 d8bc
00000340: e8aa d63b c2c8 acbd 5296 4d3d 8457 4f3d
00000350: 2c6e 393c 3832 40bd 74a3 f93d 7246 1c3e
00000360: 1538 933b dd49 8dbd 3a08 f73d 224c 45bc
00000370: 16fd a03c 0d09 bb3c c006 8fbd c0fc 573d
00000380: 0143 b7bd e51a 6cbd 3581 c6bc 6691 79bc
00000390: cb7a 4c3d 14e7 23be 5028 343d a598 6dbd
000003a0: 9a34 2e3e fb32 583c 4ccb 81bd 1adb 2d3e
000003b0: 7e30 ee3d adc4 53bc 661e 033d 5cdb 29be
000003c0: 3c45 843d 9c32 99bd a7db 333c 3c74 2cbd
000003d0: c920 c5ba 4bea 44ba 8919 10be 6ab5 aabd
000003e0: a8d5 093d a62e 0bbe d6e7 0fbd e471 9dbd
000003f0: 923b 21be ab5b 863d b124 9a3d 90ea 32bd

volume.0.bias f4 [128]
0.0 0.0 0.0 0.0 0.0 0.0 0.0 0.0
0.0 0.0 0.0 0.0 0.0 0.0 0.0 0.0
0.0 0.0 0.0 0.0 0.0 0.0 0.0 0.0
0.0 0.0 0.0 0.0 0.0 0.0 0.0 0.0
0.0 0.0 0.0 0.0 0.0 0.0 0.0 0.0
0.0 0.0 0.0 0.0 0.0 0.0 0.0 0.0
0.0 0.0 0.0 0.0 0.0 0.0 0.0 0.0
0.0 0.0 0.0 0.0 0.0 0.0 0.0 0.0
0.0 0.0 0.0 0.0 0.0 0.0 0.0 0.0
0.0 0.0 0.0 0.0 0.0 0.0 0.0 0.0
0.0 0.0 0.0 0.0 0.0 0.0 0.0 0.0
0.0 0.0 0.0 0.0 0.0 0.0 0.0 0.0
0.0 0.0 0.0 0.0 0.0 0.0 0.0 0.0
0.0 0.0 0.0 0.0 0.0 0.0 0.0 0.0
0.0 0.0 0.0 0.0 0.0 0.0 0.0 0.0
0.0 0.0 0.0 0.0 0.0 0.0 0.0 0.0
00000000: 0000 0000 0000 0000 0000 0000 0000 0000
00000010: 0000 0000 0000 0000 0000 0000 0000 0000
00000020: 0000 0000 0000 0000 0000 0000 0000 0000
00000030: 0000 0000 0000 0000 0000 0000 0000 0000
00000040: 0000 0000 0000 0000 0000 0000 0000 0000
00000050: 0000 0000 0000 0000 0000 0000 0000 0000
00000060: 0000 0000 0000 0000 0000 0000 0000 0000
00000070: 0000 0000 0000 0000 0000 0000 0000 0000
00000080: 0000 0000 0000 0000 0000 0000 0000 0000
00000090: 0000 0000 0000 0000 0000 0000 0000 0000
000000a0: 0000 0000 0000 0000 0000 0000 0000 0000
000000b0: 0000 0000 0000 0000 0000 0000 0000 0000
000000c0: 0000 0000 0000 0000 0000 0000 0000 0000
000000d0: 0000 0000 0000 0000 0000 0000 0000 0000
000000e0: 0000 0000 0000 0000 0000 0000 0000 0000
000000f0: 0000 0000 0000 0000 0000 0000 0000 0000
00000100: 0000 0000 0000 0000 0000 0000 0000 0000
00000110: 0000 0000 0000 0000 0000 0000 0000 0000
00000120: 0000 0000 0000 0000 0000 0000 0000 0000
00000130: 0000 0000 0000 0000 0000 0000 0000 0000
00000140: 0000 0000 0000 0000 0000 0000 0000 0000
00000150: 0000 0000 0000 0000 0000 0000 0000 0000
00000160: 0000 0000 0000 0000 0000 0000 0000 0000
00000170: 0000 0000 0000 0000 0000 0000 0000 0000
00000180: 0000 0000 0000 0000 0000 0000 0000 0000
00000190: 0000 0000 0000 0000 0000 0000 0000 0000
000001a0: 0000 0000 0000 0000 0000 0000 0000 0000
000001b0: 0000 0000 0000 0000 0000 0000 0000 0000
000001c0: 0000 0000 0000 0000 0000 0000 0000 0000
000001d0: 0000 0000 0000 0000 0000 0000 0000 0000
000001e0: 0000 0000 0000 0000 0000 0000 0000 0000
000001f0: 0000 0000 0000 0000 0000 0000 0000 0000

volume.2.weight f4 [128, 128]
-0.121145286 0.024256932 0.17933998 0.038161162 0.05748209 -0.0034989421 0.049500365 -0.05574499
-0.06960012 -0.067586645 0.10808955 0.034940206 0.033944264 0.041800752 -0.033194073 -0.087505035
0.21925291 -0.02934812 -0.056286078 0.15394405 0.07054872 0.09387221 0.05503076 0.114537686
-0.12831564 -0.060642034 -0.001252815 -0.11744901 -0.09300841 -0.106753506 -0.12110379 -0.08806203
0.01908854 0.019857213 -0.07970269 -0.10790761 -0.06518946 -0.044609774 -0.026747275 0.030754197
0.019526955 0.05313851 -0.140034 0.09146414 0.11850758 0.008026034 0.06859857 -0.12973498
-0.013932361 -0.11467236 -0.03905884 0.09053228 0.08890585 -0.08729685 0.13417093 -0.08194069
0.04062391 0.021324886 -0.043841403 0.16205469 0.004613581 0.03704621 -0.10672391 0.028131925
-0.02871494 -0.040535618 -0.04110771 -0.17397271 -0.061605256 0.0347477 -0.005658987 0.016522689
-0.10236585 -0.027441248 0.026763447 -0.060574897 -0.048729554 0.080261335 -0.045608357 0.07041539
-0.044348467 0.036156286 0.02345857 -0.08306309 -0.15459344 -0.083346285 0.09067947 -0.17332032
0.042994536 -0.12501165 0.108933724 -0.02678175 0.1734199 0.019428635 0.013048854 0.02279836
0.12694749 0.06902597 0.053230215 0.06286029 0.09865133 -0.15312612 -0.046377406 0.026373042
-0.056129627 0.091879666 0.042553294 -0.09717184 0.18590513 -0.043968614 0.0070743156 0.031906936
-0.08771853 -0.023072273 0.088643566 -0.1945712 -0.24845535 -0.05306991 -0.036861163 0.12467927
-0.12288217 0.17096002 0.041646704 -0.08284564 -0.004783476 0.18069413 0.023496525 -0.006509603
0.053711753 -0.1338807 -0.13875172 0.06402207 -0.22885661 0.0971814 0.075691104 0.16008733
-0.006003331 -0.1450431 0.08433512 -0.009982336 -0.15177833 0.06335783 0.017221006 -0.090140805
-0.03092693 0.23788065 -0.044178206 0.09102063 0.032616213 -0.123243555 0.07462089 -0.06923464
-0.13396238 -0.028903017 -0.13291432 0.1188708 0.03302417 0.0144241145 0.04728119 0.056992702
-0.066877946 0.019797752 -0.03803599 -0.1262484 -0.1541432 0.03201683 0.071649164 0.033540748
-0.017668178 -0.043963287 -0.06935433 0.053465374 0.12929986 0.008352663 -0.0042139967 -0.025044655
0.06250474 -0.12841406 0.08148974 -0.12311626 -0.11387546 -0.008920225 -0.010678859 -0.0499943
0.10768786 -0.06708759 -0.0025305666 -0.08285336 -0.046975385 0.04514551 0.04341304 0.061825942
-0.10134741 0.09455968 0.017029824 0.0027620161 0.06556401 -0.038029734 0.097975925 0.103696756
0.06570604 -0.1558714 0.069086425 0.06489431 -0.09070711 -0.12271541 0.07613108 -0.08785632
0.03191885 0.012918043 0.028498273 0.06066085 -0.038007997 -0.07279034 0.06978761 -0.09278674
-0.03742672 -0.018842127 0.014316023 -0.015545028 0.0012422242 0.0017361094 0.052013207 0.09154432
0.03624801 0.03958868 -0.05126436 0.063586116 -0.09776423 0.08249472 0.058493767 0.008108004
0.021395562 0.04663314 -0.1822529 0.11451177 -0.05562925 0.13107511 -0.0050606215 -0.038280353
0.054107398 -0.019950334 -0.021150297 0.12755267 0.12405553 -0.05233656 0.09363981 0.20744494
0.08588171 0.051304184 -0.08320839 0.14462845 0.01865852 -0.009280287 0.051937267 0.071796454
00000000: 051b f8bd 79b6 c63c e6a4 373e e14e 1c3d
00000010: 5772 6b3d 824e 65bb e5c0 4a3d dc54 64bd
00000020: 828a 8ebd de6a 8abd 0e5e dd3d 761d 0f3d
00000030: 2409 0b3d 4437 2b3d 82f6 07bd d735 b3bd
00000040: d683 603e 786b f0bc 3b8c 66bd 82a3 1d3e
00000050: d97b 903d 1340 c03d ef67 613d bc92 ea3d
00000060: 2d65 03be c863 78bd 7f35 a4ba 1b89 f0bd
00000070: 317b bebd 95a1 dabd 4405 f8bd de59 b4bd
00000080: 925f 9c3c 98ab a23c 2a3b a3bd aafe dcbd
00000090: 0d82 85bd bdb8 36bd 1a1d dbbc 3af0 fb3c
000000a0: fef6 9f3c c4a7 593d 1365 0fbe 8d51 bb3d
000000b0: 1ab4 f23d a07f 033c 687d 8c3d 3fd9 04be
000000c0: 8f44 64bc 58d9 eabd 2afc 1fbd fd68 b93d
000000d0: 4514 b63d b1c8 b2bd 1b64 093e 85d0 a7bd
000000e0: 4265 263d 87b1 ae3c 0b93 33bd aaf1 253e
000000f0: 862d 973b c4bd 173d 1192 dabd ec74 e63c
00000100: 983b ebbc ad08 26bd 8f60 28bd e725 32be
00000110: cb55 7cbd 9b53 0e3d 066f b9bb 975a 873c
00000120: 30a5 d1bd 78cc e0bc 043f db3c 621d 78bd
00000130: a498 47bd 0e60 a43d d4cf 3abd f235 903d
00000140: bda6 35bd 9d18 143d 302c c03c fb1c aabd
00000150: be4d 1ebe 75b1 aabd 28b6 b93d e27a 31be
00000160: 0a1b 303d 0e03 00be a518 df3d 6765 dbbc
00000170: fc94 313e cd28 9f3c dcca 553c a0c3 ba3c
00000180: 86fe 013e 7d5d 8d3d ed07 5a3d e5bc 803d
00000190: b509 ca3d 18cd 1cbe 3cf6 3dbd 470c d83c
000001a0: 2ee8 65bd 682b bc3d 5d4c 2e3d 0802 c7bd
000001b0: ea5d 3e3e 6f18 34bd a9cf e73b d9b0 023d
000001c0: c6a5 b3bd 1002 bdbc c28a b53d ac3d 47be
000001d0: 146b 7ebe d55f 59bd bbfb 16bd d857 ff3d
000001e0: a6a9 fbbd 2510 2f3e bc95 2a3d faaa a9bd
000001f0: b4be 9cbb e207 393e c97b c03c 824e d5bb
00000200: db00 5c3d 0618 09be ee14 0ebe 011e 833d
00000210: 6359 6abe 0b07 c73d f003 9b3d efed 233e
00000220: 97b7 c4bb 2e86 14be e4b7 ac3d f48c 23bc
00000230: c76b 1bbe c0c1 813d 1113 8d3c be9b b8bd
00000240: 795a fdbc fc96 733e 35f4 34bd 0669 ba3d
00000250: 9498 053d 1e67 fcbd d6d2 983d e4ca 8dbd
00000260: 6f2d 09be 05c6 ecbc b11a 08be 8972 f33d
00000270: 5a44 073d 1f53 6c3c eca9 413d 2e71 693d
00000280: 4ef7 88bd e52e a23c a0cb 1bbd 4347 01be
00000290: b7d7 1dbe 1424 033d ccbc 923d 0662 093d
000002a0: dbbc 90bc d912 34bd a509 8ebd 82fe 5a3d
000002b0: 2f67 043e 9cd9 083c 9115 8abb 732a cdbc
000002c0: 7c02 803d fa7e 03be 18e4 a63d 6124 fcbd
000002d0: 8a37 e9bd 2326 12bc 62f6 2ebc d3c6 4cbd
000002e0: 748b dc3d 3865 89bd ddd7 25bb 06af a9bd
000002f0: 4369 40bd 80ea 383d dfd1 313d 333d 7d3d
00000300: 3b8f cfbd 81a8 c13d 2182 8b3c f102 353b
00000310: 6c46 863d 11c5 1bbd 9aa7 c83d f75e d43d
00000320: e390 863d c19c 1fbe 2f7d 8d3d 4fe7 843d
00000330: a6c4 b9bd 3852 fbbd 9dea 9b3d 04ee b3bd
00000340: 57bd 023d 33a6 533c 3675 e93c 8377 783d
00000350: 46ae 1bbd 1a13 95bd ceec 8e3d f906 bebd
00000360: c34c 19bd ce5a 9abc c18d 6a3c 93b0 7ebc
00000370: 21d2 a23a 2a8e e33a cd0b 553d 977b bb3d
00000380: cb78 143d bd27 223d 94fa 51bd 7039 823d
00000390: 9d38 c8bd fef2 a83d 2997 6f3d 6fd7 043c
000003a0: bf45 af3c 6402 3f3d 81a0 3abe 2685 ea3d
000003b0: 7fdb 63bd 8e38 063e 92d3 a5bb dccb 1cbd
000003c0: b89f 5d3d e26e a3bc 6343 adbc 2b9d 023e
000003d0: d310 fe3d dc5e 56bd 3bc6 bf3d 726c 543e
000003e0: c0e2 af3d 5624 523d 2969 aabd 7b19 143e
000003f0: c1d9 983c 580c 18bc 2cbc 543d 050a 933d

volume.2.bias f4 [128]
0.0 0.0 0.0 0.0 0.0 0.0 0.0 0.0
0.0 0.0 0.0 0.0 0.0 0.0 0.0 0.0
0.0 0.0 0.0 0.0 0.0 0.0 0.0 0.0
0.0 0.0 0.0 0.0 0.0 0.0 0.0 0.0
0.0 0.0 0.0 0.0 0.0 0.0 0.0 0.0
0.0 0.0 0.0 0.0 0.0 0.0 0.0 0.0
0.0 0.0 0.0 0.0 0.0 0.0 0.0 0.0
0.0 0.0 0.0 0.0 0.0 0.0 0.0 0.0
0.0 0.0 0.0 0.0 0.0 0.0 0.0 0.0
0.0 0.0 0.0 0.0 0.0 0.0 0.0 0.0
0.0 0.0 0.0 0.0 0.0 0.0 0.0 0.0
0.0 0.0 0.0 0.0 0.0 0.0 0.0 0.0
0.0 0.0 0.0 0.0 0.0 0.0 0.0 0.0
0.0 0.0 0.0 0.0 0.0 0.0 0.0 0.0
0.0 0.0 0.0 0.0 0.0 0.0 0.0 0.0
0.0 0.0 0.0 0.0 0.0 0.0 0.0 0.0
00000000: 0000 0000 0000 0000 0000 0000 0000 0000
00000010: 0000 0000 0000 0000 0000 0000 0000 0000
00000020: 0000 0000 0000 0000 0000 0000 0000 0000
00000030: 0000 0000 0000 0000 0000 0000 0000 0000
00000040: 0000 0000 0000 0000 0000 0000 0000 0000
00000050: 0000 0000 0000 0000 0000 0000 0000 0000
00000060: 0000 0000 0000 0000 0000 0000 0000 0000
00000070: 0000 0000 0000 0000 0000 0000 0000 0000
00000080: 0000 0000 0000 0000 0000 0000 0000 0000
00000090: 0000 0000 0000 0000 0000 0000 0000 0000
000000a0: 0000 0000 0000 0000 0000 0000 0000 0000
000000b0: 0000 0000 0000 0000 0000 0000 0000 0000
000000c0: 0000 0000 0000 0000 0000 0000 0000 0000
000000d0: 0000 0000 0000 0000 0000 0000 0000 0000
000000e0: 0000 0000 0000 0000 0000 0000 0000 0000
000000f0: 0000 0000 0000 0000 0000 0000 0000 0000
00000100: 0000 0000 0000 0000 0000 0000 0000 0000
00000110: 0000 0000 0000 0000 0000 0000 0000 0000
00000120: 0000 0000 0000 0000 0000 0000 0000 0000
00000130: 0000 0000 0000 0000 0000 0000 0000 0000
00000140: 0000 0000 0000 0000 0000 0000 0000 0000
00000150: 0000 0000 0000 0000 0000 0000 0000 0000
00000160: 0000 0000 0000 0000 0000 0000 0000 0000
00000170: 0000 0000 0000 0000 0000 0000 0000 0000
00000180: 0000 0000 0000 0000 0000 0000 0000 0000
00000190: 0000 0000 0000 0000 0000 0000 0000 0000
000001a0: 0000 0000 0000 0000 0000 0000 0000 0000
000001b0: 0000 0000 0000 0000 0000 0000 0000 0000
000001c0: 0000 0000 0000 0000 0000 0000 0000 0000
000001d0: 0000 0000 0000 0000 0000 0000 0000 0000
000001e0: 0000 0000 0000 0000 0000 0000 0000 0000
000001f0: 0000 0000 0000 0000 0000 0000 0000 0000

volume.4.weight f4 [1, 128]
-0.094001435 0.16319741 0.01408678 0.111772396 -0.07762415 -0.042040832 0.030002734 -0.008417881
0.017491488 -0.0058484394 0.16918212 0.05595345 -0.025311777 0.122082084 0.017040702 0.017623685
0.03639886 0.054347597 0.08843395 -0.09607972 -0.008264289 0.094731666 -0.028844045 -0.056816418
0.21741554 -0.0060313195 0.016378326 -0.027926011 -0.17467913 0.05203912 -0.021841258 -0.05522668
0.060727045 0.13538493 0.016501032 -9.788822e-06 0.047604136 -0.10875421 -0.04417536 0.25894278
0.09772466 -0.1321649 -0.0761736 -0.07988578 0.046596855 0.059748285 -0.07233737 -0.018028975
0.121004246 -0.11646092 -0.15391685 0.057341117 0.058625553 0.04330048 0.11131449 0.039856743
-0.078336746 0.10754637 -0.14137426 -0.059382897 -0.016260576 -0.1193674 -0.0105414735 0.004717117
-0.056796033 -0.042045522 0.0009131286 0.023892747 0.060244445 0.08916735 -0.020354327 0.17981063
-0.08165486 0.14999238 -0.053534895 0.029898971 -0.043163605 0.09623042 -0.21211414 -0.013967723
0.07486862 -0.030081531 -0.06639829 0.09407944 -0.081358105 -0.12712821 -0.01366943 0.05156828
-0.05751095 -0.012666398 0.0169096 -0.15026626 0.02177509 -0.26707312 0.06672942 -0.15112346
-0.05981542 0.009550486 -0.19188964 0.031145802 0.014517013 0.04599098 -0.03638562 0.10464424
-0.044851158 -0.05282748 -0.015678404 0.019093707 0.10347443 -0.010814265 0.14292271 -0.14576817
0.0515815 0.12682007 -0.01296013 0.06564238 -0.10819992 -0.004999772 -0.07581534 0.085156545
0.034653742 0.12789708 -0.022776978 0.10533143 0.1819216 -0.06518986 0.053081926 0.035959646
00000000: d383 c0bd 391d 273e 3dcc 663c ede8 e43d
00000010: 69f9 9ebd 0233 2cbd 4bc8 f53c 27eb 09bc
00000020: 4f4a 8f3c 44a4 bfbb 143e 2d3e 722f 653d
00000030: a55a cfbc 2c06 fa3d f198 8b3c 8c5f 903c
00000040: f916 153d 969b 5e3d dc1c b53d 72c5 c4bd
00000050: f166 07bc ad02 c23d 594a ecbc 55b8 68bd
00000060: 2ea2 5e3e 60a2 c5bb d72b 863c 17c5 e4bc
00000070: 16df 32be f926 553d 70ec b2bc 5f35 62bd
00000080: ecbc 783d 59a2 0a3e 2c2d 873c ac3a 24b7
00000090: 8efc 423d 87ba debd 39f1 34bd 2694 843e
000000a0: de23 c83d 3c56 07be e800 9cbd 289b a3bd
000000b0: 58dc 3e3d 9eba 743d 9d25 94bd 80b1 93bc
000000c0: 13d1 f73d 1083 eebd 619c 1dbe 85de 6a3d
000000d0: 5921 703d d85b 313d daf8 e33d d340 233d
000000e0: 046f a0bd 4541 dc3d 6ac4 10be 7b3b 73bd
000000f0: e634 85bc e576 f4bd 25b6 2cbc 0c92 9a3b
00000100: f5a2 68bd ed37 2cbd 065f 6f3a b9ba c33c
00000110: e1c2 763d 5f9d b63d 1ebe a6bc 4720 383e
00000120: aa3a a7bd 9a97 193e 6847 5bbd b0ee f43c
00000130: 52cc 30bd 7414 c53d 7334 59be e0d8 64bc
00000140: b854 993d 8b6d f6bc d4fb 87bd b9ac c03d
00000150: 149f a6bd e62d 02be bff5 5fbc 4339 533d
00000160: 9a90 6bbd b986 4fbc 0086 8a3c 66df 19be
00000170: ac61 b23c cfbd 88be 6fa9 883d 1cc0 1abe
00000180: 0401 75bd a479 1c3c b87e 44be 7b25 ff3c
00000190: c4d8 6d3c 0a61 3c3d 1609 15bd b84f d63d
000001a0: d9b5 37bd a161 58bd ff6f 80bc 686a 9c3c
000001b0: 67ea d33d 512e 31bc 555a 123e 4044 15be
000001c0: 1f47 533d 1fdd 013e ba56 54bc 836f 863d
000001d0: eb97 ddbd 21d5 a3bb 1345 9bbd 8e66 ae3d
000001e0: 15f1 0d3d 74f7 023e c996 babc 01b8 d73d
000001f0: a849 3a3e 4382 85bd 6f6c 593d 6c4a 133d

elmoments.0.weight f4 [128, 128]
0.18848449 0.011976109 0.0076897587 0.03748295 -0.05899046 0.08098437 0.04458416 0.0023129699
0.120149866 0.022707412 -0.017272035 0.035423916 0.03951258 -0.04006027 0.07910801 -0.13900603
0.0029965045 0.14718722 0.14663012 -0.083256386 0.006184811 0.09740791 0.09878669 0.034570355
0.021348273 0.010823929 0.06679424 -0.15153362 0.0034758304 -0.12721273 -0.13466407 -0.16134852
0.07929878 0.018586446 0.010136286 -0.13680172 0.041142195 0.0195484 -0.023935359 -0.0922735
0.13888948 -0.0380285 -0.11823186 0.053047176 0.08507478 -0.08575603 0.13887851 0.025567539
0.1275596 -0.0014565127 -0.03255213 0.15801987 -0.008822802 -0.03254368 -0.032698177 0.07299798
0.087784305 -0.011676229 -0.06465794 -0.0578311 -0.082246915 -0.015948713 0.05992913 -0.108981535
-0.18445325 0.07466228 0.09518843 0.039117724 0.07949869 -0.073541164 0.06345622 0.1195206
-0.0052291043 0.039477844 -0.3067728 0.040759526 -0.124029346 0.040387087 -0.020435642 -0.094218574
0.037390035 0.09395934 0.004240612 0.08696038 -0.09569134 0.13176449 -0.0026193587 -0.06271221
-0.047748134 0.16594417 -0.058877323 -0.11044659 0.11497813 0.034614153 -0.10865827 0.031889018
0.032225396 -0.087125316 0.1709251 -0.15306295 0.060563028 0.048854202 -0.05091477 -0.015491214
0.004835433 -0.04757211 -0.14917307 0.091066144 -0.12884787 -0.037963018 0.045731388 -0.0048176874
-0.12516952 0.15313233 -0.03283624 0.04111143 0.07239259 -0.0041416218 -0.104906045 0.012622251
-0.045639683 0.06760605 0.025419014 -0.0633727 -0.029790236 -0.13938613 -0.02077515 0.0815402
0.016495856 -0.009571445 0.04734996 0.07505479 0.059589203 -0.079872 0.026905691 -0.023994751
0.09714445 -0.00037432706 -0.12397566 0.07802115 -0.06934462 -0.014593625 -0.07739597 -0.04395422
-0.06186326 0.057751082 -0.115861 0.13889882 -0.016273784 -0.0751289 -0.004120102 0.061564792
-0.085947394 0.17155349 -0.0367986 -0.00670389 -0.10447055 -0.015104044 0.12188647 0.24780728
0.028112696 -0.04407092 0.045681212 -0.007779457 -0.0676639 0.026714277 -0.16824919 -0.089719884
0.0008454433 -0.11427453 -0.008113229 0.17604908 0.051596675 0.07795218 0.13716578 0.08614256
-0.002213156 0.19489752 0.060233925 -0.038596448 0.079331584 -0.028744163 -0.2110479 0.019577954
-0.0012905103 -0.1172776 -0.009639384 0.0063149068 -0.0956068 0.15888062 0.06531748 0.0037680147
-0.043932084 0.18816793 -0.0008294828 0.05530455 -0.022736905 -0.030330397 0.060286876 -0.06434169
-0.024935368 -0.21416484 0.0020774563 0.0016367628 -0.009868126 0.08550341 0.19146909 -0.037742835
0.13861679 0.12009977 0.029399304 0.124854945 -0.14828023 0.08326925 -0.088772275 0.18077208
0.058104813 -0.10988207 0.10149333 0.067056894 -0.10432878 0.0018467305 -0.06718149 0.013295274
0.075630106 0.014169618 -0.106775254 0.0055902223 0.030072344 0.037911605 -0.06756087 -0.14880359
-0.01670547 -0.0036266604 0.011077623 0.067538 0.07204631 0.101750374 -0.057434585 -0.09478451
0.03956692 0.17238261 -0.079658136 -0.047491867 0.054263897 -0.06527217 -0.11110338 0.0408715
0.1106472 -0.05411526 -0.024214 -0.019585406 -0.046097293 0.05275958 -0.042599052 0.1204881
00000000: 1402 413e 7137 443c 5ffa fb3b b987 193d
00000010: fb9f 71bd 22db a53d e19d 363d 3295 173b
00000020: 2211 f63d e504 ba3c 157e 8dbc ab18 113d
00000030: f1d7 213d 3d16 24bd 6103 a23d 9957 0ebe
00000040: 0161 443b 3fb8 163e 3526 163e 5382 aabd
00000050: f4a9 ca3b cc7d c73d ad50 ca3d a599 0d3d
00000060: 93e2 ae3c d956 313c 6bcb 883d a12b 1bbe
00000070: c2ca 633b 0e44 02be 61e5 09be 8c38 25be
00000080: 6667 a23d 9a42 983c aa12 263c c015 0cbe
00000090: b884 283d f723 a03c 1614 c4bc e4f9 bcbd
000000a0: 0b39 0e3e c6c3 1bbd 8c23 f2bd ff47 593d
000000b0: b03b ae3d dca0 afbd 2b36 0e3e 0473 d13c
000000c0: fc9e 023e 75e8 beba 6255 05bd f6cf 213e
000000d0: 848d 10bc 864c 05bd 86ee 05bd f77f 953d
000000e0: 42c8 b33d a74d 3fbc 626b 84bd 4ee0 6cbd
000000f0: 1271 a8bd e0a6 82bc 3f78 753d b631 dfbd
00000100: 50e1 3cbe 8ae8 983d 27f2 c23d e839 203d
00000110: 36d0 a23d c09c 96bd 56f5 813d 37c7 f43d
00000120: e858 abbb 85b3 213d 5311 9dbe 76f3 263d
00000130: 1903 febd ee6c 253d a668 a7bc abf5 c0bd
00000140: 4b26 193d c16d c03d d5f4 8a3b 4918 b23d
00000150: d2f9 c3bd 45ed 063e 8ca9 2bbb 426f 80bd
00000160: 8c93 43bd 45ed 293e 5929 71bd d231 e2bd
00000170: a779 eb3d 92c7 0d3d 3a88 debd 0f9e 023d
00000180: c7fe 033d c26e b2bd fd06 2f3e 89bc 1cbe
00000190: f010 783d 581b 483d 028c 50bd dcce 7dbc
000001a0: 8d72 9e3b f9da 42bd d3c0 18be e380 ba3d
000001b0: b2f0 03be 1c7f 1bbd d650 3b3d b1dd 9dbb
000001c0: 702c 00be b9ce 1c3e 4b7f 06bd 7564 283d
000001d0: 9142 943d 71b6 87bb fbd8 d6bd 8fcd 4e3c
000001e0: adf0 3abd 0a75 8a3d 893b d03c 8cc9 81bd
000001f0: a70a f4bc 3dbb 0ebe a630 aabc 8cfe a63d
00000200: 5122 873c 8dd1 1cbc 08f2 413d 53b6 993d
00000210: cf13 743d ee93 a3bd 5369 dc3c a490 c4bc
00000220: abf3 c63d 5441 c4b9 f3e6 fdbd 8dc9 9f3d
00000230: 8d04 8ebd 1a1a 6fbc c781 9ebd 5709 34bd
00000240: 5464 7dbd 668c 6c3d 8848 edbd 7e3b 0e3e
00000250: 9950 85bc 2edd 99bd ec01 87bb 5d2b 7c3d
00000260: 3005 b0bd b8ab 2f3e 21ba 16bd 4eac dbbb
00000270: a8f4 d5bd f476 77bc 9d9f f93d 31c1 7d3e
00000280: 994c e63c b683 34bd 391c 3b3d d1ea febb
00000290: 5f93 8abd e6d7 da3c 8449 2cbe 0fbf b7bd
000002a0: bda0 5d3a c408 eabd 59ed 04bc 3646 343e
000002b0: 0957 533d 64a5 9f3d 3075 0c3e 836b b03d
000002c0: 990a 11bb 3793 473e d9b7 763d 4f17 1ebd
000002d0: 9978 a23d e178 ebbc f11c 58be f261 a03c
000002e0: 5726 a9ba 3d2f f0bd 82ee 1dbc 47ed ce3b
000002f0: 7fcd c3bd 9ab1 223e 2cc5 853d ccf0 763b
00000300: 21f2 33bd 18af 403e a671 59ba 0687 623d
00000310: bf42 babc 7477 f8bc 5fef 763d 93c5 83bd
00000320: 4245 ccbc 074e 5bbe ef25 083b a588 d63a
00000330: ecad 21bc 691c af3d 7910 443e 3b98 1abd
00000340: 8ff1 0d3e def6 f53d cfd6 f03c f3b3 ff3d
00000350: c6d6 17be 1289 aa3d 3dce b5bd 511c 393e
00000360: 50ff 6d3d da09 e1bd bcdb cf3d 2055 893d
00000370: 54aa d5bd fe0d f23a 7396 89bd 6cd4 593c
00000380: f5e3 9a3d af27 683c fcac dabd 2f2e b73b
00000390: 475a f63c 3349 1b3d 5a5d 8abd f85f 18be
000003a0: e9d9 88bc 44ad 6dbb eb7e 353c 5d51 8a3d
000003b0: 048d 933d 8062 d03d 8740 6bbd 621e c2bd
000003c0: ec10 223d 1185 303e ce23 a3bd d586 42bd
000003d0: d243 5e3d 6aad 85bd 2b8a e3bd e068 273d
000003e0: 009b e23d f6a7 5dbd 705c c6bc 9371 a0bc
000003f0: 84d0 3cbd 6e1a 583d 587c 2ebd 77c2 f63d

elmoments.0.bias f4 [128]
0.0 0.0 0.0 0.0 0.0 0.0 0.0 0.0
0.0 0.0 0.0 0.0 0.0 0.0 0.0 0.0
0.0 0.0 0.0 0.0 0.0 0.0 0.0 0.0
0.0 0.0 0.0 0.0 0.0 0.0 0.0 0.0
0.0 0.0 0.0 0.0 0.0 0.0 0.0 0.0
0.0 0.0 0.0 0.0 0.0 0.0 0.0 0.0
0.0 0.0 0.0 0.0 0.0 0.0 0.0 0.0
0.0 0.0 0.0 0.0 0.0 0.0 0.0 0.0
0.0 0.0 0.0 0.0 0.0 0.0 0.0 0.0
0.0 0.0 0.0 0.0 0.0 0.0 0.0 0.0
0.0 0.0 0.0 0.0 0.0 0.0 0.0 0.0
0.0 0.0 0.0 0.0 0.0 0.0 0.0 0.0
0.0 0.0 0.0 0.0 0.0 0.0 0.0 0.0
0.0 0.0 0.0 0.0 0.0 0.0 0.0 0.0
0.0 0.0 0.0 0.0 0.0 0.0 0.0 0.0
0.0 0.0 0.0 0.0 0.0 0.0 0.0 0.0
00000000: 0000 0000 0000 0000 0000 0000 0000 0000
00000010: 0000 0000 0000 0000 0000 0000 0000 0000
00000020: 0000 0000 0000 0000 0000 0000 0000 0000
00000030: 0000 0000 0000 0000 0000 0000 0000 0000
00000040: 0000 0000 0000 0000 0000 0000 0000 0000
00000050: 0000 0000 0000 0000 0000 0000 0000 0000
00000060: 0000 0000 0000 0000 0000 0000 0000 0000
00000070: 0000 0000 0000 0000 0000 0000 0000 0000
00000080: 0000 0000 0000 0000 0000 0000 0000 0000
00000090: 0000 0000 0000 0000 0000 0000 0000 0000
000000a0: 0000 0000 0000 0000 0000 0000 0000 0000
000000b0: 0000 0000 0000 0000 0000 0000 0000 0000
000000c0: 0000 0000 0000 0000 0000 0000 0000 0000
000000d0: 0000 0000 0000 0000 0000 0000 0000 0000
000000e0: 0000 0000 0000 0000 0000 0000 0000 0000
000000f0: 0000 0000 0000 0000 0000 0000 0000 0000
00000100: 0000 0000 0000 0000 0000 0000 0000 0000
00000110: 0000 0000 0000 0000 0000 0000 0000 0000
00000120: 0000 0000 0000 0000 0000 0000 0000 0000
00000130: 0000 0000 0000 0000 0000 0000 0000 0000
00000140: 0000 0000 0000 0000 0000 0000 0000 0000
00000150: 0000 0000 0000 0000 0000 0000 0000 0000
00000160: 0000 0000 0000 0000 0000 0000 0000 0000
00000170: 0000 0000 0000 0000 0000 0000 0000 0000
00000180: 0000 0000 0000 0000 0000 0000 0000 0000
00000190: 0000 0000 0000 0000 0000 0000 0000 0000
000001a0: 0000 0000 0000 0000 0000 0000 0000 0000
000001b0: 0000 0000 0000 0000 0000 0000 0000 0000
000001c0: 0000 0000 0000 0000 0000 0000 0000 0000
000001d0: 0000 0000 0000 0000 0000 0000 0000 0000
000001e0: 0000 0000 0000 0000 0000 0000 0000 0000
000001f0: 0000 0000 0000 0000 0000 0000 0000 0000

elmoments.2.weight f4 [128, 128]
-0.036032952 0.12756713 -0.061219756 0.053239666 -0.113236435 -0.18442811 0.18098468 0.18096933
0.010249466 0.091131724 0.015575585 0.04106032 -0.1532396 -0.09884521 -0.123013355 0.17055194
-0.05674918 -0.1878163 -0.0062940572 -0.10436279 -0.1613105 -0.07990794 0.053045727 -0.059695624
0.112250015 0.00053236133 0.060998335 0.056327596 -0.023667933 0.14758548 0.16482466 -0.09804131
0.058426663 0.12836207 -0.019551463 0.09441149 -0.1253891 0.15901823 0.062066875 0.1997404
0.03024142 -0.18469067 -0.0736192 -0.03612801 -0.120444775 -0.013908899 0.08101808 -0.0077611767
-0.018774452 0.08124415 -0.01729914 0.017879914 -0.075797066 0.048838276 0.20838906 -0.04689266
-0.015660375 0.011406951 0.091126174 -0.008038731 0.18740143 0.08379515 0.018509245 0.06932559
0.023799134 0.080114886 0.0080828 0.10475691 0.0033270842 0.19615334 0.06395778 0.009387449
-0.0341858 0.0059736767 -0.10128505 -0.10345374 -0.0593625 0.1939669 0.03784547 -0.038508482
0.17388295 0.042784717 -0.0045946585 0.05949629 0.057385862 0.029483533 -0.043005377 0.040779315
-0.086812794 0.16141906 -0.09002062 -0.0020485483 0.08012266 0.050030652 -0.0074576675 -0.04791267
-0.0770265 -0.071975365 -0.036050722 0.1107752 -0.036247984 -0.15664548 0.08360647 -0.10704336
0.059225112 0.1161149 0.092724614 -0.076433286 -0.07824106 -0.11272458 -0.034874428 -0.1472263
0.05075061 0.057452135 0.12271482 0.13028851 -0.14866534 -0.11219761 -0.016162451 -0.07273399
0.14918177 -0.100103654 0.09840084 -0.009669008 -0.0376548 0.09522569 -0.03431245 0.028441167
0.0649349 -0.3716561 0.05805157 0.0563635 0.1792806 -0.058723807 -0.023248807 0.019158756
0.013162366 -0.0843299 -0.043474875 0.0041802684 0.024352917 0.096270934 -0.011340605 0.029041225
0.05801925 0.08248643 -0.06039751 -0.22052059 0.12182963 0.04234213 -0.039716974 0.018652266
-0.06754573 0.047473866 -0.18070322 -0.08743899 0.10995775 -0.08346183 -0.10873724 0.0034926662
0.0051570446 -0.16676107 -0.07609106 0.0022924554 0.029203856 -0.0043160836 -0.057698123 -0.0025211135
-0.066048644 -0.060818575 -0.0401077 -0.05879708 -0.029750682 -0.01643965 -0.05540859 -0.057032507
0.018328931 0.020007951 0.025333624 -0.07788376 -0.015510621 -0.040219992 0.1203844 -0.043656245
0.0085068885 -0.07626273 -0.028601613 0.0017938836 0.03614634 0.1566011 -0.009133216 0.0022057786
0.049784567 0.026102697 -0.009463663 0.120819345 -0.056664377 0.085748 -0.06307983 -0.008211694
0.03874006 -0.08931769 -0.011258718 -0.065119855 -0.003283958 0.022617813 0.124037154 0.1141231
-0.057512194 -0.12982805 0.028200936 -0.10859999 0.0025648475 0.017260391 0.15317771 0.12257941
0.014134545 0.088633254 0.06582075 -0.15960737 0.088140525 0.013390752 -0.04160194 -0.12227192
0.013235662 0.04585338 0.13305154 -0.12064295 0.11121665 -0.08237987 0.06273704 -0.006618355
0.045003682 0.05534773 -0.14345951 0.14032437 0.037267856 0.14748225 0.009396082 -0.022155391
0.013205548 -0.06535708 0.015828142 0.010416914 -0.021153575 0.018391006 0.031266395 -0.07886295
0.016811127 0.0391275 -0.047111202 -0.07154489 0.14637722 -0.14003125 0.19480732 -0.024183115
00000000: 4a97 13bd f5a0 023e 91c1 7abd d611 5a3d
00000010: 81e8 e7bd b9da 3cbe 0c54 393e 0650 393e
00000020: 60ed 273c 45a3 ba3d bd30 7f3c de2e 283d
00000030: d7ea 1cbe 5c6f cabd 6dee fbbd 2ba5 2e3e
00000040: d471 68bd eb52 40be 613e cebb 29bc d5bd
00000050: 942e 25be c6a6 a3bd 7a46 593d 6683 74bd
00000060: 56e3 e53d 2a8e 0b3a 64d9 793d c4b7 663d
00000070: 41e3 c1bc a620 173e ccc7 283e e2c9 c8bd
00000080: cc50 6f3d 5971 033e 642a a0bc d05a c13d
00000090: 0066 00be add5 223e d639 7e3d bf88 4c3e
000000a0: dbbc f73c 8d1f 3dbe aac5 96bd f7fa 13bd
000000b0: c0ab f6bd 27e2 63bc cfec a53d 7851 febb
000000c0: e1cc 99bc 5563 a63d edb6 8dbc e678 923c
000000d0: 7e3b 9bbd a50a 483d f163 553e 8512 40bd
000000e0: 304a 80bc 38e4 3a3c 5ca0 ba3d e2b4 03bc
000000f0: 29e6 3f3e cb9c ab3d b3a0 973c 93fa 8d3d
00000100: 67f6 c23c 4613 a43d b86d 043c ca8a d63d
00000110: 360b 5a3b 6cdc 483e 4cfc 823d d1cd 193c
00000120: 6906 0cbd d5be c33b 896e cfbd 8edf d3bd
00000130: 1826 73bd 429f 463e da03 1b3d 12bb 1dbd
00000140: 5f0e 323e 073f 2f3d ca8e 96bb 62b2 733d
00000150: 700d 6b3d 7387 f13c 6826 30bd 3608 273d
00000160: e8ca b1bd 0a4b 253e bb5c b8bd f040 06bb
00000170: 5917 a43d f1ec 4c3d 735f f4bb 1340 44bd
00000180: 12c0 9dbd d267 93bd eca9 13bd 1cde e23d
00000190: c478 14bd ac67 20be de39 ab3d 8d39 dbbd
000001a0: 0896 723d a6cd ed3d 67e6 bd3d 0e89 9cbd
000001b0: d93c a0bd 25dc e6bd 7dd8 0ebd 7ec2 16be
000001c0: dfdf 4f3d ee52 6b3d e851 fb3d 5a6a 053e
000001d0: ba3b 18be dcc7 e5bd 1e67 84bc 8ff5 94bd
000001e0: 1bc3 183e 2503 cdbd 6186 c93d c26a 1ebc
000001f0: eb3b 1abd b005 c33d 368b 0cbd 73fd e83c
00000200: 97fc 843d b549 bebe 7cc7 6d3d 6add 663d
00000210: 5595 373e 6088 70bd 4874 bebc d3f2 9c3c
00000220: f7a6 573c 28b5 acbd b612 32bd a2fa 883b
00000230: c57f c73c b229 c53d f2cd 39bc dde7 ed3c
00000240: 98a5 6d3d a5ee a83d 6163 77bd 26d0 61be
00000250: d081 f93d f16e 2d3d 44ae 22bd a3cc 983c
00000260: 6a55 8abd f573 423d 440a 39be 3713 b3bd
00000270: 8731 e13d 09ee aabd a1b1 debd 37e5 643b
00000280: 6dfc a83b 6ac3 2abe a1d5 9bbd 053d 163b
00000290: ed3c ef3c ef6d 8dbb de54 6cbd 4439 25bb
000002a0: 8344 87bd e61c 79bd f947 24bd 35d5 70bd
000002b0: b4b7 f3bc 72ac 86bc 1ef4 62bd eb9a 69bd
000002c0: 8e26 963c b7e7 a33c 7688 cf3c 8581 9fbd
000002d0: 4220 7ebc b8bd 24bd 198c f63d e4d0 32bd
000002e0: 7a60 0b3c a22f 9cbd ee4d eabc bf20 eb3a
000002f0: 2f0e 143d 0a5c 203e 7ca3 15bc d38e 103b
00000300: e7ea 4b3d 53d5 d53c 7b0d 1bbc 2270 f73d
00000310: e818 68bd a69c af3d ff2f 81bd 578a 06bc
00000320: e6ad 1e3d 31ec b6bd 7c76 38bc 8f5d 85bd
00000330: ac37 57bb fe48 b93c 3107 fe3d 5fb9 e93d
00000340: e891 6bbd a5f1 04be a605 e73c ac69 debd
00000350: 0017 283b aa65 8d3c 9eda 1c3e ea0a fb3d
00000360: 9494 673c 5a85 b53d 08cd 863d 1d70 23be
00000370: 0583 b43d e264 5b3c cc66 2abd b369 fabd
00000380: 64da 583c c1d0 3b3d aa3e 083e a713 f7bd
00000390: 8ec5 e33d c7b6 a8bd 477c 803d c9de d8bb
000003a0: c855 383d 4db4 623d 0de7 12be 31b1 0f3e
000003b0: 2ea6 183d 9605 173e 06f2 193c 397f b5bc
000003c0: 155c 583c efd9 85bd 05aa 813c b4ab 2a3c
000003d0: 434a adbc bca8 963c 3111 003d e682 a1bd
000003e0: 7db7 893c 2844 203d adf7 40bd 2186 92bd
000003f0: e9e3 153e 5a64 0fbe 927b 473e ab1b c6bc

elmoments.2.bias f4 [128]
0.0 0.0 0.0 0.0 0.0 0.0 0.0 0.0
0.0 0.0 0.0 0.0 0.0 0.0 0.0 0.0
0.0 0.0 0.0 0.0 0.0 0.0 0.0 0.0
0.0 0.0 0.0 0.0 0.0 0.0 0.0 0.0
0.0 0.0 0.0 0.0 0.0 0.0 0.0 0.0
0.0 0.0 0.0 0.0 0.0 0.0 0.0 0.0
0.0 0.0 0.0 0.0 0.0 0.0 0.0 0.0
0.0 0.0 0.0 0.0 0.0 0.0 0.0 0.0
0.0 0.0 0.0 0.0 0.0 0.0 0.0 0.0
0.0 0.0 0.0 0.0 0.0 0.0 0.0 0.0
0.0 0.0 0.0 0.0 0.0 0.0 0.0 0.0
0.0 0.0 0.0 0.0 0.0 0.0 0.0 0.0
0.0 0.0 0.0 0.0 0.0 0.0 0.0 0.0
0.0 0.0 0.0 0.0 0.0 0.0 0.0 0.0
0.0 0.0 0.0 0.0 0.0 0.0 0.0 0.0
0.0 0.0 0.0 0.0 0.0 0.0 0.0 0.0
00000000: 0000 0000 0000 0000 0000 0000 0000 0000
00000010: 0000 0000 0000 0000 0000 0000 0000 0000
00000020: 0000 0000 0000 0000 0000 0000 0000 0000
00000030: 0000 0000 0000 0000 0000 0000 0000 0000
00000040: 0000 0000 0000 0000 0000 0000 0000 0000
00000050: 0000 0000 0000 0000 0000 0000 0000 0000
00000060: 0000 0000 0000 0000 0000 0000 0000 0000
00000070: 0000 0000 0000 0000 0000 0000 0000 0000
00000080: 0000 0000 0000 0000 0000 0000 0000 0000
00000090: 0000 0000 0000 0000 0000 0000 0000 0000
000000a0: 0000 0000 0000 0000 0000 0000 0000 0000
000000b0: 0000 0000 0000 0000 0000 0000 0000 0000
000000c0: 0000 0000 0000 0000 0000 0000 0000 0000
000000d0: 0000 0000 0000 0000 0000 0000 0000 0000
000000e0: 0000 0000 0000 0000 0000 0000 0000 0000
000000f0: 0000 0000 0000 0000 0000 0000 0000 0000
00000100: 0000 0000 0000 0000 0000 0000 0000 0000
00000110: 0000 0000 0000 0000 0000 0000 0000 0000
00000120: 0000 0000 0000 0000 0000 0000 0000 0000
00000130: 0000 0000 0000 0000 0000 0000 0000 0000
00000140: 0000 0000 0000 0000 0000 0000 0000 0000
00000150: 0000 0000 0000 0000 0000 0000 0000 0000
00000160: 0000 0000 0000 0000 0000 0000 0000 0000
00000170: 0000 0000 0000 0000 0000 0000 0000 0000
00000180: 0000 0000 0000 0000 0000 0000 0000 0000
00000190: 0000 0000 0000 0000 0000 0000 0000 0000
000001a0: 0000 0000 0000 0000 0000 0000 0000 0000
000001b0: 0000 0000 0000 0000 0000 0000 0000 0000
000001c0: 0000 0000 0000 0000 0000 0000 0000 0000
000001d0: 0000 0000 0000 0000 0000 0000 0000 0000
000001e0: 0000 0000 0000 0000 0000 0000 0000 0000
000001f0: 0000 0000 0000 0000 0000 0000 0000 0000

elmoments.4.weight f4 [4, 128]
-0.016795918 0.04350413 0.08409132 0.024290198 -0.024385102 -0.02397874 -0.026844349 0.15240112
-0.015714502 -0.078489974 0.054166023 0.04548333 -0.11498506 0.12596837 -0.087685846 0.07069985
0.07077897 -0.057085488 -0.12007606 -0.14051087 -0.14615014 -0.096596636 -0.006188571 -0.012666463
0.14350224 -0.09043137 0.041967798 0.09850185 -0.07965332 -0.0674843 0.0462266 0.32703325
0.03936912 0.060899977 -0.08483776 -0.011048524 -0.096963145 0.06707112 -0.18742265 0.08439631
0.061760895 0.117239885 -0.056359597 -0.046922233 -0.11123022 0.0028083676 0.042688966 0.0023303132
-0.11752143 -0.06637826 -0.078626804 -0.051107127 -0.0714161 0.005242304 -0.07009791 0.07270966
-0.08056586 -0.2585108 0.012977319 -0.0675606 -0.017415753 -0.089752026 -0.05347298 -0.058587417
0.07795517 0.093671314 -0.19326872 -0.083926395 -0.02459904 0.15863095 0.19471575 -0.14420028
-0.162185 0.06897186 0.06093625 0.11925676 0.06741458 0.1734346 -0.11436958 -0.08753545
0.066273175 0.03996318 0.01765898 -0.20636679 -0.08220612 0.14750244 -0.13474156 0.05945069
-0.055810884 -0.15391138 -0.088244244 -0.028730568 -0.055256974 0.07035485 -0.1904879 0.12822542
-0.0031767327 0.14024268 0.059124403 0.019613678 -0.18379682 -0.05103602 -0.079948284 0.047187068
-0.03002985 0.25009447 -0.08273467 0.06848349 -0.065436035 -0.0957431 -0.1081767 0.0074359793
0.03463561 0.034812134 -0.107123256 -0.18001184 -0.0841359 0.19345759 0.12969522 -0.030156286
-0.10009702 0.12842594 -0.20721772 -0.053559434 -0.0032737933 0.16277997 0.09065152 -0.0847125
0.01995384 -0.043639433 0.14467517 0.015687693 0.018323893 0.008567949 0.026018709 0.06525829
-0.020532329 -0.038367573 -0.035667997 -0.080868036 0.026594648 -0.08458206 -0.15682596 0.07869655
0.0033942813 -0.02035716 -0.039729018 -0.10594805 0.11719178 -0.03577466 0.25520536 -0.0060717557
-0.09892573 -0.101195395 0.08741851 -0.01240283 0.18053183 0.09699252 0.0362455 -0.03372515
-0.066160716 0.032097112 0.020112284 0.05354639 -0.04602239 0.022392822 -0.011425262 0.0010447092
-0.19618249 -0.07539723 -0.11649819 0.1750637 0.0674274 0.006649592 -0.06686577 -0.09190055
0.018627495 0.16070734 0.040044185 -0.12363516 -0.007788274 0.08259798 0.00921315 -0.05884479
0.08476949 -0.19392802 -0.06778887 -0.019291027 -0.112811275 -0.007254748 -0.002057588 -0.012748875
-0.09984808 0.0568585 -0.041198492 0.001983052 -0.003677231 -0.15270123 -0.12775381 -0.001856853
-0.058756974 0.10532941 -0.13247582 0.07367384 -0.0137180425 -0.18433632 0.070411034 0.20287198
0.06803739 -0.14751923 -0.12545231 -0.055167362 0.015772257 0.09895695 0.04480562 -0.06581542
0.017782848 -0.17458262 0.16296495 0.024807278 0.06805302 0.023436423 0.10333004 0.13490039
-0.02007304 0.12032357 -0.15096813 -0.16141818 0.06254579 -0.038912907 -0.091935895 -0.059729986
0.06484285 0.124391936 -0.019969897 0.07071887 -0.13240077 -0.033116695 0.0058652293 0.052270226
0.049545605 0.108696245 -0.09185744 -0.033201437 -0.1155045 -0.13329656 -0.118834965 -0.34104708
0.044259463 -0.0551378 0.026532188 0.19489722 -0.00645039 0.07319652 0.055786464 0.008017424
00000000: 9897 89bc 6331 323d 1238 ac3d 3dfc c63c
00000010: 44c3 c7bc 106f c4bc aee8 dbbc 0a0f 1c3e
00000020: b3bb 80bc 5abf a0bd 31dd 5d3d ba4c 3a3d
00000030: 4a7d ebbd dafd 003e a394 b3bd 15cb 903d
00000040: 91f4 903d 79d2 69bd 70ea f5bd 15e2 0fbe
00000050: 62a8 15be 75d4 c5bd 7fc9 cabb ff86 4fbc
00000060: 40f2 123e 1534 b9bd 6de6 2b3d 57bb c93d
00000070: 4821 a3bd 3535 8abd 1a58 3d3d e770 a73e
00000080: 8441 213d 4172 793d 6bbf adbd de04 35bc
00000090: 9d94 c6bd 955c 893d b9eb 3fbe f9d7 ac3d
000000a0: fef8 7c3d 771b f03d 52d9 66bd 8731 40bd
000000b0: abcc e3bd 970c 383b a0da 2e3d 2bb8 183b
000000c0: 13af f0bd 53f1 87bd 1707 a1bd b555 51bd
000000d0: 9b42 92bd a2c7 ab3b 7e8f 8fbd cde8 943d
000000e0: b7ff a4bd 875b 84be d29e 543c 365d 8abd
000000f0: 7bab 8ebc e9cf b7bd 7c06 5bbd 5cf9 6fbd
00000100: f6a6 9f3d bfd6 bf3d 3ce8 45be 9ae1 abbd
00000110: ed83 c9bc 2770 223e 9163 473e 3da9 13be
00000120: d313 26be 1e41 8d3d 4a98 793d e33c f43d
00000130: a810 8a3d d798 313e 993a eabd c945 b3bd
00000140: 3bba 873d 6eb0 233d 91a9 903c d151 53be
00000150: af5b a8bd e10a 173e b1f9 09be 9182 733d
00000160: f499 64bd f29a 1dbe 66b9 b4bd 5e5c ebbc
00000170: 2355 62bd 3416 903d 430f 43be 864d 033e
00000180: bb30 50bb c79b 0f3e 6e2c 723d ddac a03c
00000190: 3c35 3cbe 250b 51bd edbb a3bd 3a47 413d
000001a0: 2901 f6bc 620c 803e cb70 a9bd 1241 8c3d
000001b0: 5403 86bd f514 c4bd bf8b ddbd 84a9 f33b
000001c0: 12de 0d3d 2b97 0e3d 7063 dbbd 0655 38be
000001d0: 714f acbd bf19 463e d3ce 043e 510a f7bc
000001e0: abff ccbd 1782 033e e230 54be 2361 5bbd
000001f0: 238d 56bb cbaf 263e 81a7 b93d bf7d adbd
00000200: 3c76 a33c 43bf 32bd ba25 143e 7a83 803c
00000210: fd1b 963c 9560 0c3c 3025 d53c 23a6 853d
00000220: 6a33 a8bc 5127 1dbd 9b18 12bd 249e a5bd
00000230: 05dd d93c 5c39 adbd fc96 20be a82b a13d
00000240: 9772 5e3b 0fc4 a6bc e5ba 22bd 4bfb d8bd
00000250: 3e02 f03d 7388 12bd 47aa 823e 94f5 c6bb
00000260: 9399 cabd 883f cfbd 7a08 b33d 3d35 4bbc
00000270: 56dd 383e 04a4 c63d 2976 143d 6223 0abd
00000280: 457f 87bd 4378 033d 84c2 a43c 7653 5b3d
00000290: f981 3cbd 2771 b73c 0631 3bbc a0ee 883a
000002a0: 10e4 48be dd69 9abd 9a96 eebd e643 333e
000002b0: 6017 8a3d d2e4 d93b ecf0 88bd 5b36 bcbd
000002c0: b098 983c 7790 243e 5f05 243d 6e34 fdbd
000002d0: c734 ffbb 2129 a93d c0f2 163c 3c07 71bd
000002e0: a09b ad3d 1195 46be e4d4 8abd 3708 9ebc
000002f0: 9909 e7bd 3db9 edbb 99d8 06bb a8e0 50bc
00000300: 267d ccbd 75e4 683d c0bf 28bd 17f6 013b
00000310: b3fd 70bb b65d 1cbe e5d1 02be a661 f3ba
00000320: 27ab 70bd f2b6 d73d bea7 07be 4fe2 963d
00000330: a4c1 60bc a9c2 3cbe a933 903d acbd 4f3e
00000340: 3057 8b3d 480f 17be 9276 00be 2cf7 61bd
00000350: d234 813c f1a9 ca3d 1986 373d 3cca 86bd
00000360: 56ad 913c c9c5 32be 49e0 263e a238 cb3c
00000370: 625f 8b3d befd bf3c b39e d33d 5423 0a3e
00000380: 3770 a4bc 346c f63d 6497 1abe cf4a 25be
00000390: 0218 803d 2463 1fbd e348 bcbd 6ea7 74bd
000003a0: 54cc 843d 33c1 fe3d e997 a3bc 0ed5 903d
000003b0: 1194 07be 5fa5 07bd 1c31 c03b 4e19 563d
000003c0: 55f0 4a3d 239c de3d c11f bcbd 3bfe 07bd
000003d0: a08d ecbd e57e 08be bf5f f3bd b99d aebe
000003e0: 6949 353d 2cd8 61bd 085a d93c 2393 473e
000003f0: cb5d d3bb 0fe8 953d 5980 643d 835b 033c

elmoments.4.bias f4 [4]
0.0 0.0 0.0 0.0
00000000: 0000 0000 0000 0000 0000 0000 0000 0000

energy.0.weight f4 [128, 128]
-0.04838989 -0.17219824 0.15390836 -0.059835017 -0.077148646 0.20832703 -0.021783233 0.042788617
0.052738294 0.119869746 0.012294205 0.027275484 -0.07160303 -0.09507062 -0.0016377727 -0.048111595
-0.1558982 -0.1176833 0.07896909 0.11557823 0.07889477 -0.23707029 -0.0271279 -0.037012827
0.09163317 -0.18084842 -0.03472954 0.020384392 -0.001953256 0.02877255 -0.08573157 0.039197244
0.13960643 0.028167857 -0.06324962 0.1574761 0.043241475 -0.08496404 -0.05973397 -0.08437123
0.00035442854 0.15052071 -0.0628093 0.16272238 -0.010256761 -0.026702194 0.0037056245 -0.009654575
0.04219185 -0.028064827 -0.07657499 0.08910662 0.028738376 0.09100175 0.07003746 0.042501107
-0.07879085 -0.019491777 0.06462759 0.00019862704 -0.009643668 -0.13075435 -0.09924474 -0.055918377
0.014559319 0.019247303 -0.0415228 -0.22152114 -0.13019332 -0.04631987 -0.021353018 0.10495952
0.041284528 0.20364672 -0.14832073 -0.026842609 0.043619517 -0.17898886 -0.14801654 0.044671424
0.091129035 0.06366731 0.103147164 -0.00640041 0.0037978087 0.20247607 -0.014527862 0.07641467
-0.05052602 -0.17327732 0.06712244 -0.0032091339 0.112905525 -0.16586804 0.03519317 0.089572616
0.014098717 0.04270418 -0.06358079 0.041190248 0.1015203 0.040632557 0.28349364 0.12023282
0.034786854 -0.0077143814 -0.1330248 0.2938024 -0.0731007 -0.047049128 0.051400166 -0.11228694
-0.020373572 0.02901126 0.05142299 0.118676044 -0.18583217 -0.021620948 0.04090006 0.09395789
0.021771358 0.056678202 0.034688577 0.15191635 -0.147586 0.018781906 -0.044809557 -0.07658687
-0.11317851 -0.13567439 -0.08757396 0.011004667 0.013887549 -0.085586846 -0.009623758 -0.1157463
-0.079418235 -0.031325176 -0.15110858 -0.1449274 0.10607671 0.012805334 0.035920408 0.028017621
-0.0050275377 -0.120818324 -0.12425721 -0.026638862 0.098069265 0.00557202 0.01640552 0.119632944
0.13258952 0.26044092 -0.012724331 0.10072696 -0.05366175 0.08014821 0.09516131 -0.0054419637
-0.17448798 0.043310344 0.09426755 -0.0818302 0.027634837 0.028197614 0.020818468 -0.10699061
0.11453384 -0.07170757 0.14197928 -0.031939484 -0.046003226 -0.122279145 0.13535862 -0.07293067
0.06393809 0.1188762 -0.06877796 -0.08087697 0.0053483984 -0.086567916 -0.10948205 0.018240133
-0.034674346 -0.010489821 0.041484017 -0.10362864 -0.08961512 0.06750763 0.11126485 -0.12645978
-0.13792603 0.0780091 0.15232916 0.09592329 0.059190318 -0.13848981 -0.014355616 0.058969993
0.17326584 -0.041906606 0.05973144 0.07567034 -0.25948796 0.062032726 -0.03875674 0.034099013
-0.045246787 0.05609064 0.03102963 -0.0063842866 0.041994072 -0.057651393 -0.039902184 0.094404936
0.1824812 -0.038713075 0.085072316 -0.0060902024 -0.13162555 -0.06685071 -0.037917625 0.12585303
0.06280372 0.065374695 0.08701218 0.019622052 -0.02103256 -0.22795264 -0.20838305 0.0397858
-0.05247922 -0.0100686755 -0.059115708 0.2352429 -0.10364678 0.060101174 0.22171986 0.26559898
-0.18617423 -0.05613645 -0.09440939 -0.0634168 -0.216711 -0.03888748 -0.13043216 -0.030161506
-0.0081288265 -0.015797537 -0.094734795 -0.019062852 -0.06493753 -0.05334326 -0.12292361 0.05972482
00000000: 7a34 46bd bc54 30be 279a 1d3e 9015 75bd
00000010: 1c00 9ebd ae53 553e c072 b2bc 1e43 2f3d
00000020: 1c04 583d 457e f53d a26d 493c d670 df3c
00000030: 9ca4 92bd 63b4 c2bd 88aa d6ba aa10 45bd
00000040: c7a3 1fbe f103 f1bd 8cba a13d 47b4 ec3d
00000050: 9593 a13d 8ec2 72be 543b debc c39a 17bd
00000060: 2caa bb3d 5430 39be 9040 0ebd 2bfd a63c
00000070: 3302 00bb 69b4 eb3c 0994 afbd 4a8d 203d
00000080: fdf4 0e3e 47c0 e63c 0489 81bd 6a41 213e
00000090: f91d 313d a001 aebd 9bab 74bd d3ca acbd
000000a0: 98d2 b939 1a22 1a3e 2aa2 80bd b2a0 263e
000000b0: f90b 28bc 8fbe dabc 10da 723b 392e 1ebc
000000c0: 5cd1 2c3d 35e8 e5bc 59d3 9cbd 887d b63d
000000d0: be6c eb3c 205f ba3d cd6f 8f3d a415 2e3d
000000e0: 195d a1bd 38ad 9fbc 785b 843d 8a46 5039
000000f0: 7a00 1ebc 78e4 05be d440 cbbd ab0a 65bd
00000100: 368a 6e3c 85ac 9d3c d013 2abd 70d6 62be
00000110: 6651 05be e7b9 3dbd 86ec aebc 04f5 d63d
00000120: f719 293d c488 503e 64e1 17be 08e5 dbbc
00000130: 61aa 323d db48 37be a691 17be 62f9 363d
00000140: dca1 ba3d 0264 823d d23e d33d 88ba d1bb
00000150: a8e4 783b e355 4f3e 4506 6ebc 4b7f 9c3d
00000160: 5ff4 4ebd 9c6f 31be 7d77 893d 5550 52bb
00000170: 033b e73d 50d9 29be b726 103d d971 b73d
00000180: 4efe 663c 94ea 2e3d a536 82bd 1bb7 283d
00000190: e0e9 cf3d 536e 263d 1426 913e a03c f63d
000001a0: a97c 0e3d ecc8 fcbb a737 08be 456d 963e
000001b0: d2b5 95bd 96b6 40bd fb88 523d b2f6 e5bd
000001c0: 7ae6 a6bc 06a9 ed3c eaa0 523d 6d0c f33d
000001d0: ca4a 3ebe 6a1e b1bc d286 273d ff6c c03d
000001e0: d959 b23c 6727 683d 9c15 0e3d f68f 1b3e
000001f0: c920 17be 83dc 993c 3a8a 37bd 94d9 9cbd
00000200: 22ca e7bd 3aee 0abe fa59 b3bd eb4c 343c
00000210: 9a88 633c 2848 afbd f7ac 1dbc 650c edbd
00000220: 07a6 a2bd d44e 00bd 35bc 1abe d967 14be
00000230: bf3e d93d 77cd 513c 4721 133d 3685 e53c
00000240: 0bbe a4bb 996f f7bd 907a febd be39 dabc
00000250: 8ad8 c83d 7e95 b63b de64 863c 1e02 f53d
00000260: 8cc5 073e 8358 853e b679 50bc f049 ce3d
00000270: 6ccc 5bbd bf24 a43d efe3 c23d 8052 b2bb
00000280: faac 32be 3066 313d 580f c13d 9896 a7bd
00000290: 7462 e23c affe e63c 7e8b aa3c e51d dbbd
000002a0: b890 ea3d 6bdb 92bd 0463 113e fad2 02bd
000002b0: e16d 3cbd 7d6d fabd 739b 0a3e ad5c 95bd
000002c0: f9f1 823d 5d75 f33d 76db 8cbd d3a2 a5bd
000002d0: 9e41 af3b 854a b1bd 2038 e0bd 556c 953c
000002e0: b006 0ebd 80dd 2bbc 25eb 293d 413b d4bd
000002f0: 2288 b7bd 7141 8a3d d3de e33d ac7e 01be
00000300: 7b3c 0dbe 3cc3 9f3d 2dfc 1b3e 6e73 c43d
00000310: 8c71 723d 46d0 0dbe d133 6bbc 858a 713d
00000320: 9a6c 313e 43a6 2bbd f4a8 743d 0df9 9a3d
00000330: 9bdb 84be 0716 7e3d 63bf 1ebd 68ab 0b3d
00000340: b254 39bd 4dbf 653d da31 fe3c 4733 d1bb
00000350: fa01 2c3d de23 6cbd 7970 23bd 6057 c13d
00000360: 5adc 3a3e 9a91 1ebd 653a ae3d 5290 c7bb
00000370: d9c8 06be 06e9 88bd 834f 1bbd 9edf 003e
00000380: 3d9f 803d 2be3 853d 7133 b23d 6dbe a03c
00000390: 7a4c acbc 6b6c 69be 5e62 55be 6ff6 223d
000003a0: 73f4 56bd 16f7 24bc 5023 72bd 84e3 703e
000003b0: c344 d4bd a62c 763d 880a 633e 97fc 873e
000003c0: 75a4 3ebe 56ef 65bd b659 c1bd abe0 81bd
000003d0: 7de9 5dbe 7a48 1fbd 0290 05be 4315 f7bc
000003e0: c52e 05bc d669 81bc 5104 c2bd b329 9cbc
000003f0: f8fd 84bd 767e 5abd 60bf fbbd 03a2 743d
