aimnet/pretrained/aimnet/aimnet_smd_cv0.pt (torch_old, 133555 bytes, 5 tensors)

energy.0.weight f4 [128, 128]
0	0xbb70d421	-0.0036747532
1	0x3d596545	0.053075094
2	0xbdc5c4e1	-0.09656692
3	0x3c7f1fde	0.015571563
4	0xbde1c871	-0.11024559
5	0x3ca920f6	0.0206456
6	0x3c558bf3	0.013033855
7	0xbc33d4e8	-0.010976054
8	0x3d818d7b	0.063258134
9	0xbcdf4533	-0.027254676
10	0xbd9dfa12	-0.07713713
11	0xbd596e01	-0.053083424
12	0x3c3fcdaa	0.011706749
13	0xbc906363	-0.017625516
14	0x3da8186b	0.08207782
15	0x3dc953a7	0.098304085
16	0x3d478d63	0.04871882
17	0x3c59d0c7	0.013294405
18	0x3d71fe38	0.059080333
19	0x3d44cf13	0.048049044
20	0x3d77faa2	0.060541756
21	0x3d2b3d6c	0.041806623
22	0x3d0dc1e4	0.034608737
23	0xbdbd12c3	-0.09232094
24	0x3d9522f5	0.07282058
25	0xbdfc6976	-0.123248026
26	0xbd725adf	-0.059168693
27	0xbd5b98a9	-0.053612385
28	0x3d4075d0	0.046987355
29	0xbda7296e	-0.08162199
30	0x3d62c772	0.055365987
31	0xbe044347	-0.1291629
32	0xbe33bd08	-0.17552578
33	0x3d7c1e73	0.061552476
34	0xbcea7ee1	-0.028624954
35	0x3e099b70	0.13438201
36	0xbd1c4711	-0.03815371
37	0x3e05095d	0.12991853
38	0xbd9d6410	-0.07685101
39	0x3d0cd28b	0.034380477
40	0xbd35d19a	-0.044389345
41	0x3c24f016	0.010067007
42	0x3d7c93d9	0.061664436
43	0x3d48068c	0.04883437
44	0x3ce90263	0.02844352
45	0xbaaf990f	-0.0013397055
46	0x3c959fde	0.018264707
47	0x3c4a15cf	0.012334301
48	0x3d366a4e	0.044534974
49	0xbd8853f7	-0.0665664
50	0xbc915d8d	-0.017744804
51	0x3d58ccb1	0.052929584
52	0xbb96dc23	-0.004603879
53	0x3ca52d9f	0.020163355
54	0x3db213f6	0.086952135
55	0xbca7e99a	-0.020497132
56	0xbd0b5824	-0.034019604
57	0xbdedf649	-0.11619241
58	0xba746cf1	-0.0009324095
59	0xbd8b2935	-0.06794969
60	0xbe0ecd33	-0.13945465
61	0xbd3fed51	-0.046857182
62	0xbd004c2f	-0.031322654
63	0xbd91d0ba	-0.071198896
64	0xbda86d30	-0.08223951
65	0x3e4e799b	0.20163576
66	0x3dc426a2	0.09577681
67	0x3ccd5842	0.025066499
68	0x3dc9af09	0.098478384
69	0x3d48555a	0.048909523
70	0x3c3c4ac3	0.011492434
71	0xbdd67d86	-0.104731604
72	0xbd1710a6	-0.03688111
73	0x3d53f586	0.05174782
74	0xbd8f4257	-0.06995075
75	0xbd427db1	-0.04748315
76	0x3c242501	0.010018588
77	0x3d6a4901	0.05719853
78	0x3c8a98d6	0.016918581
79	0x3d8db724	0.06919697
80	0x3ceeb3eb	0.029138526
81	0xbd684b4e	-0.05671244
82	0x3da84aca	0.0821739
83	0x3e41a57c	0.18910784
84	0xbc0ccf4b	-0.008594344
85	0x3b3bd3ba	0.0028660134
86	0xbd9ff7c6	-0.07810931
87	0x3cad5bfc	0.021162026
88	0xbce6df4d	-0.02818265
89	0x3d68f4b8	0.056874007
90	0x3c06da6c	0.008230787
91	0x3db867d1	0.090041764
92	0x3d676638	0.056493968
93	0x3d16f112	0.036850996
94	0xbd469ea7	-0.048491146
95	0xbca053b9	-0.019571172
96	0x3d9cade7	0.07650357
97	0x3d267f6f	0.040648874
98	0x3cf65493	0.030069625
99	0x3db75965	0.089525975
100	0x3bca68eb	0.006177058
101	0xbd2bfab7	-0.041987147
102	0xbd24a094	-0.0401922
103	0xb8401a6b	-4.580097e-05
104	0x3d1f5c42	0.038906343
105	0xbcc67af4	-0.02422855
106	0x3c1ca680	0.009561181
107	0xbd13f8e6	-0.03612604
108	0xbd7a16d5	-0.06105693
109	0xbd421a6f	-0.04738849
110	0x3dbee1d3	0.09320416
111	0x3d156435	0.036472518
112	0xbd6b7e48	-0.057493478
113	0x3dd39234	0.103306204
114	0x3d9bed7a	0.076136544
115	0x3e06c789	0.13162054
116	0x3d3bdcc0	0.04586482
117	0x3da9dc70	0.08293998
118	0x3da1fb3a	0.07909246
119	0x3af11aec	0.0018394864
120	0xbd88949b	-0.06668969
121	0x3d1ff12c	0.03904836
122	0xbe5ab144	-0.21356684
123	0x3d9360d5	0.071962036
124	0x3d175bf1	0.036952917
125	0x3d08fa7f	0.033442017
126	0x3cc2dd68	0.023787215
127	0x3d9ee574	0.077586085
128	0xbd29811a	-0.041382886
129	0xbd8038d7	-0.06260841
130	0x3ded5ad8	0.11589593
131	0x3b66496c	0.0035138978
132	0xbcf42642	-0.029803399
133	0x3df2f8c8	0.118638575
134	0xbd764255	-0.060121853
135	0xbbe3baa2	-0.0069497386
136	0xbe03d2f9	-0.12873448
137	0xbcbf8ec3	-0.023383504
138	0x3cb97495	0.022638598
139	0xbd3495de	-0.044088237
140	0xbd27da0a	-0.040979423
141	0x3daea3f3	0.085273646
142	0x3d2ea5dd	0.04263865
143	0x3de4a4a4	0.11164215
144	0x3e223a48	0.15842545
145	0x3d92488e	0.07142745
146	0xbc81a490	-0.01582554
147	0xbd1e59b7	-0.038659777
148	0xbd913c2d	-0.07091556
149	0x3d959c3b	0.07305189
150	0xbd71aa76	-0.059000455
151	0x3dcf2b83	0.10115721
152	0xbc93684d	-0.01799407
153	0xbdbdd70e	-0.09269534
154	0x3d01c573	0.031682443
155	0x3b84b32e	0.00404968
156	0xbccb078d	-0.024783874
157	0x3cd0a57a	0.02546953
158	0xbd2fcee0	-0.0429219
159	0xbe15dbad	-0.14634581
160	0x3e1b3cef	0.15159963
161	0x3e0af6b8	0.13570678
162	0x3c83f949	0.01611008
163	0x3c82b550	0.015955597
164	0x3cdac8ad	0.026707018
165	0xbb892ef9	-0.004186508
166	0x3db1420d	0.08655176
167	0x3c1b83ad	0.009491843
168	0xbc7b0e8a	-0.015323291
169	0x3dd7e959	0.105425544
170	0x3d879e6a	0.06622012
171	0xbe4dc095	-0.20092995
172	0xbb819238	-0.003954198
173	0x3cc2a68f	0.023761062
174	0xbe1a06b0	-0.15041614
175	0x3cf842fb	0.030305376
176	0xbd79d044	-0.060989633
177	0x3dc06cdb	0.093957625
178	0x3d36adb4	0.04459925
179	0x3d262ff6	0.040573083
180	0x3ccb5600	0.024821281
181	0x3cf47821	0.029842438
182	0xbd8148cb	-0.06312712
183	0xbd9ecf53	-0.07754388
184	0xbdb1a0e6	-0.08673267
185	0x3c344d6c	0.011004787
186	0xbcc01d74	-0.023451544
187	0xbdf1a854	-0.11799684
188	0xbe14b049	-0.14520372
189	0xbdec1b65	-0.115286626
190	0x3e00ee22	0.1259084
191	0x3c9636c4	0.018336661
192	0xbc7e165a	-0.015508259
193	0x3dca3b85	0.09874634
194	0xbdedc2a7	-0.116093926
195	0x3d1a728e	0.037706904
196	0x3c7d435f	0.015457957
197	0xbc685611	-0.014180676
198	0x3d087950	0.033318818
199	0xbd895024	-0.06704739
200	0x3da23ed3	0.07922139
201	0x3da596dd	0.080854155
202	0x3c919939	0.017773258
203	0x3b8ccdea	0.004297008
204	0xbd8fb3d2	-0.0701672
205	0x3d557709	0.052115474
206	0xbd0e5955	-0.034753162
207	0xbd36214c	-0.044465348
208	0x3dba78d4	0.091050774
209	0x3d69574e	0.056968026
210	0xbc392e7a	-0.011302585
211	0xbde7d1c4	-0.113193065
212	0x3ba98648	0.0051734783
213	0x3c1e91bd	0.009678301
214	0x3e2e4b8c	0.17021006
215	0xbd7b32b4	-0.06132765
216	0x3d99e434	0.075142294
217	0xbd58041d	-0.052738298
218	0x3d2a2589	0.041539703
219	0xbdc30c89	-0.09523875
220	0x3c2f75ab	0.010709207
221	0x3db2b591	0.08726037
222	0x3d38bf42	0.045104273
223	0x3d19f9b9	0.03759167
224	0x3de488fa	0.11158939
225	0xbcce918c	-0.025215887
226	0xbd3fc023	-0.046814095
227	0x3d7fb3e8	0.06242743
228	0xbcbd0c9b	-0.0230773
229	0xbba19356	-0.004930894
230	0x3d5e2786	0.05423691
231	0xbc5cb910	-0.013471857
232	0x3dc1388a	0.09434612
233	0x3c6f3269	0.014599421
234	0x3cceed6c	0.025259696
235	0x3d75800c	0.05993657
236	0x3d087fef	0.033325132
237	0xbe272ced	-0.16325732
238	0x3d3dc476	0.046329938
239	0xbe0036da	-0.12520924
240	0x3c9b03cc	0.018922709
241	0xbe1e7d78	-0.1547755
242	0xbd80c751	-0.062880166
243	0xbcc179dd	-0.02361768
244	0x3d9969c3	0.074908756
245	0x3b7e26cd	0.0038780451
246	0x3c746c3c	0.014918383
247	0x3b626b56	0.003454884
248	0xbd9a6ac7	-0.075398974
249	0xbe07a6a3	-0.1324716
250	0x3e2765c0	0.16347408
251	0x3b85b27b	0.0040801144
252	0xbd551402	-0.052021034
253	0xbd20d3be	-0.039264433
254	0x3dbb4690	0.09144318
255	0xbd103e39	-0.03521559

energy.0.bias f4 [128]
0	0x3bf22fa8	0.007390935
1	0xb9f34973	-0.00046403296
2	0x3d1e9e80	0.038725376
3	0xbc2ceb79	-0.010554188
4	0xbcca4650	-0.02469173
5	0x3d7758a1	0.060387257
6	0x3bc89ce3	0.006122218
7	0x3aec837e	0.0018044559
8	0xbd18243f	-0.037143942
9	0x3c08324e	0.008312775
10	0x3d8263c7	0.06366687
11	0xbc3cc9b0	-0.011522695
12	0xbc85c2ec	-0.016328298
13	0xbbc442f4	-0.0059894267
14	0x3d0db33b	0.034594756
15	0xbcc40a4d	-0.023930693
16	0x3cf5969a	0.029979039
17	0xbcfb0a05	-0.030644426
18	0xbd488a77	-0.048960175
19	0xbd752037	-0.059845176
20	0x3c2d3038	0.010570578
21	0xbcff3eac	-0.031157814
22	0x3d7715af	0.060323413
23	0xbc2c4d7b	-0.01051652
24	0xbd5c79ce	-0.0538271
25	0x3cf3d19b	0.029763034
26	0x3c2b54ae	0.010457201
27	0x3d68247c	0.05667542
28	0x3caa5025	0.020790169
29	0x3d8f845d	0.07007668
30	0xbc27e024	-0.01024631
31	0x3bb4b137	0.0055142897
32	0xbcddf8cb	-0.027096173
33	0x3cbf7abb	0.023373952
34	0x3d37570b	0.044760745
35	0xbbcf4ecf	-0.0063265334
36	0xbbe3d6a8	-0.0069530793
37	0x3b505d9b	0.0031794074
38	0x3d1ac2a5	0.037783284
39	0x3c742756	0.014901957
40	0xbc79c212	-0.015244024
41	0xbd4becdb	-0.04978643
42	0x3cd9a089	0.026565807
43	0xbca473b2	-0.0200747
44	0xbc50e9ad	-0.012751025
45	0xbd7936ba	-0.060843207
46	0xbc97331d	-0.01845699
47	0xbc95c895	-0.018284122
48	0x3cc2bdc0	0.02377212
49	0x3c967609	0.01836683
50	0x3c9fb019	0.01949315
51	0xbc8ecaf4	-0.01743076
52	0xbd12d9c2	-0.0358522
53	0x3d8f0d84	0.06985
54	0xbd31b875	-0.043388803
55	0xba924ef3	-0.0011162445
56	0xbdbd44cd	-0.09241638
57	0x3cdc2071	0.026870938
58	0xbd29cd8b	-0.041455787
59	0xbca28628	-0.019839361
60	0x3d4e8c2b	0.050426643
61	0xbd89bf87	-0.06725984
62	0x3cf6e026	0.03013618
63	0xbcd63c5b	-0.026151827
64	0x3d35937d	0.04433011
65	0x3cc7042b	0.02429398
66	0x3c927f2f	0.017882911
67	0x3caf1cfc	0.021376126
68	0x3c767f64	0.015045021
69	0x3ca846df	0.020541606
70	0x3d316c5b	0.043316226
71	0xba2c3409	-0.0006569033
72	0x3d27b1c1	0.040941004
73	0xbd17d4b3	-0.03706808
74	0xbcb67d3e	-0.022276517
75	0x3b5b3206	0.0033446564
76	0x3d6c75d9	0.057729576
77	0x3bc0922f	0.0058768014
78	0xbd832419	-0.064033695
79	0x3c345ea7	0.011008895
80	0xbd1d8b15	-0.038462717
81	0x3da33ada	0.079702094
82	0x3cd20bcf	0.025640396
83	0xbbffcd19	-0.007806432
84	0xbd50b7bd	-0.050956476
85	0xbc164823	-0.009172472
86	0xbd484767	-0.04889622
87	0xbd89ad86	-0.0672255
88	0xbd6e152b	-0.058125656
89	0xbc3ba300	-0.011452436
90	0x3d87a4f4	0.06623259
91	0xbc3646a5	-0.011125241
92	0xbd16cc0c	-0.036815688
93	0x3d1a80e0	0.03772056
94	0x3c9f89bd	0.019474858
95	0x3d4a48c6	0.04938581
96	0xbd466439	-0.048435424
97	0xbd21d85f	-0.03951299
98	0xbc72ea16	-0.014826318
99	0x3da2a3ec	0.07941422
100	0x3b1f5d15	0.0024316956
101	0x3d14957a	0.036275364
102	0x3ce767db	0.028247764
103	0x3d320a83	0.043467056
104	0xbb544c13	-0.0032393977
105	0x3c569b32	0.013098525
106	0xbc0ee7f5	-0.008722295
107	0xbca9375a	-0.020656276
108	0xbcb7c17a	-0.022431124
109	0x3c615f91	0.013755695
110	0xbda719ff	-0.08159255
111	0x3cb93635	0.022608856
112	0xbdab0479	-0.083504625
113	0xbd16888b	-0.03675131
114	0x3d60df47	0.054900434
115	0xba3eaac3	-0.000727337
116	0x3cf4ac41	0.029867293
117	0xbdb05451	-0.08609832
118	0xbd256ee3	-0.040388953
119	0xbd85464b	-0.06507548
120	0xbd2adc0b	-0.041713756
121	0x3d4d0494	0.050053194
122	0xbd3336df	-0.0437535
123	0x3bf4a6a5	0.0074661546
124	0x3cb71024	0.022346564
125	0xbd2c9680	-0.042135715
126	0xbc84fb36	-0.016233068
127	0xbd737ae4	-0.05944337

energy.2.weight f4 [128, 128]
0	0xba0b4eb6	-0.0005314158
1	0xb97c1040	-0.00024038646
2	0x381da68b	3.7586822e-05
3	0xb9673792	-0.00022050578
4	0x3749cc4b	1.2028099e-05
5	0xb9a6eb5a	-0.00031837338
6	0x3543cb04	7.293859e-07
7	0x37094427	8.181704e-06
8	0x384f7e5b	4.9470324e-05
9	0xb80e840a	-3.397841e-05
10	0xb869cad5	-5.574043e-05
11	0x3654831d	3.166678e-06
12	0xb87dff52	-6.0557686e-05
13	0x3883cd82	6.2848456e-05
14	0x380fd3c8	3.4291093e-05
15	0x363a0fc9	2.7725348e-06
16	0x38c665c7	9.460333e-05
17	0xb9bf2e6e	-0.00036464952
18	0xb938cd1d	-0.00017624018
19	0xb8c0ea8e	-9.198963e-05
20	0xb86ddace	-5.670898e-05
21	0x38b420d3	8.589183e-05
22	0xb7678ede	-1.3801937e-05
23	0x391f55c6	0.00015195375
24	0x382f6701	4.181918e-05
25	0xb9eb97d3	-0.0004493581
26	0x3784c891	1.5829022e-05
27	0xb7d08394	-2.4856803e-05
28	0x37af1534	2.08715e-05
29	0x36b258b5	5.3151402e-06
30	0xb74e3fab	-1.2293381e-05
31	0x36c7a5a0	5.9499434e-06
32	0x38d0acc3	9.950392e-05
33	0x3865dd7d	5.480413e-05
34	0xb9a593d4	-0.00031581393
35	0xb7a65204	-1.9826934e-05
36	0x39512905	0.00019947074
37	0x3839dccf	4.431308e-05
38	0xbb835e8c	-0.0040090736
39	0xba418bfa	-0.0007383224
40	0x382ee29e	4.1695886e-05
41	0x37032eca	7.819102e-06
42	0x3689704e	4.095992e-06
43	0xb81dfa43	-3.766479e-05
44	0x386ed5f4	5.694288e-05
45	0x3750d9fe	1.2448521e-05
46	0x383220ce	4.246906e-05
47	0xb7825195	-1.5535197e-05
48	0xb8d763e9	-0.000102706086
49	0x398f5652	0.000273394
50	0x34a42c2e	3.0579525e-07
51	0x380a2d2d	3.2943837e-05
52	0xb83c468b	-4.488839e-05
53	0x386b76de	5.613907e-05
54	0xb77c552d	-1.5040202e-05
55	0xb876ca29	-5.8839247e-05
56	0xb904b41b	-0.00012655595
57	0xb66bb9de	-3.5125918e-06
58	0x38b9e58d	8.8642446e-05
59	0x3853154c	5.0326154e-05
60	0xba13e663	-0.0005641935
61	0xb89b4ede	-7.405666e-05
62	0xb8bdc724	-9.049315e-05
63	0x38a17e8e	7.700651e-05
64	0x382b5e01	4.0857125e-05
65	0x3943bb58	0.0001866644
66	0x3b19db82	0.0023476784
67	0x38a6527f	7.930863e-05
68	0xb75d7d24	-1.3201763e-05
69	0xb8217762	-3.8496575e-05
70	0xb853a306	-5.0458148e-05
71	0x399cfacd	0.000299415
72	0xb8bd354e	-9.022151e-05
73	0x3686fd26	4.0229816e-06
74	0xba33d6d9	-0.0006860323
75	0x38bcee19	9.008888e-05
76	0xb83325ae	-4.2712018e-05
77	0xbacdbaee	-0.0015695968
78	0xb9567995	-0.00020453923
79	0xb78fac9f	-1.7127311e-05
80	0xb798f065	-1.8231754e-05
81	0xb822cd89	-3.881523e-05
82	0x385343d9	5.036951e-05
83	0xb61f3fba	-2.372994e-06
84	0x382a9df0	4.067825e-05
85	0x38b2a92c	8.519212e-05
86	0x394a9263	0.00019318754
87	0xb8d07f80	-9.9419616e-05
88	0x37ab8040	2.044451e-05
89	0xb77d0547	-1.5081204e-05
90	0xb7a66a92	-1.9838368e-05
91	0x382d4ce1	4.1318013e-05
92	0x3a158538	0.000570375
93	0x381939f7	3.6532027e-05
94	0x382fe6bb	4.1938136e-05
95	0x38c481db	9.370196e-05
96	0xb8c35776	-9.3146155e-05
97	0xb7b479e7	-2.1514437e-05
98	0x35822ef2	9.699418e-07
99	0xb975e617	-0.00023450736
100	0x38e043c1	0.000106937725
101	0xb6cb8243	-6.065036e-06
102	0xb9105d9f	-0.00013767787
103	0x37c6caaa	2.3697812e-05
104	0xb8453ad6	-4.7023255e-05
105	0xb8d2623b	-0.00010031877
106	0xb78070b8	-1.5311278e-05
107	0x3941d9be	0.0001848703
108	0x3923aa24	0.00015608274
109	0x3519554c	5.7121065e-07
110	0xb85db4ca	-5.285888e-05
111	0xb8f746fa	-0.00011791098
112	0x3b8d7adc	0.0043176245
113	0x38e19091	0.00010755764
114	0x370e38c8	8.47708e-06
115	0xb78b1271	-1.6578679e-05
116	0x3849e9d7	4.8139915e-05
117	0x37daeb4f	2.60972e-05
118	0xba826e96	-0.000995117
119	0x3501eea9	4.840354e-07
120	0xb8156ecc	-3.5627556e-05
121	0xb90b1ecb	-0.00013267544
122	0x37e620a4	2.7433336e-05
123	0x36eee802	7.119962e-06
124	0xb70aca6a	-8.272569e-06
125	0x3796b075	1.7963563e-05
126	0xb758ca15	-1.2921654e-05
127	0xb831d52c	-4.239862e-05
128	0x3c938b00	0.018010616
129	0xbceef617	-0.02917008
130	0xbdb30e22	-0.0874293
131	0x3c657cbd	0.014006791
132	0xb9f207ec	-0.0004616374
133	0xbcc86da3	-0.024466341
134	0x3df0f7c7	0.1176601
135	0xbd0b4cc4	-0.034008756
136	0xbb7636b0	-0.0037569217
137	0xbc8b6b13	-0.01701883
138	0x3d4b19fc	0.049585328
139	0x3e091ea2	0.13390592
140	0x3b0f6758	0.0021881666
141	0x3cc85b30	0.024457544
142	0xbd14d9d5	-0.036340553
143	0xbd642249	-0.05569676
144	0x3c9dc9b3	0.019261217
145	0x3d1e46c6	0.038641714
146	0xbb58cbe1	-0.0033080506
147	0x3c4518e6	0.012029862
148	0x3d9b28b7	0.07576125
149	0x3d9ec922	0.07753207
150	0x3bdd7d9c	0.0067593586
151	0xbd56a674	-0.052404836
152	0x3d46762e	0.04845255
153	0x3becfd88	0.0072323717
154	0xbd793841	-0.060844664
155	0xbd6cde3a	-0.05782912
156	0x3d628d75	0.055310685
157	0x3cec1f97	0.028823657
158	0x3ddde867	0.10835343
159	0x3d1620e3	0.036652457
160	0x3ca5f13c	0.020256631
161	0xbdd302bd	-0.10303257
162	0x3dd3135e	0.103064284
163	0xbc1284ac	-0.008942764
164	0x3a4a44ba	0.00077159295
165	0xbd21a5eb	-0.039464872
166	0x3ad9c37b	0.0016614044
167	0xbd12f095	-0.03587397
168	0xbcc59ace	-0.024121668
169	0xbd91e6ba	-0.07124086
170	0xbcb0aed0	-0.021567732
171	0xbd0b626f	-0.03402942
172	0x3d83df25	0.06439046
173	0x3d767d85	0.0601783
174	0x3d3d73b5	0.046252925
175	0x3ddd2a9f	0.10799145
176	0xbd09e059	-0.03366122
177	0x3bad75b6	0.0052935733
178	0x3b565759	0.0032705872
179	0xbd59f759	-0.053214405
180	0x3bea1e2b	0.0071447096
181	0x3dd87e41	0.10570956
182	0xbc29bb31	-0.010359571
183	0xbd2e4d51	-0.042554203
184	0xbd656d9d	-0.05601274
185	0x3ce1cf23	0.02756459
186	0xbdd25ad8	-0.10271233
187	0xbceeebeb	-0.029165229
188	0x3d82dc9c	0.06389734
189	0x3cf34f90	0.029701024
190	0xbdc319cf	-0.09526407
191	0xbe359dce	-0.17735979
192	0x3d7f1786	0.062278293
193	0x3e66f76b	0.2255532
194	0x3d263228	0.040575176
195	0x3ddcc8e7	0.107805066
196	0xbdaf0793	-0.085463665
197	0xbdac8240	-0.08423281
198	0xbcf03271	-0.029320927
199	0x3aa21c1a	0.0012367994
200	0x3d874103	0.06604197
201	0xbe0ed30a	-0.13947693
202	0x3cdc5ba6	0.02689917
203	0x3d457959	0.04821143
204	0xbd155295	-0.03645571
205	0xbcc3369a	-0.023829747
206	0x3ce5ba85	0.028043041
207	0x3dd0abe8	0.101890385
208	0x3da6c5fa	0.0814323
209	0xbd358c3a	-0.044323184
210	0x3d9b0495	0.07569233
211	0x3c6010be	0.013675867
212	0xbc7ac2c6	-0.015305227
213	0x3d7f316c	0.06230299
214	0xbd690066	-0.056885146
215	0x3cfebac0	0.031094909
216	0xbbdebe33	-0.006797576
217	0xbc901f8f	-0.017593173
218	0x3d8a75e2	0.067607656
219	0xbd78c8d3	-0.060738396
220	0xbd8b5d35	-0.06804887
221	0x3d837f9a	0.064208224
222	0x38d6e942	0.00010247763
223	0x3d9cb2d7	0.076512985
224	0x3c987c71	0.018614026
225	0x3d454f3f	0.048171278
226	0xbd9eee26	-0.07760267
227	0xbd2389b4	-0.039926246
228	0x3d97f44e	0.07419644
229	0xbe3b3b63	-0.18284373
230	0x3d1182da	0.03552518
231	0xbd9e9650	-0.077435136
232	0x3cb92c99	0.022604274
233	0x3d68fc2c	0.056881115
234	0x3d5c27b7	0.053748813
235	0x3c5e773d	0.013578233
236	0xbd912871	-0.07087792
237	0xbc439ac4	-0.0119387545
238	0x3cef4795	0.029208938
239	0xbaf53460	-0.0018707626
240	0xb5752b59	-9.133269e-07
241	0xbd15cbd1	-0.036571328
242	0xbd96d1dc	-0.07364246
243	0x3d61c4c6	0.0551193
244	0x3d09e6cc	0.03366737
245	0x3dd79c88	0.10527903
246	0x3d4ea91b	0.05045424
247	0xbc02a5b8	-0.007974081
248	0xbdfa70a3	-0.12228515
249	0x3d528cb5	0.05140372
250	0x3d5081f7	0.050905194
251	0xbbeb9b4f	-0.007190145
252	0xbcf2c86a	-0.02963658
253	0x3aefccbc	0.0018295269
254	0xba3b05d4	-0.00071343523
255	0xbd2e6305	-0.0425749

energy.2.bias f4 [128]
0	0x3b795b2d	0.003804873
1	0xbc672d26	-0.014109885
2	0x3ba0e8fd	0.004910587
3	0x38ac7937	8.224177e-05
4	0x3bb70dee	0.0055863773
5	0xbbe28207	-0.006912473
6	0x3d448c98	0.047985643
7	0xbc36e03d	-0.011161861
8	0xbd33044d	-0.043705273
9	0xbd6e7abc	-0.058222517
10	0x3cac879a	0.021060754
11	0xbd7c13f7	-0.061542477
12	0x3d32a4df	0.043614265
13	0x3cf9cf9b	0.030494502
14	0x3d0212e0	0.03175628
15	0x3bbcecf1	0.0057655503
16	0x3d7fc0cb	0.06243972
17	0x3ba15e8f	0.0049246023
18	0xbcf36132	-0.029709432
19	0xbdd9dae8	-0.10637456
20	0xbd2c1d96	-0.042020403
21	0xbb8f38c0	-0.004370779
22	0xbd25f78f	-0.040519293
23	0xbc243052	-0.010021286
24	0xbd7d9d05	-0.061917324
25	0xbd760052	-0.0600589
26	0x3cf89203	0.030343061
27	0x3c82e483	0.015978104
28	0x3bb5f95a	0.0055534067
29	0x3d84cfa3	0.06484916
30	0xbd135318	-0.035967916
31	0xbc8d92b1	-0.017281862
32	0x3c98a3ed	0.018632853
33	0xbc18f40e	-0.009335531
34	0xbd3a531f	-0.045489427
35	0xbd3ce16d	-0.04611342
36	0xbb8f24cc	-0.0043684
37	0xbc9970d4	-0.018730558
38	0x3d0f9e9d	0.035063375
39	0x3b883e3c	0.0041578095
40	0xbd964515	-0.07337395
41	0xbb7ae25c	-0.0038281893
42	0x3cca2ca2	0.024679486
43	0xbd2a689e	-0.041603677
44	0x3c02e8f9	0.007990115
45	0xbd0d3d2c	-0.034482166
46	0xbd508823	-0.05091108
47	0xbd35a15d	-0.04434334
48	0xbb856113	-0.00407041
49	0xbc5f6f4a	-0.013637373
50	0xbb8a5efc	-0.004222749
51	0x3cd8b61f	0.02645403
52	0x3c995cf5	0.018721083
53	0x3d356932	0.044289775
54	0xbcca4809	-0.024692552
55	0x3c9fec30	0.019521803
56	0x3d440640	0.047857523
57	0x3d560b8f	0.052257117
58	0x3c8ce994	0.017201222
59	0x3cb47bcf	0.022031693
60	0xbbc7db4e	-0.006099141
61	0xbcdfdd8a	-0.027327318
62	0xbd1a3c88	-0.037655383
63	0x3cadfe6e	0.021239486
64	0x3d111564	0.03542079
65	0x3c6405d6	0.013917407
66	0xbcf343cb	-0.029695412
67	0x3abebc55	0.0014551977
68	0x3d392b51	0.045207325
69	0xbd53d925	-0.051720757
70	0x3c5cbf01	0.013473273
71	0xbd733e87	-0.059385803
72	0xbb330dc3	-0.0027321435
73	0xbca2751a	-0.019831229
74	0xbc6e88bd	-0.014558968
75	0xbd385e25	-0.04501166
76	0x3d6d3838	0.057914943
77	0x3ca1d849	0.019756453
78	0xbcc03b1f	-0.023465691
79	0xbc759e6d	-0.014991385
80	0xbbe1c26c	-0.006889632
81	0x3c16834b	0.009186576
82	0xbcb18bc4	-0.02167309
83	0xbbfb5b22	-0.007670776
84	0xbcb864c8	-0.022508994
85	0x3cf2f88a	0.029659528
86	0xbc9eeb93	-0.01939944
87	0x3c9b5da6	0.018965553
88	0xbc5100d7	-0.012756548
89	0xbbeb03f4	-0.007172102
90	0xbc9612da	-0.018319536
91	0x3d77fd99	0.060544584
92	0xbd0a1c81	-0.03371859
93	0x3cf930fb	0.030418864
94	0xbc969604	-0.01838208
95	0x3bc5f0bd	0.006040661
96	0x3c90b852	0.017666016
97	0x3c2bbacd	0.0104815485
98	0x3c498f1f	0.012302189
99	0x3d3bd5a8	0.045858055
100	0xbd2395bb	-0.039937716
101	0x3c9350cb	0.017982861
102	0xbc62320f	-0.01380588
103	0xbc03001f	-0.007995634
104	0xbd4b11c9	-0.049577508
105	0x3cb8ac95	0.022543231
106	0x3be21cc3	0.0069004013
107	0x3c25bd59	0.010115945
108	0x3d761ce1	0.060086135
109	0xbc12454e	-0.008927656
110	0xbb835b68	-0.004008699
111	0xbabd4098	-0.0014438806
112	0xbb8ddf2c	-0.0043295827
113	0xbdadb5e1	-0.08481956
114	0x3d497fce	0.04919415
115	0xbd9219d2	-0.07133831
116	0xbcfbe2b0	-0.030747741
117	0xbd8079ff	-0.06273269
118	0xbaac3f0c	-0.0013141348
119	0xbbd33c41	-0.006446392
120	0x3a5025fa	0.0007940229
121	0xbcb66485	-0.022264728
122	0xbd517f0b	-0.05114655
123	0xbcd15205	-0.025551805
124	0xbd5b125e	-0.053484313
125	0xbb2310eb	-0.002488191
126	0xbccf4692	-0.025302205
127	0xbd5ac882	-0.053413875

energy.4.weight f4 [1, 128]
0	0x370411cc	7.871957e-06
1	0xbdb56852	-0.08857788
2	0x3bda072c	0.006653687
3	0xbddde8fd	-0.108354546
4	0x37d0b540	2.4879933e-05
5	0x3cccdc8f	0.025007514
6	0x3dc8e649	0.098095484
7	0x3df26278	0.11835188
8	0x3dd06ae1	0.101766355
9	0xbe07d989	-0.13266577
10	0xbb00ed66	-0.001967275
11	0xb9d949a4	-0.00041444332
12	0x3cf663da	0.03007691
13	0x3d309da2	0.04311908
14	0x3dd86846	0.105667636
15	0xbbae3c03	-0.0053172125
16	0xbdc05a8b	-0.0939227
17	0x3aef4f9c	0.0018257978
18	0x3e32f4c3	0.17476182
19	0x3e0a5adf	0.13511227
20	0x3dc19e95	0.09454075
21	0x3e0df261	0.13861991
22	0xbd98db39	-0.074636884
23	0x3bc8a3a2	0.006123022
24	0xbd6586b5	-0.05603667
25	0x3dbe92f6	0.09305374
26	0x3b22214e	0.002473909
27	0x3c2e202a	0.010627786
28	0x3e16a88c	0.14712733
29	0xbce0e2a5	-0.027451823
30	0x3b8d7fbf	0.004318207
31	0xb911797b	-0.00013873533
32	0xb9134232	-0.00014043672
33	0xb8cc7ed7	-9.751104e-05
34	0x3b9d259c	0.004795743
35	0x3d950d14	0.07277885
36	0x394c0558	0.00019456947
37	0x3a432031	0.00074434566
38	0xbbc1a521	-0.0059095775
39	0xb70d4a89	-8.421609e-06
40	0x3de4af6c	0.111662716
41	0x3a07613c	0.00051643304
42	0xbb8631c0	-0.004095286
43	0xbc8b7fb4	-0.017028667
44	0xbd93cda5	-0.07216958
45	0xba9a0a9d	-0.0011752431
46	0xbd006acb	-0.031351846
47	0x3c2693b8	0.010167055
48	0x38130d6f	3.5060042e-05
49	0xbd03f6cc	-0.032217786
50	0x3c4bdb2b	0.01244239
51	0xbd2aecfe	-0.04172992
52	0x3d30fb76	0.04320856
53	0xba95c053	-0.0011425115
54	0x39d616da	0.00040834286
55	0x3dc9b0e1	0.0984819
56	0xbc3ef83b	-0.011655862
57	0xbe070af6	-0.13187775
58	0x3d9defdb	0.077117644
59	0x39f8d29e	0.00047459168
60	0xba2e8c08	-0.00066584395
61	0xbb45ff5c	-0.003021202
62	0x3bfbe501	0.0076872115
63	0x390e2bf6	0.00013558552
64	0xbbdef4e2	-0.0068040946
65	0xbd3eae6a	-0.046553053
66	0x3c063346	0.0081909355
67	0x385c56af	5.2532818e-05
68	0xba64ed01	-0.0008732826
69	0xbd13f167	-0.03611889
70	0x39195624	0.00014623307
71	0x3de1a924	0.11018589
72	0x389ca191	7.468754e-05
73	0x3d85503d	0.06509445
74	0x3e0ec4bc	0.13942236
75	0x3a220082	0.0006179885
76	0x3d3d9bca	0.04629115
77	0x39fa6ff8	0.0004776714
78	0x3e48249e	0.19545218
79	0x399d4cfe	0.00030002737
80	0xbb07016e	-0.0020600217
81	0xbb23f752	-0.002501924
82	0x3b142537	0.002260519
83	0xbd83cefa	-0.06435962
84	0x3ab33721	0.0013673046
85	0x3af4a6b9	0.001866541
86	0xbde5dfd8	-0.112243354
87	0x39d8b7fd	0.00041335812
88	0x3e1210c0	0.14264202
89	0x386de19f	5.671533e-05
90	0x3c30cb88	0.010790713
91	0x3cf5d2da	0.030007768
92	0x3cedbd0a	0.029020805
93	0x3a195087	0.00058484863
94	0x3a317fd2	0.0006771061
95	0xb833c228	-4.2857748e-05
96	0xbdd038bc	-0.10167071
97	0xb88d2f9a	-6.7322704e-05
98	0x3d0c9487	0.034321334
99	0x3bf4971d	0.007464303
100	0x3d100ba8	0.035167366
101	0x386d1f6a	5.653446e-05
102	0x3c147fbc	0.009063657
103	0x3959bfed	0.0002076623
104	0xb9095c3e	-0.00013099701
105	0x384b7203	4.8505153e-05
106	0x3e220850	0.15823483
107	0x3baec2fd	0.005333303
108	0xbde2490d	-0.110490896
109	0xba2d8da4	-0.00066205324
110	0xbc2a2d11	-0.010386721
111	0xbe27f81f	-0.16403244
112	0x3e13ad61	0.14421608
113	0x3dbdf773	0.09275713
114	0x3c0f1d5e	0.008735029
115	0x3cc8838a	0.024476785
116	0x3a054712	0.00050841377
117	0xbe08d074	-0.13360769
118	0x3d0e0958	0.03467688
119	0xb944a42b	-0.00018753174
120	0xb8cf4916	-9.8841425e-05
121	0xbc10b799	-0.008832836
122	0x3e095d2c	0.13414448
123	0x39959f50	0.00028538192
124	0x39bfd769	0.00036590852
125	0x3e024cef	0.1272466
126	0x3b91e557	0.0044523883
127	0x39ff2e1c	0.00048671744
