aimnet/pretrained/aimnet/aimnet_smd_cv1.pt (torch_old, 133555 bytes, 5 tensors)

energy.0.weight f4 [128, 128]
000000 83 cc cf 3b da 7e f9 3c 74 79 0c bd a7 73 e5 3c
       0.0063415184 0.030455995 -0.034295514 0.028009249
000010 b3 17 9e bc 7e 20 ab bc 7c e5 6a bd c8 14 81 3c
       -0.01929841 -0.020889517 -0.05734776 0.01575698
000020 9b 37 c1 bc 4a c8 84 3d 68 f8 ff bd 04 77 03 3d
       -0.023586085 0.064835146 -0.124985516 0.032095924
000030 4b 09 ab bb 59 2e eb bb 39 db a3 3d 11 1e 25 bc
       -0.0052196137 -0.007177156 0.08000798 -0.010077969
000040 75 b2 80 3d 3f 53 e8 3b 3f a1 99 3d 06 eb 22 bd
       0.06284038 0.007090002 0.075014584 -0.039774917
000050 ed b9 42 bd 88 0e ad bd de c2 cd bc b9 37 50 bd
       -0.047540594 -0.08450037 -0.025117334 -0.05083439
000060 94 e0 3b bd fd 46 10 bd 04 37 04 be d6 8a 03 3d
       -0.04586847 -0.03522395 -0.12911612 0.032114826
000070 09 05 56 3d 18 5b f7 bd bb da d2 bc 6a 29 80 bc
       0.052250896 -0.12077922 -0.025739064 -0.015644748
000080 2b b1 60 bd 50 83 c2 3d 1d 3d 2a 3d 55 06 9f 3d
       -0.05485646 0.09497702 0.04156219 0.077648796
000090 c8 b0 ed bd 5d 1b 16 3d c4 c9 9f bd 48 38 ac 3d
       -0.11605984 0.03664719 -0.078021556 0.08409172
0000a0 0c 53 49 3d 15 eb dc 3d 36 df ed 3c d6 27 15 3d
       0.049151465 0.10787026 0.0290371 0.036414944
0000b0 b7 c9 11 3d 12 91 a9 3a ff 96 b9 3c 06 18 8f 3d
       0.03559276 0.0012936911 0.022655008 0.06987004
0000c0 0c d9 98 3c e0 56 a6 bc 63 ec d7 bb d0 3f e2 39
       0.018658184 -0.020305097 -0.006589459 0.00043153623
0000d0 04 a0 dd 3c 40 2c cb 3c 6d f5 a9 3d 7d 10 c5 bd
       0.02705384 0.024801373 0.082987644 -0.096222855
0000e0 4f 27 b8 bd 65 70 d6 bd a5 5b 91 3b 18 e3 d8 bc
       -0.089918725 -0.10470656 0.0044359737 -0.026475474
0000f0 16 da 0b bd 7b d6 f4 bc 84 96 1b 3d 48 78 45 bd
       -0.03414353 -0.029887429 0.03798534 -0.048210412
000100 79 5c 4c 3d 25 27 04 3e e0 99 4f bd bf 60 dd 3d
       0.049892876 0.12905557 -0.050683856 0.108094685
000110 ce 00 d1 bd c1 19 8c 3c 04 f7 ba bb a0 0d 9d bd
       -0.102052316 0.017102124 -0.005705716 -0.076686144
000120 06 f9 43 bd fe 42 a6 bd 26 80 2b bc d4 0c d8 3d
       -0.04784491 -0.081182465 -0.010467565 0.10549322
000130 a5 d5 ae bc 59 54 17 be c7 69 49 bd e4 00 b6 bd
       -0.021342108 -0.1477827 -0.049173143 -0.088868886
000140 7b 8b 3a bd 2a 2e 42 3c 99 f5 5f 3d f9 e2 43 bd
       -0.045543175 0.011851827 0.05467758 -0.04782388
000150 04 26 28 bd f1 e5 d8 3c 07 6f a0 bd 95 01 0d 3d
       -0.04105188 0.026476832 -0.07833677 0.034425337
000160 9b 61 14 bd a2 ee b0 bd 52 47 0f be 36 0e 36 3d
       -0.036225896 -0.086392656 -0.1399205 0.044447146
000170 b1 1c 2b bd a1 b5 59 3d b7 0f 2f bd d8 a3 68 3d
       -0.04177541 0.05315173 -0.042739596 0.05679688
000180 55 2b c0 3c 30 8c 13 3e 7b 5c 62 3b f5 88 88 bd
       0.023458162 0.14408946 0.0034539986 -0.066667475
000190 7d 9e ee 3d 2e 32 cb bd 6e 5a 11 bc 82 91 3e bc
       0.11651323 -0.099216804 -0.008871658 -0.011631371
0001a0 7e 20 7b 3d 1d db a0 bd 65 95 72 bd e5 f0 7a 3d
       0.061310284 -0.078542925 -0.059224505 0.06126489
0001b0 78 0e 4a bb e4 ce 16 bd 6d 04 0c 3d bc b1 86 bd
       -0.0030831378 -0.0368184 0.03418391 -0.06576869
0001c0 c5 64 06 3d 4c 90 78 3d 27 74 33 bd d1 de 14 bd
       0.032810945 0.060684487 -0.043811943 -0.036345307
0001d0 74 17 39 bb 87 2b f5 bd a8 38 21 bc e3 dd 74 3c
       -0.002824274 -0.11971193 -0.009840168 0.01494548
0001e0 62 fa 72 bd 04 56 07 3d 17 d7 b5 ba 80 a3 03 bd
       -0.059320815 0.033041015 -0.0013873306 -0.032138348
0001f0 b9 7f cd 3c df 51 79 3d 5a cf 9e 3c db 14 c6 3c
       0.025085317 0.060869094 0.019385982 0.024179867
000200 70 60 16 bc 97 3b 84 bd 8a 81 ec bc 6c 47 8a 3d
       -0.009178266 -0.06456678 -0.028870363 0.06751904
000210 bc 3b b2 bd bf 3f 43 bb 88 eb ce bc 8f c2 e2 bc
       -0.087028 -0.0029792634 -0.025258794 -0.027680663
000220 34 6e 69 bd 95 97 77 bc 6e 09 0e bd cc b7 91 bd
       -0.056989864 -0.015111824 -0.03467696 -0.071151346
000230 2b 58 e3 3c 50 34 0d bd bd 14 51 3c ad a5 ce bd
       0.027752003 -0.034473717 0.012761292 -0.10090194
000240 78 76 a2 3d 8f 90 c4 bc b0 90 0b bc 04 bb fe bd
       0.07932752 -0.023994712 -0.008518383 -0.12438014
000250 21 3a 87 3b b6 33 49 bd 5b c4 e1 bb d7 04 66 bd
       0.0041268026 -0.04912158 -0.0068898625 -0.05615696
000260 81 51 39 bd 46 47 65 bd 5a e7 a8 bd dc 53 de 3c
       -0.045243744 -0.055976175 -0.08247252 0.027139597
000270 21 b7 9f bd a6 58 72 bd 73 2c 4e 3c b1 25 87 bb
       -0.07798601 -0.059166573 0.01258384 -0.004124366
000280 23 15 d2 bc 7d 5a e7 3c 00 a2 0d bc 9f 2f 4b 3d
       -0.025644844 0.02824139 -0.008644581 0.049605962
000290 a8 ed c4 3c 4e 0d 2a 3d c4 9c f6 bd 04 c6 ed 3c
       0.024039105 0.041516595 -0.120416194 0.029025085
0002a0 9d fe e8 bb c0 ed ba bc e8 f1 c3 bc 56 97 a5 3d
       -0.0071104304 -0.022818446 -0.02391906 0.08085506
0002b0 22 9f 1b 3c d8 13 c5 bd 1f 12 05 3d 25 da 7b 3d
       0.009498389 -0.096229255 0.032487985 0.061487336
0002c0 ae e5 4c bc cf 0f c4 bc 51 41 35 bc 3f de ee 3c
       -0.012505932 -0.02393332 -0.011062936 0.02915871
0002d0 f3 e6 00 bd 4c af 60 3d ec b5 59 3d 12 51 77 3d
       -0.03147025 0.054854676 0.05315201 0.06038005
0002e0 7a 89 28 3d 50 30 13 bd 91 34 f8 bc a5 b3 8f bd
       0.041146733 -0.035934746 -0.030298503 -0.07016686
0002f0 9f 52 cc ba 1a bd 5b bc f4 40 f9 3b 12 8e 86 bd
       -0.0015588588 -0.013411785 0.00760662 -0.065700665
000300 19 de 3a bc fb 5a 26 3e 32 b1 79 3d 9f 09 64 3d
       -0.011405491 0.16245644 0.060960002 0.055673238
000310 2b 19 23 bd 2c f5 bc bc 50 d4 09 3d 07 26 04 bc
       -0.039818924 -0.023066126 0.033649743 -0.008065707
000320 75 95 0b bd b7 78 ba bc 01 97 c3 3d 37 9a 35 3b
       -0.03407808 -0.02276264 0.09550286 0.0027710327
000330 b4 14 e4 bc 85 1c 10 3c 24 4a 18 bd 62 e2 35 bd
       -0.027841903 0.008795862 -0.03718008 -0.04440535
000340 9f a2 c9 bd 3a d1 99 3c a4 96 5f 3c ce 9d 70 bd
       -0.09845471 0.018776525 0.013646755 -0.058744244
000350 b3 ef a7 ba 4f c8 06 bd 40 de 4a 3d 5b ef 26 3d
       -0.0012812525 -0.032905873 0.04952836 0.04075561
000360 86 e9 02 bd ce 0e 2a bc 1e d3 08 3d 3a de 0b 3e
       -0.031960987 -0.010379506 0.033404462 0.13658991
000370 0c fd a7 bd b1 6d bf bc 23 f2 2d 3c 96 7a 13 bd
       -0.08202562 -0.023367735 0.010616812 -0.03600558
000380 25 87 c4 3b c8 ae 6b 3d 2a f3 47 3d b0 4e 80 bd
       0.005997556 0.05753973 0.048815884 -0.062650084
000390 90 94 d1 3d 06 ef e6 3c 95 3d b8 bd b0 d8 05 be
       0.10233414 0.028190147 -0.08996121 -0.13070941
0003a0 21 fe 4f 3d 37 5f d7 bc 0a de fd bc fb 30 13 3d
       0.050779466 -0.02629052 -0.030989666 0.035935383
0003b0 18 5b a8 3d cd 02 19 3d 76 fd a1 3d df ea 10 3c
       0.082205 0.037356187 0.07909672 0.00884506
0003c0 1e 23 21 3d cf 27 ba 3d 52 10 e5 3b f5 82 b7 3d
       0.03934013 0.09089624 0.006990471 0.08960525
0003d0 93 71 8f 3a 02 99 af 3c 3a eb b1 bc e0 95 c3 3c
       0.0010943882 0.021435264 -0.02171861 0.023875177
0003e0 52 8a 1a 3c 05 ff 1a bc fe f3 c3 bd 06 50 08 bd
       0.009432392 -0.009460215 -0.09568022 -0.03327944
0003f0 0f a9 b0 bd ee 7f a3 3d 67 56 ae 3d c3 5f 4d 3d
       -0.08625995 0.07983385 0.08512574 0.050140154

energy.0.bias f4 [128]
000000 e9 4d 44 bd f5 40 5d bb a1 f5 99 3b 41 46 b0 3d
       -0.047925863 -0.0033760641 0.0046984707 0.0860715
000010 09 f9 2f bd a6 2c 42 3d 64 39 fa bc 68 97 4e bb
       -0.042962108 0.04740586 -0.030544944 -0.003152335
000020 3a 6c 31 3d 56 89 6c 3d 79 a9 4a bd 45 3e 58 3d
       0.043316104 0.05774816 -0.049478028 0.05279376
000030 b7 46 1a bd cc 5f 8c bd 07 b8 55 bd 63 d2 1e bd
       -0.037665095 -0.06854209 -0.052177455 -0.03877486
000040 57 34 b0 3b 5b 5e 86 3c 48 e3 95 bb 4e c7 80 3d
       0.005377333 0.016402414 -0.004574213 0.06288014
000050 5f 37 81 3c 42 4a 97 3c 8d 0c 86 3d 00 ed 6c bd
       0.015773473 0.018468026 0.065453626 -0.05784321
000060 92 33 76 bd f2 7e 0b bd 59 ed d9 3c c5 a7 7a 3d
       -0.060107775 -0.03405661 0.026602434 0.061195154
000070 f4 dc ed 3c cb 39 44 3d eb 49 e6 3c e3 ff cd 3d
       0.029036023 0.04790668 0.028111419 0.10058572
000080 f3 a2 9a bd e3 1a 50 3d 33 06 14 bd 06 a5 07 bc
       -0.07550611 0.05080689 -0.036138725 -0.008279091
000090 11 45 64 bd 9c 53 c0 3b d6 2c 97 bd 0f a3 06 3d
       -0.05572993 0.005869342 -0.07381599 0.03287035
0000a0 21 19 04 3d 86 ec 8b bc fe da 58 3b c7 a1 91 bd
       0.032250527 -0.017080557 0.0033089514 -0.07110935
0000b0 a6 16 03 3d d8 16 aa 3d 1b 69 2f 3d e2 b6 74 3b
       0.03200402 0.08305138 0.042824846 0.0037340452
0000c0 e9 6f 1b bd c2 b4 f6 bc cb c0 84 bd c3 33 25 bd
       -0.037948523 -0.030115489 -0.06482085 -0.040332567
0000d0 64 29 a3 ba 91 ec 22 3b b1 f2 e7 3b d0 55 23 bd
       -0.0012448248 0.0024860243 0.0070784916 -0.03987676
0000e0 c1 5e 3e 3d c6 07 be bc 8e 90 02 bd e9 3c ed 3c
       0.046477083 -0.023197066 -0.03187614 0.028959708
0000f0 b0 15 21 3d 1a 4a 69 3d f6 30 2c 3d 25 e7 99 bd
       0.039327323 0.056955434 0.04203888 -0.075147904
000100 74 e7 16 3d 2b fd 82 3d 67 c6 20 bd 2c 05 61 3d
       0.036841825 0.06395944 -0.03925171 0.054936573
000110 5e 47 48 bd a4 fb 90 3d 61 f3 aa bc 7a 9c 6a 3d
       -0.048896186 0.07079247 -0.020868005 0.057278134
000120 5f 1b 33 3d 72 3d 73 3c 4d 05 b7 3d 8d 4a 97 bd
       0.043727275 0.014846193 0.08936558 -0.07387266
000130 b0 bc 14 3c 96 0c 86 bd b0 61 bd 3c 72 33 42 3b
       0.00907819 -0.06545369 0.02311787 0.0029632715
000140 53 0c 40 3d c1 4e 1e 3d 29 ed 86 bc 1f fb 84 3d
       0.046886753 0.038649324 -0.016470509 0.0649321
000150 38 35 9c bd 22 e3 b8 bc e8 d5 3d bd aa 07 07 3d
       -0.07627338 -0.022569243 -0.046346575 0.032966293
000160 02 71 26 bc 4d a2 a0 bd 35 38 92 3d e8 01 0e bd
       -0.010158779 -0.078434564 0.07139627 -0.034669787
000170 2e df 80 3d 8f ec ba 3d c1 b2 ee bc 4c 91 09 bd
       0.06292568 0.09127151 -0.02913797 -0.03358583
000180 16 d4 8f bd cb cb a7 bc ec ea 01 3d 5d 3c 71 3c
       -0.07022874 -0.020482918 0.03171818 0.014723864
000190 27 dc 0e 3d fb a3 70 3d 1b 9b 2c 3d d1 7b e2 3c
       0.034877922 0.058750134 0.042140108 0.02764693
0001a0 7e c2 64 3d 7c 3d 8c bd 9d 9f 52 3d 05 c7 e5 bc
       0.055849545 -0.06847665 0.05142175 -0.028049001
0001b0 80 7a 0e 3d 22 7a b7 bc 40 47 04 3d ae ff f8 bc
       0.034784794 -0.022397105 0.03229451 -0.030395355
0001c0 50 69 06 bb 1a b6 69 bd b9 e0 4f bd b2 d2 63 3d
       -0.0020509548 -0.05705843 -0.05075142 0.055620857
0001d0 9d ad bf bb b6 bd 2a 3d 14 65 b6 3d 69 6b 45 3d
       -0.0058495537 0.04168483 0.08905998 0.048198137
0001e0 95 6e 1c 3d 8e c5 2f bc 18 54 ac ba 6f 13 5b 3d
       0.038191397 -0.010728253 -0.001314762 0.05348533
0001f0 8f fc 9e bd a0 78 31 bd e6 e4 3a 3d f1 91 26 bb
       -0.077630155 -0.043327928 0.04562845 -0.0025416578

energy.2.weight f4 [128, 128]
000000 5a 16 ac bb 5f 10 38 3b dd cf b1 3b 73 0d 22 3b
       -0.005251688 0.002808593 0.0054263906 0.0024727255
000010 92 7a 04 3b 64 4e 42 3c c4 96 90 bb 7a 63 48 bc
       0.002021466 0.01185951 -0.004412504 -0.012230748
000020 37 52 d0 bc 44 fb 73 bb 99 73 e4 3a a3 e6 51 3b
       -0.025429828 -0.0037228623 0.001742947 0.003202834
000030 85 e9 1b bd 53 f9 0c bb a7 3b 20 3b a6 02 fe bc
       -0.0380645 -0.0021510914 0.0024449618 -0.031007122
000040 eb 4e 48 ba 3a bc 22 3c 51 e5 93 bb d2 3d ba bc
       -0.0007641154 0.009932572 -0.0045134206 -0.022734556
000050 0a 29 64 ba 5f 5d 05 3d 02 10 a8 ba 96 cc f4 3c
       -0.0008703625 0.03255975 -0.0012822154 0.02988271
000060 23 10 00 bb f7 e1 3a bb 88 d0 da 3c a2 0d 54 3a
       -0.0019540868 -0.0028516033 0.026710764 0.00080891897
000070 20 9d ca ba 7c 60 12 3d 2a 5e 3e 3b b2 95 81 3c
       -0.0015458204 0.035736546 0.0029047825 0.01581845
000080 c2 4d 16 bc f8 d9 6e bb 5e 65 26 3c fa 10 98 3b
       -0.009173812 -0.0036445837 0.010156004 0.0046406956
000090 b7 95 0b bc 34 61 ae 3a f8 29 13 3c e8 5b 1b bd
       -0.0085195815 0.0013304115 0.008982174 -0.037929446
0000a0 1d f3 9f bb 34 b8 bd 3c d6 fe 1c 3c 55 2b 96 3a
       -0.0048812763 0.023159124 0.009582242 0.0011457006
0000b0 44 87 0f 3d 12 49 fe bc 7f 1a d1 bc 58 b0 92 3a
       0.03504111 -0.031040702 -0.02552533 0.001119147
0000c0 01 4b 65 3b 1c bf 03 3b da e0 fc bb 95 d3 ae 3a
       0.0034987333 0.0020102924 -0.007717234 0.0013338203
0000d0 57 79 86 bb eb 40 83 bc c1 db 2c 38 81 1e d3 3a
       -0.0041038203 -0.016022166 4.1212657e-05 0.0016107113
0000e0 8e da 70 bc ac 6f 3e 3a 39 56 87 3a 97 20 39 bb
       -0.014700545 0.0007264565 0.0010325379 -0.0028248185
0000f0 f0 d1 1f 3b c1 df 67 bb 36 24 0c 3c 02 b6 62 3b
       0.0024386607 -0.003538117 0.008553555 0.0034593348
000100 96 fd 1f 3c f0 61 a6 3b fe 5f 09 bd 2f e8 2b bc
       0.009765049 0.005077593 -0.03353881 -0.010492369
000110 af f4 3a ba 92 f6 d4 bc c2 89 16 3c 23 45 ca ba
       -0.00071317976 -0.02599648 0.009188117 -0.0015431981
000120 07 ef 2d bb dc 13 f6 3c 10 1f 11 ba b8 9d cf ba
       -0.0026540176 0.030038767 -0.00055359397 -0.001583985
000130 ee 3f 93 3c a4 15 08 bc ef f1 c3 bb 5c fd ad 3a
       0.01797482 -0.008305941 -0.0059797685 0.001327436
000140 90 3f 57 ba 27 d7 2a bc b0 87 27 3b ad f8 9e ba
       -0.00082110707 -0.010427273 0.0025563054 -0.0012128555
000150 90 b1 a3 bc 1e ea f8 ba 4d f4 67 3b c5 8f eb 3c
       -0.01998213 -0.0018990671 0.0035393417 0.028755078
000160 a0 80 2c bb bf 60 70 3b 32 5d a7 bb 68 a0 6c 3b
       -0.0026321784 0.003667876 -0.0051075453 0.0036106352
000170 cf 47 be 3b 77 a9 f2 3a ae e5 79 3c 85 89 ed 3b
       0.0058069 0.0018513639 0.015252514 0.0072490596
000180 4e d1 90 bc 01 7c 13 3d a6 87 01 3c b8 b5 c0 ba
       -0.01767793 0.03600693 0.007905876 -0.0014702594
000190 ff 9a 08 3c ae 8a 53 bb 4e 48 1f bb 93 f2 28 bb
       0.008337735 -0.0032278704 -0.0024304572 -0.002577935
0001a0 23 bb 32 3c b8 4c 0c b9 9a e4 c6 ba cb df f1 39
       0.010908875 -0.0001338002 -0.001517433 0.0004613384
0001b0 1e b7 09 bc 0c bc b9 3c bd 2a b4 3b e7 8d 3b bd
       -0.008405475 0.022672676 0.005498259 -0.045789625
0001c0 d6 bd 64 bb 80 af 39 3b c9 bd 98 bb 65 97 4c 3c
       -0.003490319 0.0028333366 -0.004661296 0.012487267
0001d0 4d 99 83 bc 64 9c 30 bb d2 05 d3 3a 4c 32 63 bb
       -0.01606431 -0.0026948685 0.0016099757 -0.003466743
0001e0 70 41 ca bb 30 34 cc 3c 06 13 cc 3b d0 0b d5 39
       -0.0061723515 0.024927229 0.0062278537 0.00040635327
0001f0 cb 6f 76 3c 27 52 1a 3b 8d 99 32 bc 9e 9c d0 3b
       0.015041302 0.0023547502 -0.010900867 0.0063663265
000200 ca fd b3 ba e9 19 1d bc 65 ac 9c 3b 8b fa 3f 3a
       -0.0013732251 -0.009588697 0.004781293 0.00073234056
000210 5b 88 0d 3a 0d aa 91 3b a7 eb 8b bb 3b 4e 82 3c
       0.00053990417 0.0044453205 -0.0042700353 0.015906444
000220 f9 63 7b 3b b4 66 8d bc 3f a9 6b bc c5 20 77 bb
       0.003835915 -0.017260887 -0.014383613 -0.003770874
000230 d2 06 36 3d 24 59 83 bb 67 62 52 3c b2 95 9b bc
       0.044440098 -0.004008429 0.012840844 -0.018992279
000240 a9 ac 25 39 a4 d5 21 bc 91 e5 96 bb fb b1 1a bc
       0.00015799947 -0.009877596 -0.004605003 -0.009441848
000250 5b 72 6d ba ec 86 de bb 0a eb 66 3a 01 62 27 3b
       -0.0009057873 -0.0067909863 0.0008808827 0.0025540593
000260 78 cc 06 39 41 db 48 3a f0 bd 9e 3c ff 06 aa b9
       0.00012855406 0.0007662066 0.019377679 -0.0003243014
000270 94 1e 73 3a 57 47 91 bc 54 31 9f bc 65 f9 bc bb
       0.0009274271 -0.017734213 -0.019432701 -0.005767035
000280 d2 98 c8 3c a8 95 00 bc 0d d1 84 39 6a d6 6d 3a
       0.024486933 -0.007848181 0.00025332757 0.00090727827
000290 31 35 98 bb 81 d1 8a ba a9 24 b8 3c 10 0e 43 3d
       -0.004645013 -0.0010591001 0.022478418 0.047620833
0002a0 d3 45 53 bb ac 2e b0 bc 44 a9 65 3b 57 dc 00 bb
       -0.0032237663 -0.02150663 0.0035043517 -0.0019662583
0002b0 71 49 3c bd aa 36 5d bc fe 6d e4 3c 78 d2 56 ba
       -0.045968477 -0.013501802 0.02788448 -0.00081948144
0002c0 af 5c 24 3b e6 e4 66 3b 5f 73 09 39 ab f2 61 bb
       0.0025079658 0.003523165 0.00013108317 -0.0034476917
0002d0 37 01 7d ba c2 9f f6 39 13 eb 96 b9 1e f4 a4 ba
       -0.0009651365 0.00047039805 -0.00028785373 -0.001258496
0002e0 fd 0c 95 39 3e 8c ba bb b2 19 95 39 4f 11 ab 3a
       0.00028429172 -0.0056929877 0.0002843864 0.0013051423
0002f0 72 1b 04 bc c3 08 ef ba 5c 40 91 bc 84 dc 9d 3a
       -0.008063184 -0.0018236864 -0.017730884 0.0012043868
000300 a9 d1 e9 3b 5e b0 17 bb 53 62 f8 3b aa a3 bc bc
       0.007135589 -0.0023145895 0.0075800805 -0.02302726
000310 40 64 7e 38 9a 4e a2 bc 70 7f 87 ba 57 ac 91 3a
       6.0651684e-05 -0.01981287 -0.0010337662 0.0011113983
000320 c5 e3 b9 3c 8c 2b f2 3b 6c 55 c0 39 10 24 bc 3c
       0.022691617 0.007390445 0.00036684738 0.022966415
000330 ed 20 ee 37 b4 eb 8f 3b b9 f5 34 bc 52 ba 5e bb
       2.8387143e-05 0.0043921117 -0.011044913 -0.0033985567
000340 4c 2e 3b b9 52 f7 3b 3b 24 ab aa ba 25 3d 54 bb
       -0.00017850957 0.002868135 -0.0013020975 -0.0032385078
000350 7d 7a e8 bb fb 16 0b bb 92 45 e8 ba e1 d4 a6 3c
       -0.00709468 -0.0021223414 -0.0017720929 0.02036518
000360 c2 dd 8b 38 2f 53 54 3b 28 1f c6 ba d1 c0 52 bb
       6.669342e-05 0.0032398214 -0.0015115486 -0.0032158385
000370 2f 18 0e 3b 50 d4 86 3a 7e ea bd bc 5d 2a 00 3b
       0.0021681895 0.0010286663 -0.023183104 0.00195565
000380 ac 1e 81 bb d5 1d d4 39 41 d8 1f 3b 87 e4 7e b8
       -0.003940424 0.00040458018 0.0024390372 -6.077115e-05
000390 ea 25 07 3a fe a0 60 ba 1e 44 34 bb 43 68 5e bc
       0.0005155491 -0.00085689116 -0.0027506421 -0.013574663
0003a0 f4 c8 0f bc e1 a8 5f bc 83 14 5d ba 57 46 d2 bb
       -0.008775938 -0.013651104 -0.00084335374 -0.0064170766
0003b0 ab ce e1 b9 6d a8 e8 3c bb 1c 7f 3a 3b d9 83 3c
       -0.00043069324 0.028400624 0.0009731759 0.016094794
0003c0 3c 22 52 ba 96 47 a1 3a f8 2e cf 3a 24 1a 50 bc
       -0.00080159656 0.001230466 0.0015806844 -0.012701545
0003d0 2b e3 f9 3b 78 e1 26 3b 98 58 1b 3d 2a 9f 7e 3a
       0.0076259575 0.002546398 0.037926286 0.00097130483
0003e0 ee 79 36 bc 05 42 9d bc 55 76 18 3d c8 5b 84 b9
       -0.011137469 -0.01919652 0.037222225 -0.00025245384
0003f0 e5 0d 00 bb 29 4e 83 bb d3 6f 34 bc 7e de 82 bb
       -0.0019539532 -0.00400712 -0.011012989 -0.0039938083

energy.2.bias f4 [128]
000000 82 9e 0d 3d 97 53 31 3d 42 99 4a bd d1 ca 37 bc
       0.034574993 0.043292608 -0.049462564 -0.011217789
000010 ad 8f 4d bb 81 4d a5 3b e0 71 3e 3d 24 6e a6 bd
       -0.0031366155 0.0050446396 0.04649532 -0.081264764
000020 c6 24 6d bc 6b 23 c2 3c fd 04 0e 3b 5b 8e a7 3b
       -0.0144740995 0.02369853 0.0021670454 0.0051134056
000030 32 77 a2 3c 64 3f 4f 3d 87 fe 5b 3d 70 9c 59 3d
       0.019832227 0.050597563 0.053709533 0.053127706
000040 80 ef af 3c 74 d6 11 bd ce 0f 91 3d 87 6d ac bc
       0.021476507 -0.03560491 0.07083093 -0.02104832
000050 4e c4 8e bc af f8 48 3d 02 e8 25 bc 9a 9d 10 3c
       -0.01742759 0.04906529 -0.010126116 0.008826638
000060 13 c4 5f 3b ae 7e 1b 3c 8a 35 c5 39 36 bf 28 3c
       0.003414397 0.009490652 0.00037614658 0.0102994945
000070 a6 6a 33 3c 24 de 82 3d 91 51 6a bc 4d 77 48 bd
       0.01095072 0.06390026 -0.0143016735 -0.0489419
000080 a3 10 2d 3d a3 57 ea ba af a7 a8 3c e3 26 54 3d
       0.042252194 -0.0017878901 0.02058777 0.051794898
000090 6e 3d 04 3d 41 a0 af bc 47 bf 80 bd 9e d0 cc ba
       0.032285146 -0.02143872 -0.06286483 -0.0015626138
0000a0 97 23 a8 bd 6e 58 1d bc 23 dc ca bc 95 0b 8a bd
       -0.08209913 -0.009603603 -0.024763172 -0.0674049
0000b0 36 a8 23 3c 0b 6e ac bb fb e1 f0 bc 61 f8 44 bd
       0.009988835 -0.0052621416 -0.02940463 -0.048088435
0000c0 5c 75 67 bd 3f 8e 56 3d 65 21 d1 3c f1 59 96 bd
       -0.056508407 0.05238175 0.025528619 -0.07341374
0000d0 90 57 24 3c 1c bf 2c bd f9 d4 13 3c 06 f5 00 bd
       0.010030642 -0.042174444 0.009022945 -0.031483673
0000e0 d7 ea 1f bd 6c 34 95 38 31 41 69 bd 19 48 a6 bc
       -0.03904232 7.114638e-05 -0.056946937 -0.02029805
0000f0 63 5a c6 3c 5b 85 ec bc 6f 1e 92 3d 54 9e 06 bd
       0.024213022 -0.028872183 0.07134711 -0.032865837
000100 e2 71 aa 3c 0b fa a7 39 38 47 dc 3c d9 46 13 3d
       0.020806257 0.0003203902 0.026889428 0.035956237
000110 3d 0d b2 bb da c2 40 bd 89 db 13 3c 92 65 1f 3d
       -0.005433707 -0.047060825 0.009024509 0.038915224
000120 8d 95 11 bb 1f 53 65 bb a2 3e 47 bd 71 87 9b bd
       -0.0022214383 -0.003499217 -0.048643716 -0.07594193
000130 ab 2e c4 bb 26 04 54 bc d9 1d 8c bc 5c b5 04 3d
       -0.0059870086 -0.012940442 -0.017104076 0.03239952
000140 bc a4 4d bd 51 ad 83 3d 02 00 a4 bd aa 0b e3 bc
       -0.05020593 0.06429542 -0.08007814 -0.027715523
000150 27 0f d9 bc 85 96 38 3c db 78 1e bd 55 b8 43 bd
       -0.026496483 0.011266355 -0.038689476 -0.047783215
000160 43 7c 13 3c 65 f2 57 bb 83 84 88 bd 09 fd 93 bd
       0.009001794 -0.0032950875 -0.066658996 -0.07225997
000170 58 57 67 3c ed ce 3d 3d fb e3 41 3d 73 93 ca bc
       0.0141199455 0.046339918 0.04733656 -0.024728512
000180 a9 4e a9 3c f0 c2 a5 bb a0 d3 e5 3c df 4b c1 39
       0.02066739 -0.0050586388 0.028055012 0.00036868357
000190 d9 75 1d bd ab ec 02 3c ea 81 05 bd 4c ba 81 bc
       -0.038442466 0.007990996 -0.0325946 -0.015835904
0001a0 a6 23 bb bc 30 4e c0 bb e2 f4 a7 bd 8a 48 88 39
       -0.022844147 -0.0058686957 -0.082010046 0.00025993987
0001b0 79 eb 22 ba 51 fd 52 bc a8 77 1f b8 bb 80 36 bd
       -0.0006214898 -0.012877778 -3.8019993e-05 -0.04455636
0001c0 46 69 96 ba bf 1d 86 3d 6b 8e 8c ba 88 30 80 3a
       -0.0011475466 0.06548642 -0.0010723596 0.0009780088
0001d0 d8 d2 42 3d 1e 05 d6 bd 65 a1 ba bb 44 a6 52 bd
       0.047564358 -0.10450195 -0.0056955093 -0.051428095
0001e0 bb 03 09 bd 87 18 0d 3d bf b4 3d 3d d2 b8 60 bd
       -0.033450823 0.03444722 0.04631495 -0.05486376
0001f0 6b 41 c7 bc 9c 95 6e bd 97 4d 2d bd b8 e5 f8 3c
       -0.024323186 -0.058248147 -0.042310324 0.030382976

energy.4.weight f4 [1, 128]
000000 94 56 0d bb aa 67 33 38 82 44 87 bc 5a 00 62 3d
       -0.0021566497 4.277347e-05 -0.01651216 0.055176117
000010 60 e3 af b9 22 87 14 3e 3c 6e 38 bc 92 7d 08 be
       -0.0003354801 0.14504674 -0.011256751 -0.13329151
000020 76 f7 8e bc 5e b5 74 bd 6c 50 f9 3d 8b 15 0c 3b
       -0.017451983 -0.059743278 0.121735424 0.0021375145
000030 89 5e 25 bd 66 8c 93 bd 06 86 f9 bc 83 72 c1 3d
       -0.04037336 -0.07204513 -0.030459415 0.094456695
000040 1b d9 a1 bc 26 4b 2c 3e 40 47 17 3d 40 2d ee bd
       -0.019756844 0.16825542 0.036933184 -0.116297245
000050 20 69 22 3e 49 4d 71 bc 39 0d 2f b9 78 58 19 3b
       0.15860415 -0.014727899 -0.00016694226 0.0023398679
000060 88 c3 42 39 d2 cb eb 3b 1a 00 bb bb 2d 65 0f bc
       0.00018574123 0.007195928 -0.005706799 -0.0087521495
000070 9c ac 5e 3b dc c7 25 3c c4 60 a4 3d cf 45 a5 bd
       0.0033977395 0.010118451 0.08026269 -0.080699556
000080 55 3a 10 3d a1 e0 8e b9 b9 3e d7 3d 42 a6 21 bd
       0.03521188 -0.00027251712 0.1051001 -0.039465196
000090 2e 2a 4f 3d 11 ca 39 3a 3a 97 f0 bd 80 6d 8b b8
       0.050577335 0.00070873 -0.11747594 -6.6484325e-05
0000a0 91 83 c0 bd 53 d5 30 3c d0 d6 79 bd 89 d7 8c bd
       -0.09400094 0.010793048 -0.060995877 -0.068770476
0000b0 04 61 1f bb db 14 84 3d 49 72 f6 bc 34 7a 15 bc
       -0.00243193 0.0644929 -0.030083792 -0.009123374
0000c0 66 2b 4b bc 03 55 06 3e 72 e2 a9 3b ef d8 cb 3d
       -0.012400484 0.13118367 0.005184465 0.09953486
0000d0 2d 46 eb 3b 55 03 51 bb 62 ca d1 3c 2e 26 bf bc
       0.0071799965 -0.0031892855 0.025609199 -0.023333635
0000e0 34 40 65 3a 67 3c a0 b9 14 4e 0e 3e f1 ea 22 ba
       0.0008745224 -0.0003056258 0.13896972 -0.00062148186
0000f0 3e aa be 39 d1 22 3d 3e 26 1e 97 bd 76 b4 a4 3d
       0.00036366464 0.18470313 -0.07378797 0.08042233
000100 f1 74 39 bd ac 2b 15 36 99 ba db 3d 40 2c 3d bd
       -0.04527754 2.222815e-06 0.1072895 -0.04618478
000110 10 0a bc 3d 27 cb f4 bd 9a ae 63 bb 88 d8 91 3d
       0.09181607 -0.11952811 -0.0034741522 0.07121378
000120 8e 8b 62 b9 48 78 98 b8 e6 52 3a 3e b8 d3 d2 bd
       -0.00021605028 -7.270329e-05 0.18195686 -0.102942884
000130 db 89 d0 39 1d c0 30 bc b6 c0 17 3d 3c a9 56 3d
       0.00039775562 -0.010787991 0.037049018 0.05240749
000140 dc ff 02 be f8 fa e9 3d 7e 8a cc 3d f6 4b 0b 3d
       -0.12792915 0.114248216 0.09987353 0.03400799
000150 37 68 ec 3d 4b 24 1a 3e b8 31 5f bd 5d 1a a6 bb
       0.11543315 0.15052907 -0.054490775 -0.0050690607
000160 c8 e2 67 39 d5 eb 42 3a 85 56 e0 bd ec 80 cb bd
       0.0002211436 0.00074356544 -0.10954002 -0.09936699
000170 48 2f ba b9 31 e7 26 bd dc 54 22 bd 16 5b ab bd
       -0.00035511912 -0.040747825 -0.03963171 -0.08366983
000180 7a 14 da 3d a9 dc 5c bc a7 98 c2 bc 05 b9 a7 b9
       0.10648437 -0.013480344 -0.023754431 -0.00031990572
000190 0a 94 41 be db 8f 1e 37 2d 38 ad bc 60 9b 8f b9
       -0.18904129 9.451028e-06 -0.02114495 -0.0002739085
0001a0 33 8e 0e be 17 d2 da 3d e8 30 20 3e 18 c9 80 3d
       -0.13921432 0.10684603 0.15643656 0.062883556
0001b0 14 83 d9 3d 50 c9 54 bb 74 10 a5 b4 26 60 bc 3d
       0.10620704 -0.0032468624 -3.0745616e-07 0.09198026
0001c0 86 39 a4 37 9a ae 06 be ee 12 df b9 cb da 4f 3a
       1.957711e-05 -0.13152543 -0.00042547978 0.0007929026
0001d0 d4 5d 63 3d 8c e8 d9 3d 68 2f f6 b5 b4 f6 aa bd
       0.055509403 0.10640058 -1.8342225e-06 -0.08347836
0001e0 f4 87 05 bc ba 6a 7c bb cb a2 77 3d 3e d0 11 3e
       -0.0081500895 -0.0038515762 0.060457986 0.14239594
0001f0 c5 d1 0a ba d5 ee 2b 3e 85 63 0c bc 54 fe 97 3d
       -0.00052955403 0.16790326 -0.008568649 0.07421556
