aimnet/pretrained/aimnet/aimnet_smd_cv3.pt (torch_old, 133555 bytes, 5 tensors)

energy.0.weight f4 [128, 128]
00000000: bc19 dc3c e3c9 253b ea4b b7bd eec0 b5bd
00000010: 9f55 91bd 8368 07bc 2ded 083d a548 523d
00000020: 3350 643d 0b29 7bbc 8a5c d13c 1c57 eb3d
00000030: 61ce 07bd c1a0 753d aed3 103d 71fc c63c
00000040: d330 2f3d 0f85 683d dc50 b83d 60f3 e8bb
00000050: 4cba a03d 4877 5d3e 8bf0 b0bd b945 56bd
00000060: 33df 6abd 75c2 43bd 2904 18bc c757 afbc
00000070: 85f8 1d3d b8a5 f53d 9c0e 9abd 1b90 843c
00000080: 818a 98bd f2a1 4e3d e217 b83d 691e a4bc
00000090: beb3 11bb 52fd 0f3e c817 2e3d 73c9 75bc
000000a0: 7bfb 78bd 0b23 65bc 54b3 5cbd 2636 e3bc
000000b0: 73ab 6cbb 1809 823d 4a97 6e3d 40ee ffbc
000000c0: 7456 863d b967 c5bd 17fb 1cbe 5de9 2b3d
000000d0: a8ac 92bc e7ec 7cbc 22fc bb3d f651 223d
000000e0: ce5c 163c 18d5 b0bd a687 d03c 43c8 babc
000000f0: e004 45bd b84f a73d 1fd9 93ba 4a48 d9bd
00000100: 5fd4 1fbd 0f6b cc3c 8e8a 043e ced4 0fbd
00000110: ac04 15bd a74f 0ebd f47b 2fbd 9b13 21be
00000120: 2e95 1cbd 0afc d4b9 59eb 62bc f9b4 16bc
00000130: c609 0b3e 4c91 88bc d281 26bc 7341 bcbd
00000140: 637e 90bd daca 73bc fa50 b8bb 3cee 543c
00000150: 0328 6f3d 8c23 30bd cec1 efbd 3b41 2fbd
00000160: ebc7 24bc e6cd 763d 5059 a33d ea6e a7bc
00000170: 12d9 a33c 4cec 04bd 5bb1 14bd 025d 203b
00000180: 86bc 4abd 5422 713c 0946 f93b 1f1d 033e
00000190: faf5 c8bd 8c6f 503c 582f d93d 1fae c63d
000001a0: 0518 2e3d d95e dc3c ea54 873d 3163 c33a
000001b0: 5e8c b3bd 8fb7 043e 7d49 d93d 65d5 3c3d
000001c0: 4013 4a3d d4cf ef3d 92fa 2dbd fe73 ba3d
000001d0: 91ff a23d 8acb f63d 52d3 e6bd 0d4d 87bc
000001e0: 649f 16bc e43e 9f3d 3f04 d1bd fbbd 7b3c
000001f0: 06f3 5cbd 8db6 d3ba 6f6c 5c3e 17eb 3a3c
00000200: 6385 9abd cb9c 2ebd 6aa2 2bbd 8d2a 37bd
00000210: 2573 babd 41de 803c b38b 933d 12ad 9a3c
00000220: a16d 47bc e3e3 f2bc fc8d 1cbd f144 e13c
00000230: 1730 293d 849d 883d aed7 e7bd 3e3a b5bd
00000240: f989 c23d c96f 983d 3a1b bc3d 31d7 323d
00000250: 0613 d4bb 5573 ab3d e306 20bc 1182 adbb
00000260: 8a98 99bd ff99 dcbc b13a 1c3d 7f2f 5ebd
00000270: d027 8abd c13f 513c 3615 9ebd 3c31 b5bc
00000280: 2baa 0f3d e8e6 db3d c90e 1d3d ea8d d7bd
00000290: 1cda db3d 2a75 de3c dd71 933d 2e6d 113d
000002a0: 81e5 943d 75cb 58bd 4497 88bd d016 a6bd
000002b0: 968b bf3d 548f 553d a121 16bd 069c 80bd
000002c0: f024 293e a61a f9bd a29c a1bd 31ac 53bd
000002d0: 9c8b 013e 0ecb a7bc c1f1 563d 52e9 9cbd
000002e0: bfc4 08bd ff66 01be 2400 923d a1fe 39bd
000002f0: 19a9 6e3d cae1 043e 5d33 9ebd c846 35bc
00000300: e02c 483d 1f35 203d 25be 913d 1015 54bc
00000310: d838 d43d bfb1 94bd a7c5 95bd 62ca 6abd
00000320: da2c aebd aa62 e63c 3929 263b ddfe e4bd
00000330: 10ee 0b3e 1ccd 0cbc 7ace e93c 656c b1bd
00000340: 76ac 2dbd bc74 6dbd aa7d 5f3d 3c48 9e3c
00000350: f556 8a3c 6bc5 3d3d 71ff 81bd 6cda 3b3c
00000360: 4537 1cbd bdd3 473d cf3b 223d 4b04 263d
00000370: 0dc1 6f3e d01a c9bd 3eb8 c83d 7b0e b5bd
00000380: 906b 183d de65 9f3d 8a90 37bd 6e52 203d
00000390: fd94 4fbd bb2a e13c cf17 11bd 4981 1d3b
000003a0: 1048 31bd 55aa 31bd bac0 133d 25c7 293e
000003b0: 43f7 32be c9d8 883d 39b7 90bd cdd4 26bc
000003c0: d701 0d3d 42c2 303c b77c ba3c 7292 c33d
000003d0: 238d 8bbd de10 4e3d 2da4 50bc e116 2bbd
000003e0: 84ef aa3c 70dd d5bc 7fbd c73b 300a 35bd
000003f0: 2bfb 273b 150d 07be c90e d13d 5e88 c43d
0.02686774 0.0025297336 -0.08950026 -0.08874689 -0.07096409 -0.008264664 0.033429313 0.05133881
0.055740546 -0.01532961 0.025556821 0.11491224 -0.033155803 0.05996776 0.035358123 0.024290295
0.04277117 0.05676752 0.08999798 -0.0071090907 0.07848033 0.21627533 -0.0863963 -0.052312586
-0.057341766 -0.04779287 -0.009278336 -0.02140416 0.038567085 0.11994499 -0.07522318 0.016181996
-0.074482925 0.05044741 0.0898893 -0.020034032 -0.0022232379 0.14061478 0.04250315 -0.0150016425
-0.060786705 -0.013985406 -0.053881958 -0.02773578 -0.0036112934 0.06349391 0.05824975 -0.031241536
0.065594584 -0.09638924 -0.15330158 0.0419706 -0.017904595 -0.015437341 0.0917895 0.039628945
0.0091774 -0.086343944 0.025455307 -0.02280057 -0.048100352 0.08169502 -0.0011279917 -0.10609491
-0.039020892 0.024953393 0.1294348 -0.035115056 -0.03638141 -0.03474393 -0.04284282 -0.15730135
-0.038228206 -0.00040623575 -0.013850057 -0.009198421 0.13577947 -0.016670845 -0.0101627875 -0.09192171
-0.07055356 -0.014879907 -0.0056248875 0.012996253 0.058387768 -0.04300265 -0.11706887 -0.042786818
-0.01005743 0.060254954 0.079760194 -0.02043863 0.020000968 -0.032451913 -0.03630195 0.00244695
-0.049496196 0.014717657 0.007607226 0.12804078 -0.09812541 0.012721907 0.10604733 0.0970118
0.042503376 0.026900696 0.06607993 0.0014906881 -0.08767007 0.12960647 0.1060972 0.046101946
0.049334764 0.11709562 -0.04247529 0.09104155 0.07958902 0.12050541 -0.11270775 -0.016516233
-0.009193275 0.07775667 -0.10205888 0.015365119 -0.053942703 -0.0016152427 0.21525739 0.011408589
-0.07544973 -0.04263 -0.041902937 -0.044718314 -0.09103993 0.015730979 0.0720438 0.018881354
-0.012172134 -0.02964968 -0.038221344 0.027498694 0.041305628 0.06670669 -0.113204345 -0.088489994
0.094989724 0.07443196 0.091848806 0.043662254 -0.0064719943 0.08371607 -0.009767267 -0.005295046
-0.07499798 -0.0269289 0.03814191 -0.054244515 -0.06745875 0.012771548 -0.077188894 -0.022118203
0.035074394 0.10737401 0.03834418 -0.10525115 0.107349604 0.027155478 0.07199452 0.035504512
0.07270337 -0.052928407 -0.06669477 -0.0810982 0.09352796 0.05213864 -0.036653165 -0.06279759
0.16517997 -0.12163286 -0.078912035 -0.051677886 0.12650913 -0.020482566 0.05247665 -0.0766169
-0.033390757 -0.12636946 0.07128933 -0.04540885 0.058266733 0.12976757 -0.077246405 -0.011064239
0.04887092 0.03911316 0.07116345 -0.012944475 0.103624046 -0.07260465 -0.0731309 -0.057321914
-0.085046485 0.028123219 0.002535416 -0.11181424 0.13665032 -0.008593824 0.028540839 -0.08663253
-0.0424008 -0.057972655 0.054563202 0.019321553 0.016887167 0.04633085 -0.0634755 0.01146565
-0.038138647 0.048785914 0.03960782 0.040531438 0.23413487 -0.09819567 0.098007664 -0.088406526
0.037211955 0.077831015 -0.044815578 0.03914111 -0.050679196 0.027486196 -0.035423096 0.0024033359
-0.043281615 -0.043375332 0.03607247 0.16579874 -0.17477135 0.066819735 -0.07066197 -0.010182572
0.034425583 0.010788502 0.022764547 0.095494166 -0.06814029 0.050309055 -0.012734455 -0.041769866
0.020866163 -0.026106566 0.0060955877 -0.04419917 0.0025631886 -0.13188584 0.10207898 0.095963225

energy.0.bias f4 [128]
00000000: 2c40 a7bc 9403 8a3d 566a 8b3c bc89 a53c
00000010: e815 fa3a c88e cd3b c705 1f3d 14cb a13d
00000020: 5110 37bd 0708 dabc 57f4 263d b679 983c
00000030: ad5f 13bd abac 8e3d 6cba e53c 4d62 623d
00000040: 6018 78bd 93dd 9b3d 562f b53c 0fd4 723d
00000050: 0f4d 71bd c2a3 8a3d f8cf 943c f0a6 3bbd
00000060: 2e35 ed3c dfaf 05bd f019 58bc 390c 7fbd
00000070: 4400 8c3c b6b2 65bd 6efb 023d 8ca4 b73d
00000080: 9308 ac3c 6e69 09bd d848 43bd f374 ce3c
00000090: da83 c53d 7822 4f3d 7fbb 193c 0f25 d03b
000000a0: 8c3a 693c 0228 523b 41c6 183c 016c 29bc
000000b0: 7b99 2f3d 5886 f3bb 3afd 00ba 2cd2 c2bc
000000c0: 94f0 1ebd 8c85 843d 5ce0 8e3c 655b 22bc
000000d0: 3ffb 6b3c 234e c83b 0736 40bd 92d3 13bc
000000e0: 1740 6c3d dbe7 98bc 5a8f 673a cedd 8dbc
000000f0: ebbf d23d a93b 30bc f53c ef3c cafa 9fbc
00000100: 7900 b7bc 97c1 98bd 0185 8dbd 931b be3c
00000110: cd57 72bd 1c00 ed3c 3b6e e7bc eec5 91bd
00000120: 9a26 a6bd ca0e 34bb ac56 6e3d 56cb 043d
00000130: dff6 9e3c ec43 31bd 7bdd b43c 7830 acbd
00000140: 2aeb 9f3d d4a3 aebd 94cb 91bc 7c93 a6bd
00000150: eff9 b43d d499 713d 92ef 943c 3f1d 83bd
00000160: c910 7d3d 2695 9c3c 0c26 46bd 9c21 29bd
00000170: fb9d 3dbd 6717 8cbb dc0b 113b 9db7 603d
00000180: e552 5b3d 5ad4 97bd 0a4f 4c3c 0ecd ff3c
00000190: 2ea2 9c3d ed6f 4ebd b2cf adbb 92ac 8d3c
000001a0: dd24 27bd 9ff8 90bd fa00 bb3b 0408 a6bc
000001b0: 0fba 203d 1879 f3bb 4ad9 2fbc 5f17 84bd
000001c0: 6992 f4bc a508 c03c f5f2 0dbd e1c6 a3bd
000001d0: 10a5 273d a513 1b3d 0d7f 653c e7a8 a93b
000001e0: f28d 8fbd e4fe c23c 57d2 9fbd d389 523d
000001f0: 1545 c9bd 0bba df3c 2e5e 443d 773c 8bbd
-0.020416342 0.06738964 0.017018478 0.020207278 0.0019080015 0.0062731244 0.03882387 0.07900062
-0.044693295 -0.026615156 0.040760364 0.018612724 -0.035979915 0.069665276 0.028042994 0.05526953
-0.06057012 0.07610621 0.022117298 0.059284266 -0.05891138 0.067695156 0.018165573 -0.0458135
0.028956022 -0.032638427 -0.013189778 -0.062267516 0.01708997 -0.056078635 0.031978063 0.08966932
0.021000182 -0.03354781 -0.04767689 0.02520225 0.09644289 0.05056998 0.009383081 0.006352074
0.01423515 0.0032067304 0.009324611 -0.010340692 0.04287098 -0.0074317865 -0.0004920546 -0.023781858
-0.038803652 0.064707845 0.017440967 -0.0099094855 0.014403163 0.0061128302 -0.046926524 -0.00902261
0.05767831 -0.018665245 0.0008833312 -0.017317679 0.10290512 -0.010756412 0.029203871 -0.019528765
-0.022339093 -0.07458799 -0.06910134 0.023206508 -0.059165765 0.028930716 -0.028250804 -0.0711783
-0.081128314 -0.0027474635 0.058188125 0.03242048 0.019404827 -0.043277666 0.022078266 -0.08407682
0.07808526 -0.085273415 -0.017797269 -0.08133599 0.088367335 0.058984593 0.018180642 -0.064020626
0.061783586 0.019114088 -0.048376128 -0.041291818 -0.04629324 -0.0042752507 0.0022132313 0.054862607
0.05354585 -0.0741355 0.012470016 0.031225707 0.07648121 -0.05039971 -0.0053043 0.017294202
-0.04080664 -0.07078671 0.0057069035 -0.020267494 0.03923994 -0.007430207 -0.010732958 -0.0644977
-0.02985497 0.023441622 -0.03465553 -0.079969175 0.0409289 0.03786053 0.014007342 0.0051776054
-0.07009496 0.023803182 -0.07803791 0.05140097 -0.098276295 0.027310392 0.04794138 -0.06798642

energy.2.weight f4 [128, 128]
00000000: 7201 b73d 11a5 6c3e 6df6 13be a983 a43b
00000010: 2883 26bd 6ff6 943c 3434 6b3e 3121 8bbc
00000020: 8d51 513e 53fc 7dbd a34b 8dbb a4a0 1fbe
00000030: e9d8 03bd 8ee7 683c 44e0 99bb 13c6 cebd
00000040: 08b8 b0bd 72cc 89bd ef32 843d da03 1c3d
00000050: 33f6 0bbd 23ed 1b3d 328f 0cbd bdd6 393d
00000060: f710 3d3c 717b 4bbc 1773 c63c fb8d c13d
00000070: 565f e53d e8bf 983c 7514 3d3c 6b41 1cbb
00000080: 5926 aabd 1c77 943d 1abb e2bc ee5f 39bc
00000090: a894 0fbd e085 953d 69da d9bc b05c 77bc
000000a0: 3ab7 b7bc 8e96 133d bbc6 993d 75db 1f3d
000000b0: 5eec 7b3d ff53 093c e41c 113d 5840 913d
000000c0: c5b6 ea3d 964c 82bd dd50 e4bb 39d8 cebc
000000d0: 06d2 dbbd eb68 2b3d e67e 7abd adfb 1dbd
000000e0: 3b4a 76bd 92b9 edbd 24d1 59bd 407b 9b3d
000000f0: c4c5 cbbd f7ff fc3d 68a4 1cbd 7740 e73c
00000100: 9f9d 413e cfce adbc ac06 763d 2844 843d
00000110: ea57 133c e9c4 40bd 3e2f fe3c 44d7 9cbd
00000120: 143e 553d c466 b73d 638e e6bd 9dc7 353e
00000130: aa06 63bd ef98 7cbd 5d59 1f3d 03bf 203d
00000140: 97dd 07bd 9b1a 633d dfda d53d b659 28bd
00000150: a062 d23c 74d7 9bbd 1c89 0b3d 1eb0 c4bd
00000160: 80cc 59bc 873c 583b 6ebc 2b3c b7ea a93d
00000170: 42c4 9abd 06f1 fdbc 088b 663d c91d aa3d
00000180: e573 dc3d 6f3b 09bd a0d2 39bd 5010 123e
00000190: e32a 8dbd 5efa a8bc de98 31bd 8311 143e
000001a0: 17cb e7ba 5983 083e e63e af3d dfdd 323d
000001b0: 11a5 fbbd 830e cdbd 94aa bebd b611 4e3d
000001c0: 33f8 a8bc e586 1ebc b949 b63d ad19 2e3b
000001d0: 0ba3 fabd f16e 6a3d 83e6 6a3d 35b9 89bd
000001e0: 7644 5d3d e23e a4bc ac18 d3bc 13b0 b8bd
000001f0: 3d5d 23bd dbc9 76bd 9377 c33d 3768 013c
00000200: 08dd 0cb8 9410 6037 035c d0b7 6cef aab8
00000210: 72bf 50b6 9dfa 8537 83e6 86b7 2060 e037
00000220: 14d5 e637 73d4 8a37 6379 f43a ba17 df35
00000230: 0583 f735 52d0 8338 d41d 8137 f3ca db36
00000240: cbb8 deb8 7df2 c0b6 2177 a735 24fa 56b7
00000250: 7055 443a 5d16 a339 6220 083a 6dde 1cb8
00000260: d8b8 84bb a28e 0338 634d 3438 bb7a 4eba
00000270: 8556 06b9 c9ce 6f39 4735 1f36 b29f 6637
00000280: 58eb 96b8 01d7 8c39 0485 0d38 1998 933a
00000290: 1f2d 3cb8 d71d 3cb8 b2c9 0439 8cac 82b9
000002a0: e435 5536 7ccb 6039 2733 933b 2fd2 9a38
000002b0: b457 dd35 72e2 7eb8 dfaf dd36 ea79 0837
000002c0: d79f de36 a61a 93b8 daec 93ba 3428 adb8
000002d0: d038 8035 79fc 4838 f9c7 2537 11be c639
000002e0: e7ec 5b37 3711 7337 f51c d138 9af3 33bb
000002f0: 8f17 8436 665c 4138 1401 2038 bfac 0ab9
00000300: d84e 1a38 1ee9 7f38 2791 f437 e510 0fb8
00000310: 263b 1136 dbab 6139 9848 1f38 40a9 c4b8
00000320: 3229 bbb8 f99d 7c3a d2bd d337 98ce 57b8
00000330: 903d 7cb7 aeaa 5737 c5ca c636 1eb7 8fbb
00000340: fa02 62b8 6e23 49b8 5b15 62b8 0955 deb8
00000350: 9ca7 26b8 94de 38b9 d521 ddb6 7813 eeb8
00000360: e0a4 c9ba 9aa3 4a38 fa88 b038 906a 76b6
00000370: b654 2238 1c7a 94b8 62fb 0039 aa4c c4b6
00000380: 94f4 da37 541c f938 406a 57b7 d10b 8a35
00000390: 7c51 b638 6f7f f839 a807 83bb 075f 1038
000003a0: bb84 d237 838e 3538 d70c 9bbb 0888 d7b8
000003b0: 69dc 1a37 4837 c13a be3e 5a37 efd5 7138
000003c0: 1cef 6cb7 9091 5338 720e c537 6eba 53b8
000003d0: 8a39 69b8 7aac edb8 10bc cdb6 090b 50b7
000003e0: 6f57 49b7 a44f 9436 d29b b439 ce0c 77b7
000003f0: 0b4a 4db7 c1e8 eab9 8ca8 ddb7 503c 2337
0.089358225 0.23109843 -0.14449473 0.005020578 -0.040652424 0.018183915 0.22969133 -0.0169836
0.20441265 -0.062008213 -0.004311995 -0.15588623 -0.032189284 0.014215363 -0.004695924 -0.100963734
-0.08628851 -0.06728448 0.06455027 0.03808961 -0.03417034 0.038067948 -0.03431625 0.045370806
0.011539689 -0.012419567 0.024224801 0.09450909 0.111998245 0.018646196 0.011540522 -0.0023842703
-0.083080955 0.07249281 -0.027677108 -0.011314375 -0.03505388 0.07300925 -0.026593404 -0.015097782
-0.022426236 0.036032252 0.07508608 0.03902765 0.061504714 0.008381843 0.035427943 0.07092351
0.11460642 -0.06362264 -0.0069676475 -0.025249587 -0.10733418 0.041848104 -0.061156176 -0.038570095
-0.060129385 -0.1160766 -0.053177968 0.075918674 -0.0994983 0.12353509 -0.038242728 0.028228981
0.18907784 -0.021216778 0.060064957 0.06458312 0.008993128 -0.04706279 0.031028386 -0.07658246
0.052061155 0.08955148 -0.11257627 0.17751928 -0.055426277 -0.061669286 0.038903583 0.039244663
-0.03317031 0.055445295 0.10442137 -0.04110118 0.025681794 -0.07609454 0.034066305 -0.09603904
-0.0132933855 0.0032995061 0.010481937 0.082967214 -0.075569645 -0.030998718 0.056284934 0.08306462
0.10764293 -0.033503946 -0.045366883 0.14264035 -0.068929456 -0.020627197 -0.043358676 0.14459805
-0.0017684427 0.13331355 0.08556919 0.043668624 -0.12287343 -0.100125335 -0.09309879 0.05030986
-0.020626163 -0.009675716 0.0890078 0.0026565597 -0.12238129 0.05723471 0.05734874 -0.067247786
0.054020368 -0.020049516 -0.0257686 -0.090179585 -0.03988384 -0.060251098 0.09544291 0.007898382
-3.3584452e-05 1.33553e-05 -2.4838379e-05 -8.1508275e-05 -3.110585e-06 1.5971536e-05 -1.6081385e-05 2.6747643e-05
2.7517359e-05 1.6549811e-05 0.0018651899 1.66217e-06 1.8441066e-06 6.2853695e-05 1.5391888e-05 6.550335e-06
-0.00010620205 -5.7502752e-06 1.2477141e-06 -1.2813634e-05 0.0007489538 0.00031106445 0.00051928137 -3.740045e-05
-0.0040503554 3.136567e-05 4.2987416e-05 -0.00078765646 -0.00012811467 0.0002286985 2.3723858e-06 1.374625e-05
-7.1963936e-05 0.0002686307 3.37409e-05 0.0011260539 -4.4864715e-05 -4.4850483e-05 0.00012663638 -0.0002492409
3.1770842e-06 0.00021438109 0.004492182 7.382442e-05 1.6491308e-06 -6.0769213e-05 6.6067873e-06 8.134617e-06
6.6347234e-06 -7.01447e-05 -0.0011285797 -8.256771e-05 9.553278e-07 4.791885e-05 9.881326e-06 0.00037907113
1.3108575e-05 1.4487937e-05 9.97129e-05 -0.002745843 3.936649e-06 4.610084e-05 3.8147977e-05 -0.00013225059
3.678989e-05 6.1013845e-05 2.9154658e-05 -3.410959e-05 2.1641113e-06 0.00021521693 3.7976162e-05 -9.3775336e-05
-8.924528e-05 0.0009636577 2.5241552e-05 -5.14524e-05 -1.5034704e-05 1.2854738e-05 5.9244653e-06 -0.004385843
-5.388537e-05 -4.795513e-05 -5.3902488e-05 -0.00010601624 -3.9733583e-05 -0.00017630524 -6.590252e-06 -0.00011352351
-0.001538422 4.831292e-05 8.417848e-05 -3.6718884e-06 3.8702703e-05 -7.0799346e-05 0.00012300679 -5.85018e-06
2.6101516e-05 0.00011878522 -1.2839737e-05 1.028524e-06 8.693614e-05 0.00047397192 -0.0039987154 3.4420777e-05
2.5095758e-05 4.3286487e-05 -0.0047317552 -0.00010277337 9.2304335e-06 0.0014741207 1.3008421e-05 5.765812e-05
-1.4122368e-05 5.0441886e-05 2.3490957e-05 -5.0479946e-05 -5.5605116e-05 -0.00011333167 -6.1313694e-06 -1.2400335e-05
-1.2000891e-05 4.420015e-06 0.0003444837 -1.4725329e-05 -1.2236192e-05 -0.00044805373 -2.6423739e-05 9.7296e-06

energy.2.bias f4 [128]
00000000: bae5 9d3c d10f 413a ed78 923d b303 69bd
00000010: db23 893c 86f1 e6ba 6460 61bc a283 403c
00000020: e9c0 48bc 6ab8 9e3b 7f95 67bd 26fd 26bb
00000030: cfe5 1ebd 456e 08ba 39be b0bc 7b2e 223d
00000040: c1e3 49ba b0cc 46bd 42d6 0bbb 5c68 3f3d
00000050: 0393 d9bc a068 49bd 12b4 d239 a2f6 4dbc
00000060: 4295 c4ba f0de 9238 9d11 303c 6ebb 393b
00000070: 25ea 913d 01d1 f4bc 1fe3 0cbd 585a ae3c
00000080: 6965 b0bc c35f e63c 85ef 45bd f281 08bd
00000090: 4f15 19bd df98 c7bb 625d 1bba 030f 41bd
000000a0: fbfd fcbc 352c a1bd 9749 3bbd 2b3d 27bd
000000b0: e4f2 25bb 62d4 8fbc a7e5 163b 634f 1e38
000000c0: a123 4fbd 8895 adbd f9a7 473b fa6b 8fbd
000000d0: 70bf 9e3c 488a 3f3c 060f b2b9 f289 b8bb
000000e0: 5f0a 4abd a150 123d 0bfe a13d 9a39 9bbc
000000f0: 262d 49bc 0be9 c23b 46b0 6fbd d41f b23d
00000100: f9b8 af3b 4431 833c 873d 933c 0b17 a53b
00000110: 3dfd 89bd 3f72 bebd 88a7 2bbd 8287 f5b9
00000120: cd88 3c3a a163 6cbd 894a 98bc 36c6 8b3d
00000130: 8ee7 9d3a 5e14 173d ac7b 64bd 51c0 b13a
00000140: 91ef a8bd ec0d dc38 bcd8 0e3c 9a10 ed3c
00000150: b775 983a 43e7 533c 5f5d 9fbd 63f2 9f3b
00000160: bb73 6a3d e06b 78bc 69aa c8bc 6231 9c3b
00000170: 54a5 a7bd 0b02 713d ed18 0ebd f91e 7e3c
00000180: fd78 863c 3c73 45bd 4028 003c 3f51 d8bb
00000190: 2ae2 24bd c623 923c 7545 743d 7465 0dbd
000001a0: ce1c abbc 68ef 323d 659a 65bd acdb 3d37
000001b0: 53c3 e0bc 2243 8d3c b249 be3b 89fc 843b
000001c0: b1f2 003d 1db4 873d ee88 60bd 54af 2d3d
000001d0: 277e 8bbb dd3e 9f3b fea7 e0bc f54d 6abc
000001e0: 1f43 e1bc 3cad 01bd 50d3 173a 7bcd 8a3d
000001f0: d53f a1bc dad1 fe3c fe21 113d 0e2b 863d
0.019274581 0.00073647226 0.07151971 -0.056888293 0.01674073 -0.0017619587 -0.0137558915 0.011750134
-0.012253025 0.004843761 -0.056539055 -0.0025480478 -0.03879338 -0.000520442 -0.02157508 0.03959511
-0.00077014795 -0.04853505 -0.0021337424 0.046730384 -0.026559358 -0.049172044 0.00040188484 -0.012571009
-0.0014998096 7.003348e-05 0.010746387 0.0028340477 0.07124738 -0.029884817 -0.034396287 0.021283314
-0.021532731 0.028121835 -0.048324127 -0.03332705 -0.037373837 -0.0060912217 -0.0005926696 -0.047133457
-0.030882826 -0.0786976 -0.045724478 -0.04082982 -0.0025321776 -0.017557327 0.0023025067 3.774407e-05
-0.050571088 -0.084757864 0.003046511 -0.07003017 0.019378394 0.011690684 -0.00033962 -0.0056316787
-0.049326297 0.035721425 0.07909783 -0.018948365 -0.012278831 0.005948191 -0.058517717 0.08697477
0.0053626266 0.016014703 0.017973674 0.0050381473 -0.067377545 -0.092991345 -0.041907817 -0.00046831003
0.0007192016 -0.0577122 -0.018590229 0.06824915 0.0012047158 0.036884658 -0.055782005 0.0013561343
-0.08248819 0.000104930106 0.008718666 0.02893858 0.0011631761 0.012933555 -0.07781481 0.0048811897
0.057239275 -0.015162438 -0.02449532 0.004766629 -0.08185831 0.05883984 -0.03469174 0.015510314
0.016415114 -0.0482056 0.007822096 -0.006601482 -0.04025475 0.017839324 0.059636552 -0.03452058
-0.020887759 0.043685347 -0.056055445 1.1316424e-05 -0.027436888 0.017243925 0.005807125 0.004058425
0.03148145 0.06626151 -0.054818086 0.042403534 -0.004256982 0.004859789 -0.027423855 -0.014300813
-0.027497826 -0.03165935 0.0005791681 0.067774735 -0.019683758 0.031105924 0.035432808 0.06551181

energy.4.weight f4 [1, 128]
00000000: 20b1 d33d bc47 a338 fd65 fa3c 4696 4dbd
00000010: 0c4e 013e 4468 2838 8b25 c23d 72fc 84bc
00000020: 158d 403d 7000 12bb 4e13 243e afd4 4db7
00000030: 2315 cd3b d070 eab8 0188 983d 0346 cabb
00000040: 029d 07be e8f3 7f3d fc9f 82bd 374f ee3b
00000050: 830e 9e3d 302f eb3d 08f7 9338 ac4c 32bb
00000060: cf6e 8437 0f3f 4737 115b e9bd f726 063e
00000070: be8e b33d 4be4 b63d 7043 da3b 1531 9cbd
00000080: fb07 c73d 988b 9d3d b5f9 65bd 8366 ebbc
00000090: f74c a13d 23cb 10bb ef3a 5939 5378 023d
000000a0: 767d c0bd afc1 cebd 1be4 79bc 8bcc ffbc
000000b0: 94fe 09bd 8639 4aba a6b0 d1b9 cb5d 2935
000000c0: 4ddb 1c3e 8508 11bd c293 733b 295d 02be
000000d0: 5dd7 893c 0118 26ba 5cd5 a4bb c2be 623a
000000e0: 58c0 4f3e f8ed 6a3a edc1 a33d 9f33 fa3d
000000f0: 86ed 0d39 5216 003d 6408 0f3e ce54 8e3d
00000100: 68ba 8bbc 42c7 c3ba c409 123d dd41 ae39
00000110: ef18 773d a487 15be e5c3 fb3d 5747 18b8
00000120: c76c d5b9 16ab 9ebb fb8c bcbd fa5a 393d
00000130: bbe2 9b3c b16b 48bb 4212 aebd 81e7 bcbc
00000140: 827b 18bc 4f09 7836 b677 843d 88c4 20bc
00000150: 7b12 1b39 6ce1 40bc 448a c4bd 22f4 25bb
00000160: 8a16 5ebc cc74 89b9 8b06 be3d 0aa7 1b3c
00000170: 33f1 b3bd cd2f 333d ddbf 2e3d cb4d a0bd
00000180: 2f0b ae3d 196b 99bd 2eb1 303e 81d7 1cba
00000190: 4023 9fbd cd29 afbb 2aef 93bd 369c 493e
000001a0: b4bf b2ba ab65 813b f2e8 3dbd 78ba 6e39
000001b0: 5c48 f9bd 501c e0bc d7c6 9c39 ff82 a13d
000001c0: 0330 38bb b881 373d f4f0 16bd f1c8 4a3b
000001d0: b3ae 4f3e 5466 b6b9 39c4 bebc d0b2 01bd
000001e0: ff5b 733c 36c0 2b3c 567f 153d 4aa2 e43d
000001f0: 3a01 a83c b521 55bd 9052 753d 4158 8d3d
0.10336518 7.785807e-05 0.03056621 -0.05019214 0.12627429 4.0151426e-05 0.09479817 -0.016233657
0.047009546 -0.0022278093 0.16022989 -1.2268471e-05 0.006258623 -0.000111790025 0.07447816 -0.006172897
-0.13243487 0.062488467 -0.06378171 0.0072726267 0.07717612 0.1148361 7.0555194e-05 -0.0027206345
1.5787225e-05 1.1876006e-05 -0.11394323 0.13100801 0.0876746 0.08930262 0.006660871 -0.07626549
0.09718319 0.07692641 -0.056146342 -0.028735405 0.07876008 -0.0022093735 0.00020716687 0.03185303
-0.0939893 -0.10095536 -0.0152521385 -0.031225463 -0.03369005 -0.000771426 -0.000399952 6.309389e-07
0.15318032 -0.035408515 0.0037166928 -0.1273085 0.016826326 -0.00063359743 -0.005030317 0.0008649641
0.20288217 0.00089618517 0.07995973 0.12216877 0.00013535292 0.031271286 0.13968045 0.06949769
-0.017056659 -0.0014936703 0.035653844 0.00033236938 0.060326513 -0.14602524 0.12293223 -3.6306064e-05
-0.0004070757 -0.0048421724 -0.092065774 0.045252778 0.019029012 -0.0030581767 -0.08499576 -0.023059608
-0.00930679 3.6960298e-06 0.064681455 -0.009812482 0.00014788836 -0.011772495 -0.095966846 -0.0025322516
-0.013555178 -0.00026217697 0.09278592 0.009500274 -0.087862395 0.04374676 0.042663444 -0.07827338
0.08498227 -0.074911304 0.17255089 -0.00059830403 -0.07770395 -0.005345559 -0.07223351 0.19688496
-0.0013637454 0.0039488873 -0.046364732 0.00022766914 -0.121720046 -0.02735725 0.00029902786 0.07886314
-0.002810479 0.044801444 -0.036850885 0.0030942524 0.20281486 -0.00034789986 -0.023286926 -0.03166467
0.014853477 0.010482838 0.03649839 0.11163767 0.020508397 -0.0520341 0.05989319 0.06901599
