aimnet/pretrained/aimnet/aimnet_smd_cv2.pt (torch_old, 133555 bytes, 5 tensors)

energy.0.weight f4 [128, 128]
0	0xbbd66ea0	-0.0065439492
1	0xbd2204c3	-0.039555322
2	0xbc8af648	-0.01696314
3	0x3d054409	0.032535587
4	0xbc523412	-0.012829797
5	0xbd188051	-0.037231747
6	0xbd0e69c2	-0.034768827
7	0x3c8dea0a	0.017323513
8	0xbb8a31a0	-0.0042173415
9	0x3da29e99	0.07940406
10	0xbb26c23d	-0.0025445365
11	0x3c437f1c	0.011932161
12	0x3d6b1165	0.057389636
13	0xbd2f6824	-0.042823926
14	0x3d1217b3	0.035667133
15	0x3c9cd7be	0.019145843
16	0xbc59f3ef	-0.013302787
17	0xbb6ece8d	-0.0036439032
18	0x3d5d508c	0.054031894
19	0xbc04b696	-0.0081001725
20	0x3abc7c68	0.0014380338
21	0xbd1971a1	-0.03746188
22	0xbd3cc45f	-0.04608571
23	0xbd9a29bf	-0.07527494
24	0xbace4804	-0.0015738015
25	0xbc2a0ec9	-0.010379502
26	0xbd22f709	-0.039786372
27	0xbb14488b	-0.0022626247
28	0xbd6a1a97	-0.057154264
29	0xbd21ed1d	-0.03953277
30	0x3cd1cb42	0.025609616
31	0x3bca6e89	0.0061777276
32	0x3d6518b1	0.05593175
33	0xbc0397a5	-0.00803176
34	0x3d65dbb8	0.056117743
35	0x3d6d550f	0.057942446
36	0x3d969b6b	0.073538624
37	0xbc6db889	-0.014509329
38	0xbd01d8e1	-0.031700972
39	0xbd718324	-0.058962956
40	0x3d7b0a4a	0.06128911
41	0xbcb32682	-0.021868948
42	0x3e0a5f86	0.13513002
43	0x3d002d37	0.03129312
44	0xbd769595	-0.060201246
45	0xbd35a640	-0.044348
46	0xbc79522e	-0.015217347
47	0xbda54ac9	-0.08070905
48	0xbb97522b	-0.0046179495
49	0x3c8a466c	0.016879283
50	0x3d151648	0.036398202
51	0xbc0e4a9b	-0.0086847795
52	0x3d392fb7	0.04521152
53	0x3d551562	0.052022345
54	0xbe09225d	-0.13392015
55	0x3c675203	0.014118674
56	0xbcba7b5b	-0.022763899
57	0xbd7f4365	-0.06232013
58	0x3ccda83b	0.025104633
59	0xbca1f81f	-0.019771634
60	0x3d3052cb	0.043047708
61	0xbd92e239	-0.07172055
62	0xbc8a5ccb	-0.01688995
63	0xbd9015ed	-0.07035432
64	0x3d2e2e2f	0.042524513
65	0x3c7e1d5e	0.015509931
66	0xbd4bdaf3	-0.049769353
67	0xbd10664f	-0.03525382
68	0xbd101bcc	-0.03518276
69	0x3c13fdcf	0.009032681
70	0xbca68a94	-0.020329751
71	0x3c5ed1cb	0.013599823
72	0xbd869daf	-0.065730445
73	0xbd3a1470	-0.045429647
74	0x3c61e45e	0.013787357
75	0x3d32d575	0.0436606
76	0xbb72f4b9	-0.0037072136
77	0x3dbf1fd2	0.09332241
78	0xbc96a9b0	-0.01839146
79	0x3d1e8837	0.038704123
80	0x3d915a35	0.07097284
81	0x3daa72b2	0.08322658
82	0x3c53844e	0.012909962
83	0xbd44c6c2	-0.048041113
84	0xbd538384	-0.051639095
85	0xbd113136	-0.03544732
86	0x3d9f7487	0.07785898
87	0xbbb5fc89	-0.005553786
88	0xbd3d74f5	-0.046254117
89	0x3ca6a007	0.020339979
90	0xbd8eb4ed	-0.069681026
91	0xbc8ca94b	-0.017170569
92	0xbcf8f173	-0.03038857
93	0x3ddc74fa	0.10764499
94	0x3c8051ec	0.015664063
95	0xbd96ebef	-0.073692195
96	0x38aa96cf	8.134322e-05
97	0xbd897d69	-0.06713373
98	0x3d544375	0.051822145
99	0x3daf61df	0.08563589
100	0x3d83a651	0.06428207
101	0xbcc20db7	-0.02368818
102	0xbdbe89f6	-0.09303658
103	0x3d000ac2	0.03126026
104	0xbd05e298	-0.0326868
105	0xbd34b985	-0.044122238
106	0xbbfe2e6d	-0.007756999
107	0xba784a56	-0.0009471526
108	0x3d8789db	0.06618091
109	0xbde4f595	-0.111796536
110	0x3d112a2d	0.035440613
111	0xbd7115af	-0.05885857
112	0xbd9ee8b7	-0.077592306
113	0x3d9b5ac5	0.07585672
114	0x3cd91852	0.026500855
115	0x3d955c26	0.072929665
116	0x3d9d1667	0.076702885
117	0x3d030706	0.03198912
118	0xbcb5e5de	-0.022204336
119	0xbd0c5c33	-0.034267616
120	0xbb3f1ff2	-0.0029163328
121	0x3d20613a	0.039155222
122	0x3cb4586f	0.022014825
123	0x3d91dd8b	0.07122334
124	0x3d82ad84	0.06380752
125	0xbd268737	-0.040656295
126	0xbd072191	-0.032990996
127	0xbd40c65b	-0.047064167
128	0xbcba7471	-0.022760602
129	0xb989314b	-0.00026167402
130	0xbbee3ba6	-0.0072702942
131	0x3c45cc6d	0.012072665
132	0x3d079cf0	0.03310865
133	0xbdd21de3	-0.10259607
134	0x3d95ccdf	0.07314467
135	0xbd9f82d8	-0.07788628
136	0xbd46c36e	-0.04852622
137	0x3cc9d22c	0.02463635
138	0x3dc5af29	0.0965255
139	0x3d0cb100	0.034348488
140	0xbdb912b7	-0.09036773
141	0x3c9b7755	0.0189778
142	0xbc9d45f8	-0.019198403
143	0xbd98d645	-0.07462744
144	0xbe024ed5	-0.12725385
145	0x3cd1ac3f	0.025594829
146	0x3db062b5	0.08612577
147	0x3d91fccf	0.071282975
148	0x3d721140	0.059098482
149	0x3c1c503f	0.009540617
150	0x3d0eb7be	0.0348432
151	0x3d8d8406	0.06909947
152	0x3d87073b	0.06593176
153	0x3d9e80bf	0.077394
154	0x3b596f14	0.003317778
155	0x3b75b63b	0.003749265
156	0x3be0adc5	0.0068566524
157	0xbd933b02	-0.07188989
158	0x3cbcefa6	0.023063492
159	0xbc1a4fa3	-0.009418401
160	0x3d55a9cc	0.052163884
161	0xbd120003	-0.035644542
162	0xbc17b57f	-0.009259581
163	0xbd35b0bc	-0.044358
164	0x3dcd93e3	0.10037973
165	0x3dba8b0b	0.091085516
166	0xbd1f8bd5	-0.038951714
167	0x3da05451	0.07828582
168	0xbd80f86b	-0.06297382
169	0xbd018e2c	-0.031629726
170	0x3d47a5fa	0.048742272
171	0xbd3671e2	-0.0445422
172	0x3d8def6e	0.06930433
173	0x3cc1ef83	0.023673778
174	0xbd2d8d09	-0.04237083
175	0x3ca9e4c1	0.020738961
176	0x3cf04863	0.029331392
177	0xbd040f64	-0.03224124
178	0x3dcbd413	0.09952559
179	0x3ca13022	0.019676272
180	0xbd36bcdb	-0.0446137
181	0x3d896d34	0.06710282
182	0xbce1dc15	-0.027570764
183	0xbdb89844	-0.09013417
184	0x3da40cab	0.08010229
185	0x3a1ec173	0.0006056048
186	0x3c1fee1d	0.0097613605
187	0x3d1599a4	0.036523476
188	0xbcda5769	-0.026653009
189	0x3bdb4042	0.0066910097
190	0x3c16fca3	0.009215507
191	0x3d7fdcc5	0.0624664
192	0x39069497	0.0001283459
193	0x3d9712a7	0.073766045
194	0xbd7e4a36	-0.06208249
195	0x3d3965e0	0.04526317
196	0x3db9e432	0.09076728
197	0xbd12704a	-0.03575162
198	0xbc909089	-0.017647045
199	0xbd9c5f4f	-0.07635366
200	0x3dba97e2	0.091110006
201	0xbb865766	-0.004099774
202	0x3d84c793	0.06483378
203	0xbcee17fc	-0.029064171
204	0x3d446a49	0.047952924
205	0xbc8cd2d2	-0.01719037
206	0x3d82e86f	0.063919894
207	0xbc883409	-0.016626375
208	0x3c94dbf0	0.01817128
209	0x3d6b5a03	0.05745889
210	0x3d9daa47	0.076984935
211	0x3c9261f9	0.017868983
212	0x3b6cf2a3	0.0036155365
213	0xbd130c56	-0.035900436
214	0xbcb58f0f	-0.022162942
215	0x3da32079	0.07965178
216	0xbd43cbe5	-0.04780187
217	0x3dce6fd7	0.100799255
218	0x3b009a42	0.0019623195
219	0x3ccda4fd	0.025103087
220	0xbcb5905c	-0.022163562
221	0x3c9259df	0.01786512
222	0xbc987aee	-0.018613305
223	0x3d243e0c	0.040098235
224	0x3d12b8d1	0.035820786
225	0xbd20e831	-0.039283935
226	0x3e0d3341	0.13789083
227	0xbc85c61a	-0.016329814
228	0xbd06907e	-0.032852642
229	0xbd9ef8ed	-0.077623226
230	0x3daffb64	0.08592871
231	0xbce43e37	-0.027861698
232	0xbe01d132	-0.12677458
233	0x3c2e16d7	0.010625563
234	0x3d55cd4a	0.052197732
235	0x3d51784a	0.051140107
236	0xbd13d696	-0.036093317
237	0xbd076424	-0.033054486
238	0xbde57ecc	-0.11205825
239	0x3d58fc33	0.05297489
240	0xbd0b0ca3	-0.0339476
241	0x3d90e4c5	0.07074884
242	0x3d7dbef0	0.06194967
243	0xbcbb9e8a	-0.022902746
244	0xbb6c392d	-0.0036044822
245	0xbd119695	-0.035543997
246	0xbd29537f	-0.041339394
247	0x3d7783e1	0.060428504
248	0xbb9c6ee6	-0.0047739623
249	0xbda04043	-0.07824757
250	0xbb9632fa	-0.0045837136
251	0x3c687bce	0.014189674
252	0x3d7f2475	0.062290628
253	0xbc78c52c	-0.015183728
254	0xbd779fb5	-0.060455043
255	0x3d3eebef	0.046611723

energy.0.bias f4 [128]
0	0x38a5c340	7.904181e-05
1	0x3c07d5b9	0.008290702
2	0xbd6b366b	-0.057424944
3	0xbda1d8e1	-0.079026945
4	0xbd92bbbf	-0.07164716
5	0xbc6f2f31	-0.014598654
6	0x3b3456c6	0.0027517541
7	0x3adc59e2	0.0016811455
8	0x3d42b86d	0.047539163
9	0x3c920323	0.017823761
10	0xbd8425d4	-0.06452528
11	0x3bbbcba6	0.005731064
12	0xbda71b48	-0.081595
13	0x3d412874	0.04715772
14	0xbd9b343d	-0.07578323
15	0x3d80d98c	0.06291494
16	0xbd581894	-0.052757815
17	0x3c8c0196	0.0170906
18	0x3a91a70d	0.0011112407
19	0xbd9437b0	-0.07237184
20	0xbd037194	-0.03209074
21	0xbd4a8c8f	-0.049450453
22	0xbc2f93a0	-0.010716349
23	0xbd1113c9	-0.03541926
24	0x3b975bee	0.004619113
25	0x3c572b31	0.013132856
26	0xbca20d19	-0.019781636
27	0x3d19c304	0.037539497
28	0x3d692e4f	0.05692893
29	0xbce66f1b	-0.028129151
30	0xbd1dd447	-0.03853252
31	0x3cd5310f	0.02602437
32	0x3d884ad7	0.066548996
33	0xbab325d9	-0.0013667896
34	0xbd13de2d	-0.036100555
35	0xbd3ebe79	-0.046568368
36	0xbd8ce30a	-0.06879242
37	0xbcfac94f	-0.03061357
38	0x3c589689	0.013219484
39	0x3bc34119	0.005958688
40	0xbd920d42	-0.07131435
41	0xbb13d51c	-0.0022557443
42	0xbc88b48c	-0.016687654
43	0xbd5f5ada	-0.054530002
44	0xbd5e97ad	-0.054343868
45	0xbb4609ba	-0.00302182
46	0xbc69d85a	-0.014272774
47	0xbd351541	-0.044209722
48	0x3d969c9a	0.07354088
49	0xbd2e3996	-0.042535387
50	0x3d2fa922	0.042885907
51	0x3d23b038	0.039962977
52	0xbb74c83b	-0.0037350792
53	0x3c82f1d3	0.015984451
54	0x3c56176f	0.01306711
55	0xbc506438	-0.0127192065
56	0x3c25c3cb	0.010117481
57	0x3d76d107	0.060257938
58	0x3d2d88bc	0.04236673
59	0xbd916699	-0.07099647
60	0x3d81fa2a	0.06346543
61	0x3d9033bd	0.07041118
62	0xbd9c637a	-0.07636161
63	0xbc1d6220	-0.009605914
64	0x3be37428	0.006941337
65	0x3c002a64	0.007822607
66	0xbcca2d76	-0.02467988
67	0x3d121c57	0.03567156
68	0xbd74315b	-0.05961738
69	0xbd4b99a5	-0.049707074
70	0xbc72b857	-0.014814458
71	0x3ce82e10	0.028342277
72	0x3cd9e98b	0.02660062
73	0xbc9b729a	-0.018975545
74	0x3b1fdedd	0.0024394311
75	0x3c0b8f9e	0.008518128
76	0x3d81a8c9	0.06331021
77	0x3c328a8e	0.010897292
78	0xbd927376	-0.07150929
79	0xbce7162c	-0.028208815
80	0xbd1355b3	-0.0359704
81	0xbd5c95bb	-0.05385373
82	0xbcc05767	-0.023479177
83	0x3ca65c4b	0.02030768
84	0xbd1a6769	-0.037696276
85	0xbd09fca2	-0.033688195
86	0x3d56be5c	0.052427635
87	0x3d715570	0.05891937
88	0xbd85be02	-0.06530382
89	0xbcb8b72c	-0.02254828
90	0xbdab5f13	-0.08367743
91	0xbda67d56	-0.08129375
92	0xbcbe6b73	-0.023244595
93	0x3b9f825b	0.0048678345
94	0xbcbc395a	-0.022976566
95	0x3c4d6b32	0.012537764
96	0x3d213b5d	0.039363254
97	0x3d3f4c0a	0.046703376
98	0xbc2f84b0	-0.0107127875
99	0xbd199cd4	-0.03750308
100	0xbc436e19	-0.011928105
101	0xbd9fb73d	-0.07798622
102	0xbcf6714e	-0.030083325
103	0xbd7c13e6	-0.061542414
104	0xbd189461	-0.03725088
105	0xbd1413bf	-0.036151644
106	0xbd8a1373	-0.06741991
107	0xbd18efc2	-0.037338026
108	0xbbb28ace	-0.0054486757
109	0x3d149a74	0.03628011
110	0x3d5da6d0	0.054114163
111	0x3c17c577	0.009263388
112	0xbbadcc01	-0.00530386
113	0x3d606b0d	0.05478959
114	0x3cdbc194	0.026825704
115	0xbc3d8c98	-0.011569165
116	0xbcbc918a	-0.023018617
117	0x3cc81d64	0.024428077
118	0x3d84795c	0.0646846
119	0xbc654c0d	-0.013995183
120	0x3da7a632	0.08185996
121	0xbcf5b7c5	-0.029994855
122	0xbd9f6a99	-0.07784004
123	0x3bed1fc1	0.0072364514
124	0xbda24e84	-0.07925132
125	0x3d1c6217	0.038179483
126	0x3c8effc8	0.01745595
127	0xbd144f42	-0.0362084

energy.2.weight f4 [128, 128]
0	0x3ae9c389	0.0017834763
1	0x3a076527	0.0005164914
2	0x3c132d2e	0.00898294
3	0x3af93192	0.0019011965
4	0xbb1e75ba	-0.0024179057
5	0xbc25e8e7	-0.010126329
6	0x39ce3dee	0.00039337523
7	0xbbaa7ccf	-0.0052028666
8	0xbbfaf282	-0.0076583037
9	0xba4193d2	-0.00073843927
10	0x3947c170	0.0001905018
11	0xb934f3f5	-0.00017257019
12	0xbbf2b38a	-0.0074066566
13	0x3b87becc	0.004142618
14	0x3c529eaf	0.012855216
15	0xbc4de80e	-0.012567533
16	0xba33b24a	-0.0006854875
17	0x39488c56	0.00019125766
18	0xb701012e	-7.689274e-06
19	0x3aafe743	0.0013420362
20	0xb99657ce	-0.0002867565
21	0x396be041	0.00022494888
22	0x3bde9c87	0.006793562
23	0x38d9c5ed	0.00010384233
24	0x3a12323b	0.0005576943
25	0xba327cc5	-0.0006808753
26	0x3ab56e09	0.0013841997
27	0x3b7a81c4	0.003822432
28	0xbaaf612b	-0.0013380399
29	0xbb29586a	-0.0025840052
30	0xb994469b	-0.00028281365
31	0xb908c728	-0.00013044162
32	0x3c337130	0.010952279
33	0xbac4835c	-0.0014992761
34	0x3baf25e1	0.0053450917
35	0x3b402875	0.002932099
36	0x3bb0210d	0.0053750337
37	0xb867ade2	-5.5236633e-05
38	0xbc8b6bb2	-0.017019127
39	0x3b784cc3	0.003788755
40	0x3a231524	0.0006221107
41	0x3ad02ba8	0.0015882151
42	0x3aabcc7e	0.0013107208
43	0x3a434dea	0.000745027
44	0x3ba35c2e	0.004985354
45	0x3cbd3105	0.023094663
46	0x3c81edc3	0.015860444
47	0x3bb0b920	0.0053931624
48	0xbb9f8ec8	-0.004869316
49	0x3bf55d52	0.0074879313
50	0xbce18fe7	-0.027534438
51	0x3b8d2a2b	0.0043080053
52	0x3c89c482	0.016817335
53	0x3a29aa64	0.00064722286
54	0x388deb99	6.7672874e-05
55	0x3bc82e4b	0.006109034
56	0x3adae2a6	0.0016699627
57	0xbbb8bbda	-0.005637628
58	0x3a5177ee	0.0007990588
59	0xba030fc9	-0.00049996056
60	0x3baa3c84	0.0051952023
61	0xbaad3356	-0.0013214152
62	0x395847ea	0.00020626155
63	0x389b2dda	7.3995165e-05
64	0xbba9d78c	-0.005183166
65	0xbc1126b8	-0.008859329
66	0x3c051462	0.008122535
67	0x3c945da6	0.018111061
68	0x3b06cb97	0.0020568126
69	0xbbdeecfb	-0.0068031526
70	0x3c0aa8c3	0.0084630875
71	0x3b23554c	0.0024922667
72	0x3c8c7564	0.01714582
73	0xbc0a306c	-0.008434396
74	0xba9e8674	-0.0012094514
75	0x3a54fcb3	0.00081248133
76	0x3c86b425	0.016443321
77	0x3a6af2c4	0.00089625665
78	0x3abc427c	0.0014363076
79	0xbc369295	-0.011143346
80	0x3c8103d7	0.015748901
81	0xba3d52b7	-0.00072221033
82	0xb9ea1d80	-0.00044653937
83	0x3a2dd4aa	0.00066311157
84	0x38f0e4a1	0.00011486677
85	0x3a24c2ad	0.00062851125
86	0xbc3dafc9	-0.011577555
87	0x388adc63	6.621403e-05
88	0xb9ef7396	-0.0004567175
89	0x3bdafa61	0.0066826795
90	0x3b2f7166	0.0026770472
91	0x3b3abe3b	0.0028494734
92	0xb9cef3f8	-0.00039473153
93	0x3b76ce53	0.00376596
94	0xbb07af22	-0.0020703753
95	0xbc19721a	-0.009365583
96	0xbb78f2bc	-0.0037986478
97	0x3ce0c190	0.027436048
98	0x3a18a817	0.0005823387
99	0x3bbaf3c7	0.00570533
100	0x381ff019	3.8132162e-05
101	0xbc287d21	-0.010283739
102	0xbc0a63ee	-0.008446677
103	0xb9158684	-0.00014259858
104	0xbb5ff282	-0.0034171646
105	0x3b8e54d1	0.004343607
106	0xba011592	-0.00049241737
107	0x3a0535fa	0.00050815905
108	0x396882ed	0.00022174018
109	0xbc64fb39	-0.013975912
110	0xbb5f5c23	-0.0034082017
111	0x3876dc36	5.8856058e-05
112	0xb9b2cae3	-0.00034101968
113	0x3abcaff0	0.0014395695
114	0xbb93471f	-0.0044945623
115	0xbb88672a	-0.0041626887
116	0x3b261eaf	0.0025347879
117	0x3bf2bb3a	0.007407573
118	0x3c2aaffa	0.010417933
119	0xbb80c991	-0.0039302786
120	0xb9b66b94	-0.00034793897
121	0x3c6c40a1	0.014419706
122	0x39299c4e	0.00016175324
123	0x3a94976f	0.0011336635
124	0x399feb71	0.0003050226
125	0x3a5c8896	0.0008412687
126	0x3bd2ab7a	0.006429133
127	0xbaf44992	-0.0018637648
128	0x3be73e11	0.0070569594
129	0xbc162c55	-0.009165843
130	0x3d39e716	0.045386396
131	0xbcd60b8b	-0.026128551
132	0x3c635b4b	0.013876746
133	0x3ce3fa2e	0.027829256
134	0x3cf8209d	0.030288989
135	0xbd836bb2	-0.064170256
136	0xbd5cd458	-0.053913444
137	0x3d2120eb	0.039338034
138	0xbd067980	-0.032830715
139	0x3beede45	0.00728968
140	0x3cd4b608	0.025965706
141	0xbb1f8f92	-0.002434705
142	0xbc8df0ad	-0.017326677
143	0xbd9d4ac0	-0.07680273
144	0xbc0e07d9	-0.008668863
145	0xbca2f530	-0.019892305
146	0x3d50f914	0.05101879
147	0xbbf04e03	-0.0073335185
148	0xbd2961a6	-0.04135289
149	0x3ca0b7e7	0.019618941
150	0x3c9c315a	0.019066501
151	0x3d25a4cd	0.04044037
152	0xbd746d35	-0.05967446
153	0xbb91054e	-0.004425681
154	0x3d85214d	0.06500492
155	0xbd301891	-0.04299218
156	0x3cca67af	0.024707643
157	0x3cc7bf6c	0.02438327
158	0x3c4c7f9c	0.012481596
159	0x3dad94a5	0.08475617
160	0xbd213084	-0.03935291
161	0x3d9868db	0.074418746
162	0xbd32c23e	-0.043642275
163	0x3c44de2c	0.0120158605
164	0x3d08f4e8	0.033436686
165	0xbd0eac2d	-0.03483217
166	0x3d2e1cfc	0.04250811
167	0x3c1f334c	0.00971682
168	0x3c77ebb9	0.015131884
169	0xbcddaa93	-0.027058875
170	0x3aa9f61a	0.0012967021
171	0x3d0b3a10	0.03399092
172	0xbc04ac13	-0.008097666
173	0xbd14bdf2	-0.03631396
174	0x3d65ea7e	0.056131832
175	0x3d60d2b5	0.054888446
176	0xbd29d107	-0.04145911
177	0xbd13ba77	-0.0360665
178	0xbd784aa3	-0.060618054
179	0xbc12b53e	-0.008954344
180	0xbcd60e2f	-0.02612981
181	0x3d10c454	0.035343483
182	0x3d3a0128	0.04541126
183	0xbd3d6e39	-0.046247695
184	0xbcabbe90	-0.02096489
185	0xbcec1f25	-0.028823445
186	0x3d5fc7a6	0.05463376
187	0x3d0f4643	0.034979116
188	0x3d3fe0ed	0.046845365
189	0x3d8c6eb3	0.06857052
190	0x3cc59e7d	0.024123425
191	0xbc856a0d	-0.01628592
192	0xbc8a905f	-0.016914545
193	0x3d0e6f45	0.034774084
194	0x3d379dbb	0.044828158
195	0xbd437269	-0.047716532
196	0xbca7838f	-0.020448474
197	0xbd9f0f95	-0.07766644
198	0xbcd98515	-0.026552716
199	0x3d73676c	0.059424803
200	0xbcf123c6	-0.029436003
201	0x3b5566a8	0.0032562409
202	0x3d55a41e	0.052158467
203	0xbc43fb5e	-0.011961786
204	0x3d6e2d76	0.058148824
205	0xbd44a29c	-0.04800664
206	0x3d15decf	0.03658944
207	0x3d863cca	0.06554563
208	0x3d921d87	0.07134538
209	0x3d1eaa3d	0.03873657
210	0x3d229629	0.039693985
211	0x3ccbb046	0.024864327
212	0xbd5bfc0a	-0.05370716
213	0x3d576323	0.05258478
214	0xbd8808bb	-0.0664229
215	0x3ca5e0c1	0.020248773
216	0xbd382d6e	-0.0449652
217	0x3ccd5645	0.02506555
218	0xbd2e725b	-0.042589527
219	0xbc6cf977	-0.014463774
220	0xbc3d3ee8	-0.011550643
221	0x3d5b4e9e	0.053541772
222	0x3d6cbfa3	0.057799947
223	0xbd6046c2	-0.05475498
224	0xbd35baad	-0.04436748
225	0x3c5cd510	0.013478532
226	0x3ca78da0	0.020453274
227	0xbd8da0dd	-0.06915448
228	0x3cbc8cca	0.023016352
229	0xbd00a603	-0.03140832
230	0xbc6b2217	-0.014351389
231	0x3ced7461	0.028986158
232	0xbbe5f9c6	-0.0070183007
233	0x3d7ae39c	0.06125222
234	0xbd8ecbf7	-0.06972497
235	0x3ce310ab	0.027717909
236	0x3c94db64	0.01817102
237	0xbca65945	-0.020306239
238	0xbd5364b6	-0.051609717
239	0xbd728b93	-0.05921514
240	0x3b404755	0.0029339392
241	0xbd3fce7a	-0.04682777
242	0xbd120956	-0.035653435
243	0x3d319bbb	0.043361407
244	0x3bee8e18	0.0072801225
245	0xbcb8b624	-0.022547789
246	0x3b99c470	0.0046926066
247	0xbd01e23b	-0.03170989
248	0xbc8474b7	-0.016168935
249	0x3d7376cf	0.059439477
250	0xbb9a88a2	-0.004715995
251	0x3c481b03	0.012213471
252	0xbce8a14d	-0.028397227
253	0x3b850d8a	0.004060452
254	0x3ca6eade	0.020375665
255	0x3c5e3faf	0.013564988

energy.2.bias f4 [128]
0	0xbb5988cc	-0.003319311
1	0xbce01ff4	-0.027358986
2	0x3c73844a	0.014863083
3	0xbcde307c	-0.027122729
4	0xbcb2f7f0	-0.021846741
5	0x3d7d2b2c	0.06180875
6	0xbd7c7228	-0.061632305
7	0x3af5c21a	0.0018749863
8	0x3b986d90	0.0046517327
9	0x3c538180	0.012909293
10	0xbcdc88e8	-0.02692075
11	0xbcd66e51	-0.02617565
12	0xbd1998e9	-0.037499342
13	0xbbcf6c7f	-0.0063300724
14	0x3b634dd0	0.003468383
15	0xbc9841ab	-0.018586
16	0x3b895f82	0.0041922936
17	0x3c7a42f0	0.015274748
18	0xbd33fc96	-0.043942057
19	0xbce0a6f5	-0.027423361
20	0x3d22d716	0.039755903
21	0x3d033452	0.03203232
22	0x3c440014	0.011962909
23	0x3b289a83	0.0025726862
24	0xbc075bc5	-0.008261626
25	0x3d3c5a8e	0.045984797
26	0x3bf6bc0f	0.0075297426
27	0xbbcb2157	-0.006199043
28	0xbd8f0a85	-0.06984428
29	0xbcd340ea	-0.02578779
30	0x3ca2ea37	0.019887073
31	0x3cf8318e	0.030297067
32	0xbd3056e6	-0.043051623
33	0x3c9ff1c2	0.019524459
34	0x3d737606	0.059438728
35	0x3d4f5954	0.0506223
36	0x3d46dad8	0.04854855
37	0x3d3ea4d1	0.0465439
38	0xbd8a875b	-0.06764098
39	0xbba470ba	-0.005018321
40	0x3cbcf013	0.023063695
41	0x3d73d09e	0.059525125
42	0x3d021d08	0.031765968
43	0x3b1e717c	0.0024176529
44	0x3d5278d0	0.051384747
45	0xbb819de0	-0.0039555877
46	0xbbf9a4c0	-0.0076185167
47	0x3b9f3936	0.004859115
48	0xbba9cfe3	-0.0051822527
49	0xbc83b21b	-0.016076138
50	0x3b068867	0.002052808
51	0x3d328c5b	0.043590885
52	0xbb23a246	-0.0024968549
53	0xbd191520	-0.037373662
54	0x37252093	9.842351e-06
55	0xbb064fc3	-0.002049432
56	0x3d43ca02	0.04780007
57	0x3c513f8d	0.012771499
58	0x3c0232ae	0.007946653
59	0x3c6fd1de	0.014637439
60	0xba474aab	-0.0007602374
61	0xbd88968c	-0.066693395
62	0xbd3c6d78	-0.046002835
63	0xbdbd0776	-0.09229939
64	0x3d7e686e	0.06211131
65	0x3d6bfa90	0.057612002
66	0xbcc98a75	-0.024602154
67	0x3d0faeac	0.03507869
68	0x3c92bb9a	0.017911721
69	0xbd2151fb	-0.039384823
70	0xbcfb46b9	-0.030673372
71	0xbb33063c	-0.0027316948
72	0x3b9f7be4	0.004867064
73	0xbce7ff3b	-0.028319946
74	0xbceb066d	-0.028689587
75	0xbcf98926	-0.030460905
76	0x3ba9cc59	0.005181831
77	0x3d848b8f	0.06471931
78	0x3cd78e73	0.026313042
79	0x3c08b56a	0.008344034
80	0xbce5ab85	-0.028035888
81	0xba88a912	-0.0010426363
82	0xbc43b1aa	-0.011944214
83	0x3c69e18d	0.014274967
84	0xbd97f522	-0.07419802
85	0xbd8c0445	-0.06836752
86	0x3d45ef17	0.048323717
87	0xbda04df2	-0.07827367
88	0x3d5ffcdd	0.05468451
89	0xbc6a4a81	-0.01429999
90	0xbd153310	-0.03642565
91	0xbc021d00	-0.007941484
92	0x3bd65a0b	0.0065414957
93	0xbc5780f9	-0.013153308
94	0x3c7aac2d	0.015299839
95	0x3af879fa	0.001895725
96	0xbd2f49d6	-0.042795025
97	0xbd0f4705	-0.03497984
98	0x3d024a74	0.031809285
99	0x3d22ec09	0.039775882
100	0xbd28d9c5	-0.041223306
101	0x3c1f4100	0.009720087
102	0xbd24a0fd	-0.040192593
103	0xba604f95	-0.00085567805
104	0x3c02c7ba	0.007982189
105	0xbc5e0551	-0.013551072
106	0xbbbac5ab	-0.0056998334
107	0x3d7792f4	0.06044288
108	0x3bfd2c77	0.007726248
109	0xbdd12fba	-0.10214181
110	0xbd8e051c	-0.06934568
111	0x3d00c8a6	0.031441353
112	0xbd8d7ea2	-0.06908919
113	0xbd728ff7	-0.059219327
114	0xbd667293	-0.05626161
115	0xbd257f18	-0.04040441
116	0x3d0a484b	0.03376035
117	0x3c9d3fe9	0.019195514
118	0x3c87befc	0.01657056
119	0xbc0a41c5	-0.008438532
120	0xbce1531c	-0.02750545
121	0xbc5ba6ef	-0.013406499
122	0xbc50b48d	-0.012738359
123	0x3d3a5ff6	0.04550167
124	0x3d025865	0.03182258
125	0x3cf7a1ce	0.030228522
126	0x3d882a5f	0.06648707
127	0x3d9102b5	0.070805945

energy.4.weight f4 [1, 128]
0	0xb855b31a	-5.094996e-05
1	0x3d29605e	0.04135167
2	0x3e0b70e5	0.13617285
3	0xbd4b7d66	-0.049680136
4	0x3a972aa1	0.001153309
5	0xbda98228	-0.082767785
6	0xbd816041	-0.06317187
7	0x3a81a083	0.0009889755
8	0xb981ed61	-0.00024781658
9	0xbde95631	-0.11393393
10	0x3d0c2885	0.03421833
11	0xbaf6f5da	-0.001884158
12	0x3d4543ee	0.048160486
13	0xb837e6e2	-4.3845626e-05
14	0x3ac7a9bc	0.001523308
15	0xbcf349a4	-0.0296982
16	0xb8b31c07	-8.5406056e-05
17	0x3e0a8be7	0.13529931
18	0x3e0c5145	0.13702877
19	0xbde0cce2	-0.10976578
20	0xbcdb73cb	-0.026788613
21	0xbdc620a5	-0.09674195
22	0x3d7d67e0	0.06186664
23	0x381c0354	3.7196398e-05
24	0x3988512c	0.0002600042
25	0xbc93925b	-0.018014124
26	0x3d8d3b6c	0.068960994
27	0x3e13519d	0.14386602
28	0xbd6edc6b	-0.058315676
29	0x3afb168e	0.0019156502
30	0xbcbb19b1	-0.022839399
31	0xbd0256b9	-0.031820986
32	0xbe0ffdab	-0.1406161
33	0x3e41f05e	0.18939349
34	0xbdb7f3f5	-0.08982078
35	0x3dd8acc0	0.105798244
36	0x3d8a5e4f	0.06756269
37	0xbd3987ee	-0.04529565
38	0x3e21efea	0.15814176
39	0x3c103c4f	0.008803441
40	0xbdc7289d	-0.09724543
41	0xbcea8c1f	-0.028631268
42	0xbdae7ea4	-0.085202485
43	0xb9acae50	-0.0003293627
44	0xbd63f5be	-0.05565428
45	0xb832e5e7	-4.265262e-05
46	0x3cf86fd0	0.030326754
47	0xbc8213a7	-0.015878512
48	0xba275da7	-0.00063845
49	0x3e32589a	0.17416611
50	0x3d87823f	0.06616639
51	0x3cdd5b13	0.027020967
52	0xb98ca39c	-0.0002682478
53	0xbc9acdf7	-0.01889704
54	0xb34a44be	-4.709431e-08
55	0x3e128f97	0.14312588
56	0x3d017a03	0.0316105
57	0xbc82f16c	-0.01598426
58	0x3abcce03	0.0014404658
59	0xbda6a669	-0.08137209
60	0xb523534e	-6.0843456e-07
61	0x3e388e1b	0.18022959
62	0x3e228e2f	0.15874551
63	0xbe1bb25e	-0.1520476
64	0xbd2eaec5	-0.042647142
65	0x3da9c840	0.08290148
66	0x3e1f7924	0.15573555
67	0xbe1e2673	-0.15444355
68	0x3e1077a4	0.1410814
69	0xbb28724c	-0.0025702892
70	0xbcdac6b3	-0.026706075
71	0xbb8d2a28	-0.004308004
72	0xbccd5cad	-0.025068605
73	0x3b71893c	0.003685548
74	0x3b1198b2	0.0022216258
75	0x3e1373d9	0.14399661
76	0xbe1bc10f	-0.15210365
77	0xbd85428a	-0.06506832
78	0xbda4878a	-0.080336645
79	0xbc01a908	-0.007913835
80	0xbae7ef80	-0.0017695278
81	0xb89d3b65	-7.4974065e-05
82	0xbc793674	-0.015210737
83	0x3b63a7c8	0.0034737457
84	0xbdd07005	-0.10177616
85	0x3e078fcb	0.13238446
86	0x3cefb29f	0.029259978
87	0x3e0d9cff	0.1382942
88	0xbd18812a	-0.037232555
89	0xbb14d727	-0.0022711249
90	0xbd969d22	-0.073541895
91	0xbda7b55c	-0.081888884
92	0xb969d931	-0.00022301522
93	0x3bd85ae4	0.006602632
94	0x3db14d99	0.08657379
95	0x3b6da556	0.0036261878
96	0xbc8592a8	-0.016305283
97	0x3c51c40f	0.012803092
98	0xbc293e0c	-0.0103297345
99	0xbd2128d6	-0.039345585
100	0x3d8275dc	0.06370136
101	0xb91299b8	-0.0001398091
102	0x3e2f9db1	0.17149998
103	0xb7ba4f97	-2.220999e-05
104	0x3a05b203	0.0005100073
105	0x3d3811b2	0.04493875
106	0x39e3dc59	0.00043460986
107	0xbda0ba8f	-0.07848083
108	0xbd412203	-0.047151577
109	0x3e00257c	0.12514299
110	0x3ddf8a57	0.10915058
111	0xbd14f26e	-0.03636401
112	0xbda86bd1	-0.08223689
113	0xbdcc0e4c	-0.099636644
114	0xbdabe25e	-0.083927855
115	0x3d02d9a8	0.031945854
116	0x3e030e41	0.12798406
117	0x3afc939c	0.0019270065
118	0x3da4041a	0.08008595
119	0x372126b9	9.605364e-06
120	0xbc8ededb	-0.01744025
121	0xbd474a91	-0.048655096
122	0x3dfcdb1c	0.12346479
123	0xbc9847ad	-0.018588865
124	0xbb7d49e6	-0.0038648783
125	0x3c8b046f	0.016969888
126	0xbc759f36	-0.014991572
127	0x3de887c8	0.11354023
