aimnet/pretrained/aimnet/aimnet_mt_cv3.pt (torch_old, 401730 bytes, 16 tensors)

volume.0.weight f4 [128, 128]
0	0xbda10fe7	-0.07864361
1	0xbca33801	-0.019924166
2	0x3d8ea099	0.06964225
3	0x3da27165	0.079317845
4	0x3daf3819	0.08555622
5	0xbd40e077	-0.047089066
6	0x3d288044	0.04113795
7	0x3e167f65	0.14697035
8	0xbcd3cc36	-0.025854211
9	0xbd1ae18e	-0.037812762
10	0x3d7284f2	0.059208818
11	0x39d8077a	0.000412043
12	0xbe2becba	-0.16789523
13	0x3cafb1bb	0.021447053
14	0xbd611c35	-0.05495854
15	0xb9dec1e8	-0.0004248761
16	0xbd69edda	-0.0571116
17	0xbb99d01f	-0.0046939994
18	0x3b4ad82e	0.0030951607
19	0x3b461428	0.0030224416
20	0x3db82008	0.089904845
21	0x3b6bf62e	0.0036004889
22	0x3d4df28a	0.05028013
23	0xbe08994f	-0.13339733
24	0xbce8b196	-0.028404992
25	0xbcdb48ea	-0.026768167
26	0x3d698420	0.05701077
27	0xbd1581a2	-0.03650058
28	0x3da5cdfc	0.08095929
29	0xbd8bfbc7	-0.06835132
30	0xbabdb2cd	-0.0014472842
31	0xbdf4b517	-0.11948603
32	0xbdae05d8	-0.08497208
33	0x3d862d29	0.06551582
34	0xbd90b1d6	-0.070651695
35	0xbb992216	-0.004673253
36	0x3d6eed85	0.058331985
37	0xbdb66b55	-0.08907191
38	0x3d527c0e	0.05138784
39	0xbdb50cd2	-0.08840336
40	0xbe08cd3a	-0.13359538
41	0xbd1de686	-0.038549922
42	0xbe6139f9	-0.21994771
43	0x3d048bc8	0.03235987
44	0x3da30bd2	0.07961239
45	0x3d287b5c	0.04113327
46	0x3d20bade	0.03924071
47	0xbe55eb41	-0.20890523
48	0x3c4bcb11	0.0124385515
49	0xbe0bf1a1	-0.13666393
50	0x3ad8f7a9	0.0016553301
51	0x3d8959b7	0.06706565
52	0xbe0f5c9d	-0.14000173
53	0xbe4c7d83	-0.19969754
54	0x3defc2bc	0.117070645
55	0xbdc5893a	-0.096453145
56	0x3bc61609	0.0060451073
57	0xbdda509c	-0.10659906
58	0x3d2a3b1a	0.04156027
59	0xbda50a78	-0.080586374
60	0xbd40b022	-0.047042973
61	0x3b3cf9cc	0.0028835414
62	0xbe0a3868	-0.1349808
63	0x3d110b77	0.035411324
64	0xbcbda1c2	-0.023148421
65	0xbc464ea3	-0.012103709
66	0xbcad8b1a	-0.021184493
67	0xbd7938ca	-0.060845174
68	0xbda2fb59	-0.07958097
69	0x3ce0ac45	0.027425895
70	0x3e2b265f	0.16713856
71	0x3dd6d319	0.104894824
72	0x3d8b3278	0.067967355
73	0xbd3d8bf3	-0.046276044
74	0xbd96fa43	-0.073719524
75	0x3d78b698	0.06072101
76	0xbd17b2f5	-0.0370359
77	0x3cf75ba9	0.030195074
78	0x3d93d8c0	0.07219076
79	0xbe5b9b9b	-0.21446078
80	0xbdc059e8	-0.09392148
81	0x3e0fe4a1	0.14052059
82	0xbd735442	-0.059406526
83	0x3cdc2b11	0.026876004
84	0xbb9d8840	-0.004807502
85	0xbc8bdc77	-0.0170729
86	0xbdf52558	-0.119700134
87	0x3d626328	0.055270344
88	0x3cf24d06	0.029577743
89	0x3bfa77a3	0.0076436563
90	0xbdb406ea	-0.08790381
91	0xbe168772	-0.14700106
92	0x3d9398a7	0.072068505
93	0x3d6755bf	0.05647826
94	0x3e541c3a	0.20713893
95	0xbb885ac0	-0.004161209
96	0xbda56e01	-0.08077622
97	0xbe18385d	-0.14865251
98	0xbe051502	-0.12996295
99	0xbdc4bdfa	-0.09606548
100	0x3da6536c	0.0812138
101	0xbc8517e4	-0.016246744
102	0x3ddd9bed	0.10820756
103	0xbca45ea4	-0.02006466
104	0xbe3791dd	-0.17926736
105	0xbc86b00a	-0.016441364
106	0x3e3e4fb5	0.18585093
107	0xbe2d4caa	-0.16923776
108	0x3d30ac5f	0.043133136
109	0xbe211f39	-0.15734567
110	0x3d8aa767	0.06770211
111	0x3d261260	0.040544868
112	0x3d6e6415	0.058200914
113	0x3c871f37	0.016494377
114	0xbd541e03	-0.051786434
115	0xbe567b54	-0.20945483
116	0x3dc79b78	0.0974645
117	0x3cdcced2	0.026954088
118	0x3d24799b	0.040155035
119	0x3c879c68	0.016554072
120	0x3dbc7ded	0.09203706
121	0x3ce4ffad	0.027953947
122	0x3c89a9e8	0.01680465
123	0x3dde803d	0.10864303
124	0x3d207ae9	0.039179716
125	0xbd49f9e2	-0.049310572
126	0xbd9aeaa1	-0.07564283
127	0xbc8ba367	-0.01704569
128	0xbd8ba761	-0.06819034
129	0xbda429fb	-0.0801582
130	0x3d405822	0.04695905
131	0x3db47088	0.08810526
132	0xbd9069a3	-0.070513986
133	0xbca17c0a	-0.019712467
134	0x3e101e02	0.14073947
135	0x3e0ed1f8	0.13947284
136	0x3d6d2a9b	0.05790196
137	0xbd4829c2	-0.04886795
138	0xbdd7fcae	-0.10546242
139	0x3c69c45b	0.014268006
140	0xbd68b24b	-0.05681066
141	0xbdcc305d	-0.09970162
142	0x3dd5e573	0.104441546
143	0xbdd2348f	-0.10263931
144	0x3cae3d79	0.021269547
145	0xbe2f9234	-0.17145616
146	0xbda32f1a	-0.07967968
147	0x3d2ec39d	0.04266702
148	0xbbd7de0d	-0.00658775
149	0x3d9cc7da	0.07655306
150	0xbd03a94e	-0.032143883
151	0xbe2ea7bf	-0.17056178
152	0x3cf85bf5	0.030317286
153	0xbd08c8ff	-0.03339481
154	0x3db0ea2c	0.08638415
155	0xbe3cc509	-0.18434538
156	0x3d925fa7	0.071471505
157	0x3e0103ea	0.1259915
158	0x3da14ba5	0.07875756
159	0x3dafa9fc	0.08577344
160	0xbe82be3c	-0.25535762
161	0x3e3a2b95	0.18180688
162	0xbc9932bc	-0.01870095
163	0xbd09f197	-0.033677664
164	0x3e4b305f	0.19842671
165	0x3da4a294	0.08038822
166	0x3d6ccb94	0.057811335
167	0x3c60234a	0.013680289
168	0x3d1626f3	0.03665824
169	0x3da022d4	0.07819143
170	0xbb9f4eb5	-0.0048616775
171	0xbe17991b	-0.14804499
172	0x3d9166e5	0.07099704
173	0x3d7ccc25	0.061718125
174	0x3cc41c2c	0.023939215
175	0xbd5ccf8c	-0.05390887
176	0x3de040a9	0.10949833
177	0xbde1bea7	-0.11022692
178	0x3ddf002f	0.10888707
179	0x3c8aea7b	0.016957512
180	0xbc4714e6	-0.012150979
181	0x3c9cda92	0.019147191
182	0x3ce9f6ab	0.028560003
183	0x3ddcfa44	0.10789922
184	0xbca10546	-0.019655835
185	0xbddf3010	-0.10897839
186	0x3d4d5875	0.050133187
187	0xbd76c281	-0.060244087
188	0xbd7d0c47	-0.061779287
189	0x3daa037f	0.08301448
190	0x3e1093d5	0.14118893
191	0x3e21a8df	0.15787075
192	0xbb15da66	-0.0022865771
193	0xbd352fd0	-0.04423505
194	0x3b5a35dc	0.0033296263
195	0xbc3ea7e7	-0.011636711
196	0x3caffc15	0.021482507
197	0xbe4dc2e6	-0.20093879
198	0x3cfc0e4e	0.03076854
199	0xbccea6ac	-0.02522596
200	0x3d6d5f7f	0.0579524
201	0x3e6c6598	0.2308563
202	0xbd329b1f	-0.043604966
203	0x3d557e04	0.05212213
204	0xbd5dc9f3	-0.054147672
205	0xbdbc12d8	-0.09183282
206	0xbd32d022	-0.043655522
207	0x3da2dda4	0.07952431
208	0xbd4d4c7a	-0.05012176
209	0x3ddb32b6	0.10703032
210	0x3def902c	0.116974205
211	0x3d92e122	0.07171847
212	0xbc7b62c4	-0.015343372
213	0x3d2448f6	0.040108643
214	0x3e335686	0.17513475
215	0x3d614d7c	0.055005535
216	0x3da3ed7b	0.0800428
217	0x3e25f3df	0.1620631
218	0xbcb5a557	-0.022173567
219	0xbe0145f8	-0.12624347
220	0xbd8ef422	-0.069801584
221	0xbcbbc941	-0.022923114
222	0x3d16a2c6	0.036776327
223	0xbd1f3b31	-0.03887481
224	0xbde29318	-0.11063212
225	0xbe0b5026	-0.13604793
226	0x3d195e37	0.037443366
227	0x3dcdd263	0.10049894
228	0x3d2020a9	0.039093647
229	0x3b9e4d35	0.004830981
230	0xbdb5afe2	-0.088714376
231	0xbda54ec2	-0.080716625
232	0x3e2f28a0	0.17105341
233	0x3de0a1ac	0.109683365
234	0xbe07c172	-0.13257387
235	0xbd8fc6ac	-0.070203155
236	0x3dc77957	0.097399406
237	0xbe266050	-0.16247678
238	0x3db31031	0.08743323
239	0x3db86bfa	0.0900497
240	0xbd99fb0f	-0.07518589
241	0x3ce72c1a	0.028219271
242	0x3e0e8981	0.13919641
243	0xbc8179b4	-0.015805103
244	0x3d8cedf3	0.06881323
245	0x3de4d2e2	0.11173035
246	0xba72c2ad	-0.00092605763
247	0x3db0ccda	0.08632822
248	0x3e214c2a	0.1575171
249	0x3da2c6d0	0.07948077
250	0x3cd4e5c2	0.025988463
251	0x3d412b95	0.047160704
252	0xbdcfa692	-0.10139193
253	0x3d6c1876	0.057640515
254	0xbe5a08a8	-0.21292365
255	0x3cec7d7b	0.028868428

volume.0.bias f4 [128]
0	0x00000000	0.0
1	0x00000000	0.0
2	0x00000000	0.0
3	0x00000000	0.0
4	0x00000000	0.0
5	0x00000000	0.0
6	0x00000000	0.0
7	0x00000000	0.0
8	0x00000000	0.0
9	0x00000000	0.0
10	0x00000000	0.0
11	0x00000000	0.0
12	0x00000000	0.0
13	0x00000000	0.0
14	0x00000000	0.0
15	0x00000000	0.0
16	0x00000000	0.0
17	0x00000000	0.0
18	0x00000000	0.0
19	0x00000000	0.0
20	0x00000000	0.0
21	0x00000000	0.0
22	0x00000000	0.0
23	0x00000000	0.0
24	0x00000000	0.0
25	0x00000000	0.0
26	0x00000000	0.0
27	0x00000000	0.0
28	0x00000000	0.0
29	0x00000000	0.0
30	0x00000000	0.0
31	0x00000000	0.0
32	0x00000000	0.0
33	0x00000000	0.0
34	0x00000000	0.0
35	0x00000000	0.0
36	0x00000000	0.0
37	0x00000000	0.0
38	0x00000000	0.0
39	0x00000000	0.0
40	0x00000000	0.0
41	0x00000000	0.0
42	0x00000000	0.0
43	0x00000000	0.0
44	0x00000000	0.0
45	0x00000000	0.0
46	0x00000000	0.0
47	0x00000000	0.0
48	0x00000000	0.0
49	0x00000000	0.0
50	0x00000000	0.0
51	0x00000000	0.0
52	0x00000000	0.0
53	0x00000000	0.0
54	0x00000000	0.0
55	0x00000000	0.0
56	0x00000000	0.0
57	0x00000000	0.0
58	0x00000000	0.0
59	0x00000000	0.0
60	0x00000000	0.0
61	0x00000000	0.0
62	0x00000000	0.0
63	0x00000000	0.0
64	0x00000000	0.0
65	0x00000000	0.0
66	0x00000000	0.0
67	0x00000000	0.0
68	0x00000000	0.0
69	0x00000000	0.0
70	0x00000000	0.0
71	0x00000000	0.0
72	0x00000000	0.0
73	0x00000000	0.0
74	0x00000000	0.0
75	0x00000000	0.0
76	0x00000000	0.0
77	0x00000000	0.0
78	0x00000000	0.0
79	0x00000000	0.0
80	0x00000000	0.0
81	0x00000000	0.0
82	0x00000000	0.0
83	0x00000000	0.0
84	0x00000000	0.0
85	0x00000000	0.0
86	0x00000000	0.0
87	0x00000000	0.0
88	0x00000000	0.0
89	0x00000000	0.0
90	0x00000000	0.0
91	0x00000000	0.0
92	0x00000000	0.0
93	0x00000000	0.0
94	0x00000000	0.0
95	0x00000000	0.0
96	0x00000000	0.0
97	0x00000000	0.0
98	0x00000000	0.0
99	0x00000000	0.0
100	0x00000000	0.0
101	0x00000000	0.0
102	0x00000000	0.0
103	0x00000000	0.0
104	0x00000000	0.0
105	0x00000000	0.0
106	0x00000000	0.0
107	0x00000000	0.0
108	0x00000000	0.0
109	0x00000000	0.0
110	0x00000000	0.0
111	0x00000000	0.0
112	0x00000000	0.0
113	0x00000000	0.0
114	0x00000000	0.0
115	0x00000000	0.0
116	0x00000000	0.0
117	0x00000000	0.0
118	0x00000000	0.0
119	0x00000000	0.0
120	0x00000000	0.0
121	0x00000000	0.0
122	0x00000000	0.0
123	0x00000000	0.0
124	0x00000000	0.0
125	0x00000000	0.0
126	0x00000000	0.0
127	0x00000000	0.0

volume.2.weight f4 [128, 128]
0	0xbe2335ad	-0.15938444
1	0x3e2765a6	0.1634737
2	0x3e27cf76	0.16387734
3	0xbd02e279	-0.031954262
4	0x3ccc6309	0.024949567
5	0xbc990d0f	-0.018682985
6	0xbca34a68	-0.01993294
7	0x3e07f95b	0.13278715
8	0x3e48a595	0.19594415
9	0x3ce9e458	0.028551266
10	0x3d3041f9	0.043031666
11	0x3d2e3802	0.042533882
12	0x3e00568a	0.12533012
13	0xbd7250eb	-0.0591592
14	0xbc392bb7	-0.011301926
15	0xbdc5e421	-0.09662653
16	0x3d1ec1bb	0.038758975
17	0x3c9339a1	0.017971816
18	0xbd62fd18	-0.05541715
19	0xbe11fd18	-0.14256704
20	0x3c977376	0.018487673
21	0xbc6aefb1	-0.014339373
22	0xbc26bfe0	-0.0101775825
23	0x3dc2e0c2	0.095155254
24	0x3e23bf12	0.15990856
25	0x3e01f067	0.12689362
26	0xbb2cc222	-0.002636083
27	0x3d50285d	0.050819743
28	0xbccea39a	-0.025224496
29	0xbdb0cf56	-0.08633296
30	0x3d6877f1	0.05675501
31	0xbdd09718	-0.10185069
32	0xbd37a8cb	-0.044838708
33	0x3e120cdb	0.14262716
34	0xbd06a019	-0.032867525
35	0xbe0338b9	-0.12814607
36	0xbc046484	-0.008080605
37	0xbdd968df	-0.10615706
38	0x3dd6ba4e	0.104847535
39	0x3e0c7c2a	0.1371924
40	0xbdabb66d	-0.08384404
41	0xbddb2152	-0.10699715
42	0xbdda32d2	-0.106542245
43	0x3d689662	0.05678404
44	0xbd22069e	-0.039557092
45	0x3cc53302	0.024072174
46	0xbdc544b7	-0.09632247
47	0xbcbe0dad	-0.02319988
48	0x3e088c32	0.1333473
49	0xbc303cdd	-0.010756698
50	0x3cfcdc9c	0.030866913
51	0x3d3d29b0	0.046182334
52	0xbd86ae1b	-0.06576177
53	0x3d832150	0.06402838
54	0x3e2a8be7	0.16654931
55	0xbdbe4341	-0.092901714
56	0x3da70ee6	0.081571385
57	0xbda0a488	-0.07843882
58	0x3b2b48aa	0.002613584
59	0xbddbc70d	-0.10731325
60	0xbe1a70ee	-0.15082142
61	0xbd8a4629	-0.06751663
62	0x3d586aba	0.052836157
63	0x3e1da9c1	0.15396787
64	0x3b3707ba	0.002792819
65	0xbcf22092	-0.029556546
66	0x3d2b0466	0.04175224
67	0xbde97168	-0.11398584
68	0xbd735409	-0.059406314
69	0x3ce6090e	0.02808049
70	0xbd42eb90	-0.04758793
71	0xbca8a9d1	-0.020588787
72	0xbd151f91	-0.036407057
73	0x3d0ee813	0.034889292
74	0xbd79fde6	-0.061033152
75	0xbb9da206	-0.0048105745
76	0x3d87e4c6	0.06635432
77	0xbd532f58	-0.051558822
78	0x3d43f548	0.04784134
79	0xbe1c8011	-0.15283228
80	0x3d49e623	0.04929174
81	0x3cfccf51	0.030860575
82	0xbd39cd7e	-0.04536199
83	0xbdab1e42	-0.083553806
84	0x3d4238e9	0.047417555
85	0x3d22d0cf	0.039749917
86	0xbd4dab53	-0.050212216
87	0x3dbe5580	0.092936516
88	0xbd9fcf87	-0.078032546
89	0xbe3e9c8f	-0.1861441
90	0x3cc45a59	0.023968862
91	0x3d869b72	0.065726176
92	0xbd98d1e6	-0.0746191
93	0x3d4b41ef	0.049623426
94	0x3becffca	0.007232641
95	0xbca8edca	-0.0206212
96	0xbdf2449a	-0.11829491
97	0xbbdc8085	-0.006729188
98	0xbc341c69	-0.010993102
99	0xbdf8e848	-0.12153679
100	0xbcead8c1	-0.02866781
101	0x3dfeb4f2	0.12436856
102	0xbd797742	-0.06090475
103	0xbc17ffd9	-0.009277307
104	0x3d14588e	0.036217265
105	0xbdd20181	-0.10254193
106	0x3dcd6747	0.10029464
107	0x3dc5065d	0.09620354
108	0x3e28aabc	0.1647138
109	0xbd9d22cf	-0.07672655
110	0x3df292be	0.11844395
111	0x3e3c444c	0.18385428
112	0x3d65418f	0.055970725
113	0xbd336b97	-0.043803778
114	0xbb9b5b5a	-0.0047411146
115	0x3e419b46	0.18906888
116	0x3d8e248a	0.06940563
117	0xbd605ef4	-0.054778054
118	0x3d8265d1	0.06367076
119	0xbc92f194	-0.017937459
120	0x3d0ec68f	0.03485733
121	0x3d935b39	0.07195134
122	0x3d4bd35a	0.049762107
123	0x3d34b5e3	0.044118773
124	0xbd8649be	-0.06557034
125	0xbd695311	-0.056963984
126	0xbd7a34b0	-0.061085403
127	0xbc7c3fd4	-0.015396077
128	0x3d08c4a7	0.033390667
129	0x3aa59b05	0.00126347
130	0xbc9c7293	-0.019097602
131	0xbde68c98	-0.11257285
132	0xbd7c3f5e	-0.06158387
133	0x3db33989	0.08751208
134	0xbdc4bad3	-0.096059464
135	0xbdaf1788	-0.0854941
136	0x3c9d4766	0.019199084
137	0xbd4088fd	-0.047005642
138	0xbe853a73	-0.26021156
139	0xbd146307	-0.036227252
140	0x3cc739e0	0.02431959
141	0x3ce82144	0.028336175
142	0x3e25aa3c	0.1617822
143	0x3cc4607c	0.023971789
144	0xbd70f136	-0.058823787
145	0x3d93404e	0.071899995
146	0x3d85ec57	0.06539219
147	0x3d930895	0.07179371
148	0x3d36237e	0.04446744
149	0x3e16b9ae	0.14719269
150	0x3baf9fd1	0.005359628
151	0x3d1cc6ed	0.038275648
152	0xbdd5d8ba	-0.10441728
153	0xbd56a273	-0.052401017
154	0xbc2c3bce	-0.010512305
155	0x3d1539dc	0.036432132
156	0x3e57510a	0.21027008
157	0x3ca933d6	0.0206546
158	0x3d0ad8c8	0.033898145
159	0x3e185d37	0.14879309
160	0xbd9e2d42	-0.07723476
161	0x3ca7b6cd	0.020472908
162	0xbd9d07ff	-0.07667541
163	0x3d65f7c1	0.05614448
164	0xbc973227	-0.018456532
165	0xbd9fdf73	-0.078062914
166	0xbe20acb2	-0.15690878
167	0xbc9a9bb1	-0.018873068
168	0xbcadcf65	-0.021217057
169	0xbd68855a	-0.0567678
170	0xbda61b26	-0.08110647
171	0x3c8a477c	0.01687979
172	0x3cff9659	0.031199621
173	0xbde44864	-0.1114662
174	0x3c472701	0.012155295
175	0x3e341ad8	0.17588365
176	0xbe1ae4c6	-0.15126333
177	0xbe048114	-0.12939864
178	0xbd92b54a	-0.071634844
179	0x3d205a05	0.03914835
180	0xbce3085c	-0.027713947
181	0xbdaac17f	-0.08337688
182	0x3d81009f	0.062989466
183	0xbbaba458	-0.005238097
184	0xbd7ecb86	-0.062205814
185	0x3d99a0f7	0.07501405
186	0x3c829e72	0.015944693
187	0xbe161701	-0.14657213
188	0x3db25006	0.087066695
189	0xbd19ccc5	-0.0375488
190	0x3d8f8f89	0.07009799
191	0x3d3baa25	0.04581656
192	0x3e2f56e4	0.1712299
193	0x3d048280	0.032351017
194	0x3db79d2a	0.089655235
195	0xbd96f21a	-0.07370396
196	0xbe2e5a1d	-0.17026563
197	0xbd719297	-0.05897769
198	0x3d435db8	0.0476968
199	0x3c4ed870	0.012624845
200	0x3e08fb25	0.13377054
201	0x3dd9d635	0.1063656
202	0xbd9359ea	-0.07194884
203	0xbdfabe1c	-0.12243292
204	0x3d870ac3	0.065938495
205	0xbd2931e4	-0.041307345
206	0xbe1701a0	-0.14746714
207	0xbd911316	-0.070837185
208	0xbca6114b	-0.020271918
209	0x3e3aefff	0.18255614
210	0x3c1e6a8e	0.009668959
211	0x3d4289fd	0.047494877
212	0xbc0a88c0	-0.008455455
213	0x3d9718c5	0.07377771
214	0xbd77392f	-0.06035727
215	0xbd7272b3	-0.059191417
216	0x3e000448	0.12501633
217	0x3dcce691	0.100049146
218	0x3c0c6cbd	0.008570847
219	0xbdee2f8d	-0.11630163
220	0xbbec5850	-0.007212676
221	0xbe0b711c	-0.13617367
222	0x3cd349d0	0.025792032
223	0xbd9a68fa	-0.07539554
224	0x3bad5f3a	0.005290893
225	0x3e13e488	0.14442647
226	0x3d0ecd72	0.034863897
227	0xbca9bfc6	-0.020721328
228	0x3d524eb6	0.051344596
229	0x3d58145e	0.0527538
230	0x3c21990f	0.009863152
231	0x3c5e3012	0.013561266
232	0x3cb6c599	0.022311019
233	0x3d1961b2	0.037446685
234	0xbde1563c	-0.11002776
235	0x3def7e05	0.11693958
236	0x3daafed3	0.08349385
237	0x3e876118	0.26441264
238	0x3d14dca2	0.036343224
239	0xbcfbcb02	-0.03073645
240	0xbdc235f7	-0.09482949
241	0x3d5087cf	0.050910767
242	0xbd987f91	-0.07446206
243	0xbc39c131	-0.011337564
244	0xbc5b8569	-0.013398507
245	0x3dad3d06	0.08458905
246	0xbbdde5d8	-0.0067717843
247	0x3d9f9d55	0.077936806
248	0xbdb14998	-0.08656615
249	0xbd9710ad	-0.073762275
250	0xbc9290df	-0.017891346
251	0xbcc466ba	-0.023974765
252	0x3d30ca1b	0.043161493
253	0x3c8b1c96	0.016981404
254	0xbda411b0	-0.08011186
255	0xbd54d310	-0.051959097

volume.2.bias f4 [128]
0	0x00000000	0.0
1	0x00000000	0.0
2	0x00000000	0.0
3	0x00000000	0.0
4	0x00000000	0.0
5	0x00000000	0.0
6	0x00000000	0.0
7	0x00000000	0.0
8	0x00000000	0.0
9	0x00000000	0.0
10	0x00000000	0.0
11	0x00000000	0.0
12	0x00000000	0.0
13	0x00000000	0.0
14	0x00000000	0.0
15	0x00000000	0.0
16	0x00000000	0.0
17	0x00000000	0.0
18	0x00000000	0.0
19	0x00000000	0.0
20	0x00000000	0.0
21	0x00000000	0.0
22	0x00000000	0.0
23	0x00000000	0.0
24	0x00000000	0.0
25	0x00000000	0.0
26	0x00000000	0.0
27	0x00000000	0.0
28	0x00000000	0.0
29	0x00000000	0.0
30	0x00000000	0.0
31	0x00000000	0.0
32	0x00000000	0.0
33	0x00000000	0.0
34	0x00000000	0.0
35	0x00000000	0.0
36	0x00000000	0.0
37	0x00000000	0.0
38	0x00000000	0.0
39	0x00000000	0.0
40	0x00000000	0.0
41	0x00000000	0.0
42	0x00000000	0.0
43	0x00000000	0.0
44	0x00000000	0.0
45	0x00000000	0.0
46	0x00000000	0.0
47	0x00000000	0.0
48	0x00000000	0.0
49	0x00000000	0.0
50	0x00000000	0.0
51	0x00000000	0.0
52	0x00000000	0.0
53	0x00000000	0.0
54	0x00000000	0.0
55	0x00000000	0.0
56	0x00000000	0.0
57	0x00000000	0.0
58	0x00000000	0.0
59	0x00000000	0.0
60	0x00000000	0.0
61	0x00000000	0.0
62	0x00000000	0.0
63	0x00000000	0.0
64	0x00000000	0.0
65	0x00000000	0.0
66	0x00000000	0.0
67	0x00000000	0.0
68	0x00000000	0.0
69	0x00000000	0.0
70	0x00000000	0.0
71	0x00000000	0.0
72	0x00000000	0.0
73	0x00000000	0.0
74	0x00000000	0.0
75	0x00000000	0.0
76	0x00000000	0.0
77	0x00000000	0.0
78	0x00000000	0.0
79	0x00000000	0.0
80	0x00000000	0.0
81	0x00000000	0.0
82	0x00000000	0.0
83	0x00000000	0.0
84	0x00000000	0.0
85	0x00000000	0.0
86	0x00000000	0.0
87	0x00000000	0.0
88	0x00000000	0.0
89	0x00000000	0.0
90	0x00000000	0.0
91	0x00000000	0.0
92	0x00000000	0.0
93	0x00000000	0.0
94	0x00000000	0.0
95	0x00000000	0.0
96	0x00000000	0.0
97	0x00000000	0.0
98	0x00000000	0.0
99	0x00000000	0.0
100	0x00000000	0.0
101	0x00000000	0.0
102	0x00000000	0.0
103	0x00000000	0.0
104	0x00000000	0.0
105	0x00000000	0.0
106	0x00000000	0.0
107	0x00000000	0.0
108	0x00000000	0.0
109	0x00000000	0.0
110	0x00000000	0.0
111	0x00000000	0.0
112	0x00000000	0.0
113	0x00000000	0.0
114	0x00000000	0.0
115	0x00000000	0.0
116	0x00000000	0.0
117	0x00000000	0.0
118	0x00000000	0.0
119	0x00000000	0.0
120	0x00000000	0.0
121	0x00000000	0.0
122	0x00000000	0.0
123	0x00000000	0.0
124	0x00000000	0.0
125	0x00000000	0.0
126	0x00000000	0.0
127	0x00000000	0.0

volume.4.weight f4 [1, 128]
0	0x3d0fd24a	0.035112657
1	0x3c0e08c8	0.008669086
2	0x3e0b768d	0.13619442
3	0x3e0b0a85	0.13578232
4	0x3de0cf59	0.109770484
5	0xbc3642e2	-0.011124345
6	0x3b150d6e	0.00227436
7	0xbd9651af	-0.07339799
8	0xbddf46b3	-0.10902157
9	0x3d868b28	0.06569511
10	0xbc6ffc90	-0.014647618
11	0xbdad69fc	-0.084674805
12	0xbdeb7054	-0.11496034
13	0x3d96c08d	0.07360945
14	0xbda5fceb	-0.08104881
15	0x3d33809e	0.04382383
16	0x3ce227f7	0.027606947
17	0x3dd66be4	0.10469797
18	0xbc925d19	-0.017866658
19	0x3d934c56	0.07192294
20	0xbd85b2cc	-0.065282434
21	0x3c640051	0.013916091
22	0x3c5d8e9a	0.013522768
23	0x3d1495d0	0.036275685
24	0xbd857b94	-0.06517711
25	0xbe6cac9d	-0.23112722
26	0xbd26acb9	-0.040692065
27	0xbdffc627	-0.124889664
28	0x3bdab21b	0.006674064
29	0xbb9267cf	-0.0044679414
30	0xbb6cce6f	-0.0036133786
31	0x3e227d86	0.15868196
32	0xbbcf74d7	-0.006331067
33	0xbd67a0e1	-0.05654991
34	0x3e04239b	0.12904207
35	0x3e0349bd	0.12821098
36	0x3e08aabd	0.13346381
37	0x3c2687b9	0.010164195
38	0x3c1538d9	0.009107792
39	0x3dabc2e6	0.08386783
40	0xbd44fafe	-0.048090927
41	0xbdc8faee	-0.09813486
42	0x3dd9a381	0.10626889
43	0xbd142b33	-0.03617401
44	0x3e0122ee	0.12610981
45	0x3d38e749	0.045142446
46	0xbdedc5bc	-0.116099805
47	0x3db0010f	0.08593952
48	0x3cd3826b	0.025819024
49	0x3de02f93	0.10946574
50	0x3e595dfc	0.21227258
51	0xba5f64bf	-0.0008521787
52	0x3d210991	0.039315764
53	0x3cf246c1	0.029574754
54	0x3cae2570	0.021258086
55	0xbc4f15a1	-0.012639434
56	0x3db5597a	0.08854957
57	0xbc58131f	-0.013188153
58	0xbd946ee6	-0.07247715
59	0xbd1522b3	-0.036410045
60	0x3e021813	0.12704496
61	0xbdbbe987	-0.09175401
62	0x3c9eac23	0.01936919
63	0x3e12f14a	0.14349857
64	0xbcb7c9db	-0.02243512
65	0x3d6e5055	0.05818208
66	0xbd17e2f4	-0.037081674
67	0xbde2aa63	-0.11067655
68	0x3d91bf5a	0.071165755
69	0xbda07dc9	-0.078364916
70	0x3d54e6c5	0.05197789
71	0xbe00f241	-0.12592413
72	0x3d376aac	0.044779465
73	0xbd6c412e	-0.057679348
74	0xbd015bcf	-0.031581696
75	0x3e0d058d	0.13771649
76	0xbda29571	-0.0793866
77	0xbd542f5d	-0.05180298
78	0xbd7c07d2	-0.061530896
79	0xbde97022	-0.11398341
80	0x3db6e2ab	0.08929952
81	0xbcd74d06	-0.026281845
82	0x3dc41774	0.09574786
83	0x3cbbc9eb	0.02292343
84	0xbd3dbadc	-0.04632078
85	0x3d8c44bb	0.06849047
86	0x3e03fc2b	0.12889163
87	0xbce7058a	-0.028200883
88	0x3dfe34c0	0.12412405
89	0x3db792cd	0.08963547
90	0x3c91e817	0.017810864
91	0xbc7c6770	-0.015405521
92	0x3da88fb1	0.08230532
93	0xbe0fc69f	-0.14040612
94	0x3bf0d1b5	0.007349218
95	0xbd9cf95c	-0.07664749
96	0x3e14c3a6	0.14527759
97	0x3de32828	0.110916436
98	0xbe1ed065	-0.15509184
99	0xbe6506b1	-0.22365834
100	0x3d38f01d	0.045150865
101	0x3c4886a7	0.012239135
102	0xbc55465e	-0.013017265
103	0xbe25204c	-0.16125602
104	0x3da2bade	0.07945798
105	0x3d0eeaeb	0.034892004
106	0xbc78784c	-0.0151654
107	0xbd1d2697	-0.03836688
108	0xbe009676	-0.12557396
109	0x3e020ba2	0.1269975
110	0x3e14efc2	0.14544585
111	0xbd19ba8f	-0.03753143
112	0xbd3b0488	-0.04565862
113	0xbe3be3df	-0.18348645
114	0x3d8cc8b3	0.06874218
115	0x3e501dca	0.20323864
116	0xbd735e6d	-0.059416223
117	0x3c968ac2	0.018376712
118	0x3d84b43b	0.06479689
119	0x3da4fede	0.080564246
120	0x3d007e8e	0.031370692
121	0x3d36b6e1	0.044608
122	0xbd8c8937	-0.06862109
123	0xbc386c69	-0.011256316
124	0x3da00c62	0.07814862
125	0x3e018b3d	0.12650771
126	0x3d989fe9	0.074523754
127	0x3d8b4851	0.06800903

elmoments.0.weight f4 [128, 128]
0	0x3db23819	0.08702106
1	0xbd9b65e5	-0.07587794
2	0xbda76bf1	-0.08174885
3	0x3c459ffb	0.012062068
4	0xbd71e2c8	-0.059054166
5	0x3d79ff49	0.061034475
6	0x3d10a5eb	0.03531448
7	0xbd911a1e	-0.070850596
8	0x3dd36595	0.103221096
9	0x3de51e90	0.1118747
10	0xbe0fa824	-0.14028984
11	0xbd7f3ec5	-0.06231572
12	0xbdc47cd6	-0.09594123
13	0xbe528cc7	-0.20561515
14	0x3cf48943	0.029850608
15	0x3cba2928	0.022724703
16	0xbd244665	-0.040106196
17	0x3ccccddd	0.025000507
18	0xbca12de7	-0.019675208
19	0x3cb926a7	0.022601439
20	0xbda30ebd	-0.079617955
21	0xbc672654	-0.014108259
22	0xbdcbedcb	-0.09957465
23	0x3d5574b7	0.05211326
24	0xbe2bfc24	-0.16795403
25	0xbd496036	-0.04916402
26	0xbc5fd95a	-0.0136626605
27	0x3cfd5160	0.030922592
28	0xbd3d28c0	-0.04618144
29	0x3e4734a1	0.1945367
30	0xbd93fced	-0.07225976
31	0x3c1ef784	0.009702567
32	0x3cbeeb6b	0.023305615
33	0xbc1d5f55	-0.009605248
34	0xbd37ac59	-0.044842098
35	0xbb8c5b9f	-0.004283383
36	0xbcf099c7	-0.029370202
37	0xbe1cfb43	-0.15330224
38	0xbd01ef88	-0.031722575
39	0x3d45a22e	0.04825037
40	0xbdcc486f	-0.09974753
41	0x3ca7d1ba	0.020485748
42	0x3d818ee8	0.06326085
43	0x3d9cdaf4	0.076589495
44	0xbda22146	-0.07916503
45	0xbd2afc5d	-0.04174458
46	0xbda476d7	-0.080304794
47	0xbdc57439	-0.09641308
48	0xbdecd688	-0.11564356
49	0xbd09c9e8	-0.03363982
50	0xbd579e10	-0.052640975
51	0xbd14c05b	-0.036316257
52	0x3c83c989	0.01608731
53	0x3db1c5cc	0.08680305
54	0xbb8c362c	-0.0042789187
55	0xbd167df1	-0.0367412
56	0xbd061190	-0.032731593
57	0x3cf43ac0	0.02981317
58	0xbc7ec2c6	-0.015549367
59	0xbe4a794c	-0.19772834
60	0x3d86b696	0.06577794
61	0x3d0168dd	0.031594146
62	0x3dfa965c	0.1223571
63	0x3d1e8d6d	0.038709093
64	0xbc70a441	-0.014687599
65	0xbcdc5981	-0.026898148
66	0x3b5abb95	0.0033375968
67	0xbdcd5351	-0.10025657
68	0xbe05f79d	-0.13082738
69	0xbcadc804	-0.021213539
70	0xbd7f19f2	-0.062280603
71	0x3c0d6fa2	0.008632572
72	0x3c22da74	0.009939779
73	0xbcaebc2c	-0.021329962
74	0x3d93b770	0.07212722
75	0xbbd791b5	-0.006578649
76	0xbd6046c4	-0.054754987
77	0xbe03995d	-0.12851472
78	0xbac58574	-0.0015069679
79	0x3a36d6ea	0.0006974774
80	0x3d9461c4	0.0724521
81	0xbd3a846f	-0.045536455
82	0x3b4fd4c6	0.0031712516
83	0x3cd0dec9	0.025496857
84	0xbd4b4080	-0.04962206
85	0xbc0e321e	-0.008678941
86	0x3dc0c7cf	0.094131105
87	0xbd0e70ce	-0.034775548
88	0x3d30f4bd	0.04320215
89	0x3cfbb9f0	0.03072831
90	0x3d73b540	0.059499025
91	0x3d4ee89a	0.050514795
92	0x3e084070	0.13305831
93	0x3ceb3798	0.028713033
94	0x3d15e5b4	0.036596015
95	0xbc754bc7	-0.01497168
96	0xbd3b5dfc	-0.045743927
97	0x3e19f1d0	0.1503365
98	0xbd83d75e	-0.064375624
99	0x3d882d52	0.06649269
100	0x3e103486	0.14082536
101	0x3df98a2a	0.12184556
102	0xbd8f441f	-0.06995415
103	0xbd7cab02	-0.061686523
104	0x3d374ba3	0.044749867
105	0xbda90a1d	-0.08253882
106	0x3c90b40d	0.01766398
107	0x3dc87440	0.09787798
108	0x3bc585d0	0.0060279146
109	0x3da6ee4f	0.081509225
110	0xbe0936fc	-0.13399881
111	0x3de93a25	0.11388043
112	0x3e1d06f5	0.15334685
113	0xbe424626	-0.18972072
114	0xbda04036	-0.07824747
115	0x3d813595	0.06309048
116	0xbb396198	-0.002828693
117	0xbd02c6ab	-0.031927746
118	0xbd0626a5	-0.032751698
119	0x3d32c2ee	0.04364293
120	0xbdcd8e70	-0.100369334
121	0xbd359803	-0.044334423
122	0x3d1a9008	0.037735015
123	0x3cb73694	0.022364892
124	0xbe0e1e6e	-0.13878796
125	0x3e09718f	0.13422225
126	0xbdeeacda	-0.116540626
127	0x3de69e7a	0.11260696
128	0x3c730616	0.014832994
129	0x3cfe6f38	0.031058893
130	0x3d5b7abe	0.053583853
131	0x3d192583	0.03738929
132	0x3d768e61	0.060194377
133	0x3d9a236d	0.07526288
134	0xbe5856fc	-0.21126932
135	0xbd3331ce	-0.04374867
136	0xbe2b5340	-0.16730976
137	0xbdda2a23	-0.10652568
138	0x3e2f94d3	0.17146616
139	0x3c81dfe5	0.015853832
140	0x3c882645	0.01661981
141	0x3d727e54	0.059202507
142	0xbd885615	-0.06657044
143	0x3d220c35	0.039562423
144	0xbce9a646	-0.028521668
145	0xbe654d8d	-0.22392865
146	0x3c928262	0.017884437
147	0x3c85df17	0.01634173
148	0x3d0a8ae5	0.033823866
149	0x3d4f1aca	0.050562657
150	0x3ca3ffee	0.020019498
151	0x3cfbc3d8	0.030733034
152	0x3deaa8c6	0.11457972
153	0x3de40459	0.11133642
154	0xbde24e08	-0.110500395
155	0x3d3b9ba7	0.04580274
156	0xbd670543	-0.056401502
157	0x3dc34ccd	0.09536133
158	0x3da18d66	0.07888298
159	0xbd8eb767	-0.06968575
160	0x3de00e4d	0.10940228
161	0x3c81b897	0.01583509
162	0x3d27e071	0.04098553
163	0x3cbe6a44	0.02324403
164	0x3e3d041d	0.184586
165	0xbdee9ef7	-0.11651414
166	0x3dac11e8	0.08401853
167	0xbdc82d23	-0.09774234
168	0xbd61aa41	-0.055094007
169	0xbd7b50e9	-0.06135646
170	0xbd1773f6	-0.036975823
171	0xbdae19dd	-0.08501027
172	0x3d05a3e0	0.032626987
173	0x3d84c26c	0.064823955
174	0x3dc03d46	0.09386687
175	0x3d0511f4	0.032487825
176	0x3c8db80f	0.01729968
177	0xbcd393a2	-0.025827233
178	0x3d3d2b61	0.046183947
179	0x3de70fe7	0.1128233
180	0x3d095e4a	0.033537187
181	0x3d2c1a37	0.042017188
182	0x3d3c46d1	0.045965973
183	0xbdcd67e4	-0.10029581
184	0x3d858d4b	0.0652109
185	0x3a8726af	0.0010311211
186	0xbdb7b6a6	-0.08970384
187	0x3b589063	0.0033045046
188	0xbd5a18bc	-0.053246245
189	0xbd8c0d3f	-0.06838464
190	0xbd8a6e5a	-0.06759329
191	0xbd91549a	-0.070962146
192	0xbd0f63e7	-0.035007384
193	0xbd7c0ca3	-0.06153549
194	0xbdfebda8	-0.12438518
195	0xbdaa4a6c	-0.08314976
196	0x3d9be630	0.07612264
197	0x3da42aae	0.08015953
198	0xbd86fac6	-0.065908
199	0xbd965e13	-0.07342162
200	0xbd311ffa	-0.043243386
201	0x3d3993d7	0.045307007
202	0x3dc950a6	0.098298356
203	0x3d3ca106	0.046052
204	0xbe723217	-0.2365192
205	0xbe0a5573	-0.13509159
206	0x3d0b31a7	0.0339829
207	0xbd922226	-0.071354195
208	0x3da9154c	0.08256015
209	0xbb8069cf	-0.0039188634
210	0x3d010f9a	0.03150902
211	0xbd562a5e	-0.0522865
212	0xbd8ae79a	-0.06782456
213	0xbcadc0b8	-0.02121006
214	0x3d8695a8	0.065715134
215	0x3c4c6f25	0.012477671
216	0xbc905533	-0.017618751
217	0xbd9c4d87	-0.07631975
218	0xbcf7bc70	-0.030241221
219	0xbdba55fc	-0.090984315
220	0x3e1f9c33	0.15586929
221	0x3ce4f964	0.02795095
222	0xbc2674c3	-0.010159674
223	0xbdefc0bc	-0.11706683
224	0xbdc7aa8d	-0.09749327
225	0xbc0c86d5	-0.008577068
226	0x3cabdeff	0.020980356
227	0x3dd1fee3	0.10253694
228	0xbcf09111	-0.029366048
229	0xbd2ab09c	-0.041672334
230	0x3c3bf0c1	0.011470974
231	0x3d9edc96	0.07756917
232	0x3ded0804	0.115737945
233	0x3dc0bd2c	0.09411082
234	0xbc50df20	-0.01274851
235	0x3d62b268	0.055345923
236	0xbaaac4b8	-0.0013028597
237	0xbe3cdab1	-0.18442799
238	0x3ca4f4b5	0.020136217
239	0x3c3f685b	0.011682595
240	0xbdd64541	-0.10462428
241	0x3d3df024	0.046371594
242	0x3d53a350	0.05166942
243	0x3dbaf05f	0.091278784
244	0xbdd32060	-0.103089094
245	0x3e43f52c	0.19136494
246	0xbd616c56	-0.055034958
247	0xbd8f6193	-0.07001033
248	0xbd8ec20c	-0.06970605
249	0xbd294a27	-0.041330483
250	0x3cd0e9ef	0.025502173
251	0xbd90c222	-0.07068278
252	0x3e388d46	0.18022642
253	0xbe22bd4e	-0.15892527
254	0xbd95c3cf	-0.07312738
255	0xbda9c337	-0.082891874

elmoments.0.bias f4 [128]
0	0x00000000	0.0
1	0x00000000	0.0
2	0x00000000	0.0
3	0x00000000	0.0
4	0x00000000	0.0
5	0x00000000	0.0
6	0x00000000	0.0
7	0x00000000	0.0
8	0x00000000	0.0
9	0x00000000	0.0
10	0x00000000	0.0
11	0x00000000	0.0
12	0x00000000	0.0
13	0x00000000	0.0
14	0x00000000	0.0
15	0x00000000	0.0
16	0x00000000	0.0
17	0x00000000	0.0
18	0x00000000	0.0
19	0x00000000	0.0
20	0x00000000	0.0
21	0x00000000	0.0
22	0x00000000	0.0
23	0x00000000	0.0
24	0x00000000	0.0
25	0x00000000	0.0
26	0x00000000	0.0
27	0x00000000	0.0
28	0x00000000	0.0
29	0x00000000	0.0
30	0x00000000	0.0
31	0x00000000	0.0
32	0x00000000	0.0
33	0x00000000	0.0
34	0x00000000	0.0
35	0x00000000	0.0
36	0x00000000	0.0
37	0x00000000	0.0
38	0x00000000	0.0
39	0x00000000	0.0
40	0x00000000	0.0
41	0x00000000	0.0
42	0x00000000	0.0
43	0x00000000	0.0
44	0x00000000	0.0
45	0x00000000	0.0
46	0x00000000	0.0
47	0x00000000	0.0
48	0x00000000	0.0
49	0x00000000	0.0
50	0x00000000	0.0
51	0x00000000	0.0
52	0x00000000	0.0
53	0x00000000	0.0
54	0x00000000	0.0
55	0x00000000	0.0
56	0x00000000	0.0
57	0x00000000	0.0
58	0x00000000	0.0
59	0x00000000	0.0
60	0x00000000	0.0
61	0x00000000	0.0
62	0x00000000	0.0
63	0x00000000	0.0
64	0x00000000	0.0
65	0x00000000	0.0
66	0x00000000	0.0
67	0x00000000	0.0
68	0x00000000	0.0
69	0x00000000	0.0
70	0x00000000	0.0
71	0x00000000	0.0
72	0x00000000	0.0
73	0x00000000	0.0
74	0x00000000	0.0
75	0x00000000	0.0
76	0x00000000	0.0
77	0x00000000	0.0
78	0x00000000	0.0
79	0x00000000	0.0
80	0x00000000	0.0
81	0x00000000	0.0
82	0x00000000	0.0
83	0x00000000	0.0
84	0x00000000	0.0
85	0x00000000	0.0
86	0x00000000	0.0
87	0x00000000	0.0
88	0x00000000	0.0
89	0x00000000	0.0
90	0x00000000	0.0
91	0x00000000	0.0
92	0x00000000	0.0
93	0x00000000	0.0
94	0x00000000	0.0
95	0x00000000	0.0
96	0x00000000	0.0
97	0x00000000	0.0
98	0x00000000	0.0
99	0x00000000	0.0
100	0x00000000	0.0
101	0x00000000	0.0
102	0x00000000	0.0
103	0x00000000	0.0
104	0x00000000	0.0
105	0x00000000	0.0
106	0x00000000	0.0
107	0x00000000	0.0
108	0x00000000	0.0
109	0x00000000	0.0
110	0x00000000	0.0
111	0x00000000	0.0
112	0x00000000	0.0
113	0x00000000	0.0
114	0x00000000	0.0
115	0x00000000	0.0
116	0x00000000	0.0
117	0x00000000	0.0
118	0x00000000	0.0
119	0x00000000	0.0
120	0x00000000	0.0
121	0x00000000	0.0
122	0x00000000	0.0
123	0x00000000	0.0
124	0x00000000	0.0
125	0x00000000	0.0
126	0x00000000	0.0
127	0x00000000	0.0

elmoments.2.weight f4 [128, 128]
0	0x3dda9290	0.10672486
1	0xbe415a67	-0.18882142
2	0x3d165003	0.0366974
3	0x3d1d09e2	0.038339503
4	0x3b992629	0.0046737385
5	0xbc389113	-0.011265057
6	0x3d01b5c9	0.031667504
7	0x3bcc2b7a	0.0062307687
8	0x3bb04f28	0.00538053
9	0xbdb2d68f	-0.0873233
10	0x3d625686	0.055258296
11	0x3c05c57f	0.0081647625
12	0x3daceba2	0.08443381
13	0xba4c8a13	-0.0007802557
14	0x3c35fd81	0.011107803
15	0x3d4404f3	0.047856282
16	0x3d8f540b	0.06998452
17	0xbe2bb2ca	-0.16767421
18	0x3d12748c	0.03575568
19	0x3c7cace0	0.015422076
20	0xbe3d94b8	-0.18513763
21	0xbca0a4d2	-0.019609842
22	0x3d4da47b	0.05020569
23	0x3b5999e3	0.0033203296
24	0x3c1a5b85	0.009421234
25	0x3c855c3a	0.016279329
26	0xbc5f3548	-0.013623543
27	0xbb9210ee	-0.0044575846
28	0x3c9d9758	0.019237205
29	0x3c32b810	0.010908142
30	0x3e1c79a9	0.15280785
31	0xbd335e78	-0.043791264
32	0x3dfcfa83	0.12352469
33	0x3dea1343	0.11429455
34	0xbe142c94	-0.1447013
35	0xbd99b2d4	-0.07504812
36	0xbd84281b	-0.06452962
37	0xbc5fcf7c	-0.013660308
38	0x3d9164c3	0.07099297
39	0x3e27e303	0.16395192
40	0x3dc8f76a	0.098128155
41	0xbb935964	-0.00449674
42	0x3d301bbc	0.0429952
43	0x3dd1bd05	0.10241131
44	0x3dba1204	0.090854675
45	0x3de07c07	0.10961156
46	0xbcfe28e5	-0.03102536
47	0xbd740836	-0.059578143
48	0x3d02fd47	0.031979825
49	0xbde113c6	-0.109900996
50	0xbd4a4be3	-0.049388777
51	0xbe0fdad1	-0.14048316
52	0x3d967294	0.07346073
53	0xbd036a81	-0.032083992
54	0xbd9298a6	-0.07158022
55	0x3da631aa	0.081149414
56	0xbd4fde42	-0.05074907
57	0xbe8a62f4	-0.2702862
58	0x3e38a9e6	0.18033561
59	0xbd8dd35c	-0.06925079
60	0xbe033963	-0.1281486
61	0x3d4bf7c5	0.04979684
62	0x3e1caf8f	0.15301345
63	0xbdabf65e	-0.083966
64	0xbce2c551	-0.027681978
65	0xbdb946ae	-0.09046684
66	0x3c5183d8	0.012787782
67	0xbdba5bbf	-0.090995304
68	0xbe07ac6f	-0.13249372
69	0x3e626eb2	0.2211254
70	0x3c367357	0.011135898
71	0xbdb990c5	-0.09060816
72	0xbd68f9d9	-0.0568789
73	0xbd3ba4bb	-0.045811396
74	0x3dc2f776	0.09519856
75	0x3c0f4252	0.008743839
76	0xbd6500d7	-0.055909004
77	0x3d0412e5	0.03224458
78	0xbdb08b50	-0.08620322
79	0xbdb81426	-0.08988218
80	0x3c1dc04f	0.0096283695
81	0xbd3bde34	-0.045866206
82	0x3d02acdd	0.031903137
83	0xbdba1ae0	-0.09087157
84	0x3d9ca95b	0.076494895
85	0x3db3a5fa	0.08771892
86	0xbdefc7a3	-0.117079996
87	0x3da8553a	0.08219381
88	0xbe2bccbb	-0.16777317
89	0x3b08782a	0.0020823576
90	0x3d9a5a7a	0.07536788
91	0xbcfd1c27	-0.030897213
92	0x3d569582	0.052388676
93	0x3bfc528a	0.007700269
94	0x3dd0651a	0.101755336
95	0xbdb2ef04	-0.08736995
96	0x3dc9c5f2	0.09852208
97	0x3c6734a7	0.014111674
98	0x3d5bc147	0.05365112
99	0x3c02772c	0.007962983
100	0x3d291c8c	0.04128699
101	0x3b81b6d0	0.0039585605
102	0x3d5214da	0.051289417
103	0xbe09427e	-0.13404271
104	0x3e80851b	0.2510155
105	0xbd9a82c5	-0.075444736
106	0x3d315cb4	0.0433013
107	0xbc10153d	-0.008794126
108	0xbd27211e	-0.040803067
109	0x3c506c25	0.012721096
110	0x39ff25cd	0.00048665554
111	0xbe30a11d	-0.1724896
112	0xbc75cc3c	-0.015002307
113	0xbd2dd681	-0.042440895
114	0xbb8d761e	-0.004317059
115	0x3cc692c9	0.024239914
116	0xbe0455d3	-0.12923364
117	0xbd0bcac6	-0.034128927
118	0xbd8198d0	-0.06327975
119	0x3d74df6c	0.059783384
120	0xbd9f5241	-0.077793606
121	0xbcb16f89	-0.02165963
122	0xbda94ec7	-0.08266979
123	0x3cd5564f	0.026042132
124	0xbe74841d	-0.23878522
125	0xbb190247	-0.0023347305
126	0x3de9c69b	0.11414834
127	0xbd14d118	-0.03633222
128	0x3dc90930	0.098162055
129	0xbd867d35	-0.0656685
130	0x3e36c885	0.1784993
131	0xbdc6bc2f	-0.09703862
132	0x3d884127	0.06653052
133	0x3ce076bf	0.027400373
134	0xbcc40d2f	-0.023932068
135	0xbe030880	-0.12796211
136	0x3cd05c10	0.025434524
137	0x3df2428e	0.118291005
138	0xbe06b262	-0.13153985
139	0xbd59d92f	-0.053185638
140	0x3d44f6d4	0.048086956
141	0xbde75aa4	-0.11296585
142	0xbc4a2154	-0.012337048
143	0x3d1e8a43	0.038706075
144	0xbd6e1112	-0.05812175
145	0x3e2b24f9	0.16713323
146	0xbd2b03c7	-0.04175165
147	0x3dc2812a	0.09497292
148	0xbe050ed8	-0.12993944
149	0xbc9073f8	-0.017633423
150	0xbe1b683a	-0.15176478
151	0xbdd0592b	-0.101732574
152	0xbc553d39	-0.013015085
153	0xbd74e93e	-0.05979275
154	0xbd65e73d	-0.05612873
155	0xbc6e208b	-0.014534126
156	0x3dedead9	0.11617059
157	0x3e42dd36	0.19029698
158	0x3e14831f	0.14503144
159	0xbd0fac95	-0.035076696
160	0x3caf3dac	0.021391712
161	0x3d51acf5	0.051190335
162	0x3c3778a1	0.011198194
163	0x3de6a6d3	0.11262288
164	0xbd0df04b	-0.03465299
165	0xbb363fe3	-0.0027809076
166	0x3c29228f	0.010323181
167	0x3ca1067b	0.01965641
168	0xbd54b096	-0.051926218
169	0x3ddb8cd3	0.107202195
170	0x3bf460e4	0.0074578393
171	0xbd85b1a8	-0.06528026
172	0xbc2a4533	-0.010392475
173	0xbd83e57d	-0.06440256
174	0xbda9a65a	-0.08283682
175	0xbba69899	-0.005084109
176	0x3da09e61	0.078427084
177	0xbe536eef	-0.20647787
178	0x3e23c7fc	0.15994257
179	0xbd821065	-0.06350783
180	0xbd53ae3b	-0.05167983
181	0x3d995369	0.07486612
182	0xbd2f74f9	-0.042836163
183	0xbded7f95	-0.115966
184	0x3c94843d	0.018129462
185	0xbbd37660	-0.0064533204
186	0xbdb8b354	-0.09018579
187	0x3ab2d7d0	0.0013644639
188	0xbdd08f43	-0.10183575
189	0xbdcab428	-0.09897643
190	0xbd85ac5e	-0.06527017
191	0x3d17a289	0.03702024
192	0x3cb7858e	0.022402551
193	0x3dac0762	0.08399846
194	0x3c2f811c	0.010711934
195	0xbd1a2be1	-0.037639502
196	0xbdc00b10	-0.0937711
197	0xbc40735e	-0.011746256
198	0x3e00bd92	0.12572315
199	0xbd1e2744	-0.038611665
200	0x3d2d27a0	0.042274117
201	0x3d80b71d	0.06284926
202	0xbc8c7c25	-0.01714904
203	0x3c9e20da	0.019302774
204	0xbdc911a3	-0.09817817
205	0xbd88c9bb	-0.06679102
206	0x3d6797aa	0.056541122
207	0xbd88773e	-0.06663369
208	0x3dcc326c	0.09970555
209	0x3d38fa6d	0.0451607
210	0x3de47fd0	0.11157191
211	0x3dfa151c	0.122110575
212	0x3d8f58f5	0.06999389
213	0x3d5bcdec	0.05366318
214	0x3e16db6d	0.14732142
215	0x3de5dd60	0.112238646
216	0xbdf806da	-0.12110682
217	0x3deab836	0.11460917
218	0xbe0be5bc	-0.13661855
219	0xbd66c48b	-0.05633978
220	0xbdb1db6e	-0.08684431
221	0xbcad48e2	-0.021152917
222	0xbd0f78c7	-0.03502729
223	0x3cc719fb	0.02430438
224	0x3d9ef4c3	0.07761528
225	0x3ddd449f	0.10804104
226	0xbcd047b2	-0.025424812
227	0xbc2276e1	-0.009916038
228	0xbbba392a	-0.005683084
229	0xbdb7c0a4	-0.0897229
230	0xbe3be019	-0.18347205
231	0xbd6f5578	-0.05843112
232	0x3b8405a4	0.0040289927
233	0x3bc7b1b3	0.0060941814
234	0xbd8414e8	-0.064493
235	0x3c9b138e	0.018930223
236	0x3d956def	0.07296359
237	0x3cd3633f	0.02580416
238	0x3e0c2486	0.13685808
239	0xbd6a48c2	-0.057198294
240	0xbd680f43	-0.05665518
241	0x3c5d14dc	0.013493743
242	0x3dce6e9d	0.100796916
243	0xbda1780c	-0.07884225
244	0x3a815391	0.0009866824
245	0x3c4a63be	0.012352882
246	0xbe17829f	-0.14795922
247	0x3cbfb85c	0.02340334
248	0x3d0309f7	0.031991925
249	0xbde3da28	-0.111255944
250	0x3e2e9fff	0.17053221
251	0x3d836024	0.06414822
252	0xbe6556d6	-0.22396407
253	0xbdab1afb	-0.083547555
254	0x3dad07b4	0.08448735
255	0xbe3b2095	-0.18274148

elmoments.2.bias f4 [128]
0	0x00000000	0.0
1	0x00000000	0.0
2	0x00000000	0.0
3	0x00000000	0.0
4	0x00000000	0.0
5	0x00000000	0.0
6	0x00000000	0.0
7	0x00000000	0.0
8	0x00000000	0.0
9	0x00000000	0.0
10	0x00000000	0.0
11	0x00000000	0.0
12	0x00000000	0.0
13	0x00000000	0.0
14	0x00000000	0.0
15	0x00000000	0.0
16	0x00000000	0.0
17	0x00000000	0.0
18	0x00000000	0.0
19	0x00000000	0.0
20	0x00000000	0.0
21	0x00000000	0.0
22	0x00000000	0.0
23	0x00000000	0.0
24	0x00000000	0.0
25	0x00000000	0.0
26	0x00000000	0.0
27	0x00000000	0.0
28	0x00000000	0.0
29	0x00000000	0.0
30	0x00000000	0.0
31	0x00000000	0.0
32	0x00000000	0.0
33	0x00000000	0.0
34	0x00000000	0.0
35	0x00000000	0.0
36	0x00000000	0.0
37	0x00000000	0.0
38	0x00000000	0.0
39	0x00000000	0.0
40	0x00000000	0.0
41	0x00000000	0.0
42	0x00000000	0.0
43	0x00000000	0.0
44	0x00000000	0.0
45	0x00000000	0.0
46	0x00000000	0.0
47	0x00000000	0.0
48	0x00000000	0.0
49	0x00000000	0.0
50	0x00000000	0.0
51	0x00000000	0.0
52	0x00000000	0.0
53	0x00000000	0.0
54	0x00000000	0.0
55	0x00000000	0.0
56	0x00000000	0.0
57	0x00000000	0.0
58	0x00000000	0.0
59	0x00000000	0.0
60	0x00000000	0.0
61	0x00000000	0.0
62	0x00000000	0.0
63	0x00000000	0.0
64	0x00000000	0.0
65	0x00000000	0.0
66	0x00000000	0.0
67	0x00000000	0.0
68	0x00000000	0.0
69	0x00000000	0.0
70	0x00000000	0.0
71	0x00000000	0.0
72	0x00000000	0.0
73	0x00000000	0.0
74	0x00000000	0.0
75	0x00000000	0.0
76	0x00000000	0.0
77	0x00000000	0.0
78	0x00000000	0.0
79	0x00000000	0.0
80	0x00000000	0.0
81	0x00000000	0.0
82	0x00000000	0.0
83	0x00000000	0.0
84	0x00000000	0.0
85	0x00000000	0.0
86	0x00000000	0.0
87	0x00000000	0.0
88	0x00000000	0.0
89	0x00000000	0.0
90	0x00000000	0.0
91	0x00000000	0.0
92	0x00000000	0.0
93	0x00000000	0.0
94	0x00000000	0.0
95	0x00000000	0.0
96	0x00000000	0.0
97	0x00000000	0.0
98	0x00000000	0.0
99	0x00000000	0.0
100	0x00000000	0.0
101	0x00000000	0.0
102	0x00000000	0.0
103	0x00000000	0.0
104	0x00000000	0.0
105	0x00000000	0.0
106	0x00000000	0.0
107	0x00000000	0.0
108	0x00000000	0.0
109	0x00000000	0.0
110	0x00000000	0.0
111	0x00000000	0.0
112	0x00000000	0.0
113	0x00000000	0.0
114	0x00000000	0.0
115	0x00000000	0.0
116	0x00000000	0.0
117	0x00000000	0.0
118	0x00000000	0.0
119	0x00000000	0.0
120	0x00000000	0.0
121	0x00000000	0.0
122	0x00000000	0.0
123	0x00000000	0.0
124	0x00000000	0.0
125	0x00000000	0.0
126	0x00000000	0.0
127	0x00000000	0.0

elmoments.4.weight f4 [4, 128]
0	0xbd29ba09	-0.041437183
1	0x3c411933	0.011785793
2	0xbdde73ab	-0.10861906
3	0xbdc74cb8	-0.0973143
4	0xbe6a81c2	-0.22901061
5	0xbe140c17	-0.14457737
6	0x3d483c8a	0.04888586
7	0x3e0e7888	0.13913167
8	0xbdc70108	-0.097169936
9	0x3be610c2	0.0070210407
10	0x3d612f52	0.05497677
11	0xbd8de189	-0.06927783
12	0x3b9a2ddd	0.0047051744
13	0xbddee6f0	-0.108838916
14	0x3e1528dd	0.1456637
15	0x3e0a27c4	0.13491732
16	0xbd2aa1b2	-0.04165811
17	0x3e0c13f3	0.13679485
18	0xbd6ef7b4	-0.058341697
19	0xbc18a432	-0.009316491
20	0x3cb5f762	0.022212688
21	0x3da0b9c0	0.07847929
22	0x3d7faec2	0.06242252
23	0xbd107f95	-0.03527792
24	0x3e191a50	0.14951444
25	0x3e2eeecc	0.17083281
26	0xbc1ae2ea	-0.009453515
27	0x3ddc2198	0.10748595
28	0xbd22eeda	-0.039778568
29	0x3d1786c4	0.036993757
30	0xbdc438a6	-0.09581117
31	0x3d223c6b	0.0396084
32	0xbd1da612	-0.038488455
33	0x3dcd1a64	0.10014799
34	0xbe5d2f72	-0.2160013
35	0x3da2b3e9	0.079444714
36	0x3d8be30f	0.06830417
37	0xbc0077a9	-0.007841029
38	0x3ca163f7	0.019700987
39	0xbe0373d4	-0.12837154
40	0xbdf76c88	-0.120812476
41	0xbb2513d9	-0.0025188832
42	0xbdf48073	-0.11938562
43	0xbd89c92e	-0.06727825
44	0x3d9cc044	0.07653859
45	0xbdd1230c	-0.10211763
46	0xbd97b514	-0.07407585
47	0x3c70d88b	0.014700065
48	0xbd936ce6	-0.07198505
49	0x3d24cdae	0.040235214
50	0xbe211532	-0.15730742
51	0x3d77fc44	0.060543314
52	0xbcadd35a	-0.021218944
53	0x3d8d492f	0.06898724
54	0x3b9ac6c8	0.0047234036
55	0x3cc04cd8	0.023474142
56	0x3d5d16e7	0.05397692
57	0xbd80b8b3	-0.062852286
58	0x3dfcd603	0.12345507
59	0x3e4aa4df	0.19789456
60	0x3d8e4b16	0.06947915
61	0xbde0e031	-0.10980261
62	0x3db47c19	0.08812732
63	0xbdcbf9c6	-0.0995975
64	0xbd57d634	-0.052694514
65	0xbd9fbb52	-0.077994004
66	0xbd01e9f8	-0.03171727
67	0x3c8a91c8	0.016915217
68	0x3dc73578	0.09726995
69	0xbd3abd6c	-0.045590803
70	0xbddab188	-0.10678393
71	0x3e5b70f4	0.21429807
72	0xbe02e55a	-0.12782803
73	0xbcc3e1bb	-0.023911348
74	0x3dcb2181	0.099185
75	0xbd48d76f	-0.04903358
76	0xbe4feb5b	-0.20304625
77	0xbdb3bf32	-0.08776702
78	0x3b8d2268	0.00430708
79	0xbe01260d	-0.12612171
80	0xbc649b5e	-0.013953058
81	0x3cf5f429	0.030023651
82	0x3d0d0373	0.034427118
83	0xbe466e2a	-0.19377962
84	0x3d22e808	0.039772063
85	0x3de2155d	0.11039231
86	0x3e17c174	0.1481989
87	0x3d26ed5e	0.040753715
88	0x3dab8e31	0.0837673
89	0x3e2043e8	0.15650904
90	0xbd0352eb	-0.0320615
91	0x3dac1d45	0.0840402
92	0x3ca0fee9	0.0196528
93	0x3e37a429	0.17933716
94	0xbd6778be	-0.056511633
95	0xbdc0c7a5	-0.09413079
96	0xbd9e09a1	-0.0771668
97	0x3d4b9bfd	0.04970931
98	0x3d0d9b00	0.034571648
99	0x3b586957	0.0033021772
100	0xbe4967f0	-0.19668555
101	0xbd2bd504	-0.041951194
102	0xbd3f654e	-0.04672747
103	0x3cdf3861	0.027248563
104	0xbd1818e4	-0.037133113
105	0xbd33af01	-0.04386807
106	0x3d8d7a9e	0.06908153
107	0xbde3b69c	-0.11118814
108	0x3d940d29	0.072290726
109	0x3b7d2315	0.0038625647
110	0xbdbbe815	-0.091751255
111	0x3c95cf19	0.018287228
112	0xbd19c3f9	-0.03754041
113	0x3dafb464	0.08579329
114	0x3e56f40b	0.20991533
115	0xbdad56e1	-0.084638365
116	0x3da57a48	0.08079964
117	0xbd70724d	-0.058702756
118	0x3e3ea43c	0.18617338
119	0x3d8c2170	0.06842315
120	0x3d6fad55	0.05851491
121	0x3cf83d60	0.030302703
122	0xbb9ed3f5	-0.0048470446
123	0xbd5ae420	-0.053440213
124	0xbda8a3f6	-0.08234398
125	0x3b246826	0.0025086491
126	0xbc0f3537	-0.008740715
127	0xbe07f690	-0.1327765
128	0x3d12b693	0.035818648
129	0xbd9f0157	-0.077639274
130	0x3c98f0ba	0.018669475
131	0xbcf05e25	-0.029341767
132	0x3e00bfdd	0.1257319
133	0xbd0a152c	-0.033711597
134	0xbdc63d48	-0.09679657
135	0x3c889a6f	0.016675202
136	0xbda940d1	-0.08264316
137	0xbd46b633	-0.048513602
138	0xbd00937a	-0.031390645
139	0xbbbae050	-0.0057030097
140	0xbdb09c9f	-0.08623623
141	0xbc9b0274	-0.018922068
142	0x3dd5fd4f	0.104487054
143	0x3c4e6b02	0.012598755
144	0x3dda619a	0.10663147
145	0x3c943d67	0.018095685
146	0x3cbfe5d4	0.02342502
147	0xbd516292	-0.051119395
148	0x3d871613	0.06596007
149	0xbc4ab070	-0.012371168
150	0x3cb417d1	0.021984013
151	0x3d39ad1b	0.045331102
152	0xbbc8aa42	-0.006123812
153	0xbe0fda79	-0.14048184
154	0xbe01bdbb	-0.12670033
155	0x3d2cd19f	0.042192098
156	0xbdee0f55	-0.11624018
157	0x3ceef237	0.029168231
158	0xbd70fff4	-0.058837846
159	0x3e497057	0.1967176
160	0x3d8933f0	0.066993594
161	0xbd5b7679	-0.05357978
162	0x3cb5ef8c	0.022208951
163	0x3e019b91	0.12657
164	0x3d2fc502	0.04291249
165	0xbdd39cb4	-0.10332623
166	0xbc1215c1	-0.008916319
167	0x3d91339d	0.070899226
168	0xbd17074d	-0.036872197
169	0xbe51f6ca	-0.20504299
170	0x3cbd125d	0.023080045
171	0xbd825916	-0.06364648
172	0x3b4f5891	0.0031638483
173	0x3db6afe6	0.08920269
174	0xbdd0b1da	-0.101901725
175	0x3dfc1644	0.12308934
176	0xbdeb7ef5	-0.114988245
177	0xbbe95fc8	-0.0071220137
178	0x3ca6a0e0	0.020340383
179	0xbc04e1f5	-0.008110513
180	0xbcbeae47	-0.023276461
181	0x3e011063	0.12603907
182	0x3e21eed9	0.1581377
183	0xbc23be3f	-0.009994089
184	0xbd61327f	-0.054979797
185	0xbe332ab4	-0.17496759
186	0xbdfeeb90	-0.12447274
187	0xbd8a2973	-0.06746187
188	0x3de48780	0.11158657
189	0x3e089266	0.13337097
190	0xbd3412d6	-0.043963276
191	0xbdef961f	-0.11698555
192	0x3dd09e51	0.101864465
193	0xbd5e55e1	-0.05428112
194	0xbdfdda60	-0.12395167
195	0xbd59049f	-0.052982923
196	0x3d89ccd0	0.06728518
197	0xbe0889b2	-0.13333777
198	0xbd861462	-0.065468565
199	0xbae25a92	-0.0017269424
200	0xbca000c7	-0.01953162
201	0x3d7b7692	0.061392374
202	0x3d9a9d1e	0.07549499
203	0x3ddf4168	0.10901147
204	0xbbf56921	-0.007489339
205	0x3d4be809	0.049781833
206	0xbd47b592	-0.048757143
207	0xbdcd4550	-0.10022986
208	0x38ae32c8	8.306425e-05
209	0xbda74649	-0.08167703
210	0xbd8babf5	-0.068199076
211	0xbe336032	-0.17517164
212	0x3c704512	0.014664905
213	0xbbb2686f	-0.0054445784
214	0xbd13f715	-0.036124308
215	0xbdefeb5b	-0.11714812
216	0xbd0c5f45	-0.034270544
217	0xbe07cd56	-0.13261923
218	0x3d1264dc	0.03574072
219	0x3d26305f	0.040573474
220	0x3dbdf126	0.09274511
221	0xbdd1d8f3	-0.10246458
222	0xbd4a649d	-0.04941236
223	0xbe166901	-0.14688493
224	0x3d7e005d	0.062012065
225	0xbd0c53eb	-0.034259718
226	0x3da39839	0.079880185
227	0xbc62390b	-0.013807545
228	0x3d9f5454	0.07779756
229	0xbc7e408c	-0.015518319
230	0x3c7a8d8b	0.015292536
231	0x3c32ab8b	0.010905157
232	0xbe0b5bd5	-0.1360925
233	0x3cf4ff92	0.029907022
234	0x3d27bb6c	0.040950224
235	0xbcd67dfa	-0.026183117
236	0xbd344e65	-0.044020075
237	0x3c2e94a1	0.010655553
238	0x3df9f708	0.122053206
239	0xbe3d2a12	-0.1847308
240	0xbca60039	-0.020263778
241	0xbd8ad4ba	-0.067788556
242	0x3db014a0	0.08597684
243	0x3cd4d361	0.0259797
244	0x3e016423	0.12635855
245	0x3c5e5bdb	0.013571705
246	0x3d53b711	0.051688258
247	0x3d0a9f43	0.03384329
248	0xbd5caf87	-0.053878333
249	0xbdac852b	-0.08423837
250	0x3d63ae5c	0.055586204
251	0x3dc74b94	0.09731212
252	0xbdf73bdd	-0.12071965
253	0x3df7b4bd	0.1209502
254	0xbdc0c5e7	-0.09412747
255	0xbe5dcec2	-0.21660903

elmoments.4.bias f4 [4]
0	0x00000000	0.0
1	0x00000000	0.0
2	0x00000000	0.0
3	0x00000000	0.0
