aimnet/pretrained/aimnet/aimnet_smd_cv4.pt (torch_old, 133555 bytes, 5 tensors)

energy.0.weight f4 [128, 128]
000000 94 bb a6 3c 01 08 7e 3d d8 ef af 3d 38 3b d4 bc
       0.020353116 0.062019352 0.085906684 -0.025907144
000010 16 b8 49 bd fe 84 ae bc 2b b0 33 3d c7 d9 42 bd
       -0.049247824 -0.02130365 0.04386918 -0.04757097
000020 48 f7 ee bc 1a 26 5e bd e2 ec 8f bb 41 b1 88 3d
       -0.029170647 -0.054235555 -0.0043922523 0.066744335
000030 c5 74 24 3c f2 29 a3 bc 21 55 90 3d d0 03 6e 3d
       0.010037606 -0.019917462 0.07047487 0.058109105
000040 a5 09 96 3d b1 e9 78 3d 77 3c fe 3c 1d a6 34 3d
       0.07326058 0.06076974 0.031034691 0.04410373
000050 6d f1 b2 3c 34 78 b5 bd 55 f5 c8 bc 29 a0 c4 3c
       0.021843636 -0.088608176 -0.024531046 0.024002152
000060 31 95 08 3d 61 a7 c3 bb 46 55 86 3c 9c d4 99 bd
       0.033345405 -0.005970881 0.016398083 -0.07511255
000070 37 db 6a 3d 15 24 b7 3c c8 7a fa 3c 11 77 c7 3d
       0.057337966 0.022356072 0.030576125 0.09739507
000080 2d 91 96 3d 8a bd 42 3d de c4 5b b9 eb 15 92 3d
       0.07351909 0.04754404 -0.00020958806 0.07133087
000090 2e 9b aa 3d 21 d1 43 bc 2e c5 85 3d 37 b7 72 3d
       0.083303794 -0.011951716 0.0653175 0.05925676
0000a0 59 a3 c5 3c 4c 63 89 3d 21 4b 92 bc 31 77 f5 3d
       0.024125742 0.067083925 -0.01785809 0.119856246
0000b0 c9 86 34 3d c5 1c fd bc 59 d5 a9 3d dd 86 24 bc
       0.044073854 -0.030897507 0.08292646 -0.01004192
0000c0 cc b7 17 bd 09 37 64 bd b7 c6 11 3d 97 41 3f bc
       -0.037040517 -0.055716548 0.0355899 -0.011673353
0000d0 9c 7c f4 3c 0e 5b 82 3c a2 05 66 3d fc 1e 94 3d
       0.029844575 0.015912559 0.056157716 0.07232472
0000e0 03 68 24 bc d6 b9 ea bb 32 91 90 3a 33 0c d0 bc
       -0.010034564 -0.0071632667 0.00110296 -0.025396442
0000f0 8e de 27 bd 71 cf 0c 3d c6 4b f1 bd c7 b2 b6 3d
       -0.04098373 0.03437752 -0.11782031 0.08920818
000100 23 9a 95 bd dc 4b 4b bd 17 76 86 bd 07 b2 92 bd
       -0.0730479 -0.049632892 -0.065654926 -0.07162862
000110 73 f8 30 3d 96 d5 91 3d 14 bd 8e bd 39 0f 18 bd
       0.04320569 0.071208164 -0.069696575 -0.037123892
000120 6e 3a ca 3c 12 2d 62 bd fb 9d 6e bd aa a4 30 3c
       0.024686065 -0.055218764 -0.05825613 0.0107814465
000130 54 fb 1a bc 2f 46 33 3d 22 cc 1f 3c a7 3c c3 3c
       -0.009459335 0.043768104 0.009753259 0.023832632
000140 cb 39 c8 bd 38 38 3f 3d c1 ab 82 3d 71 f7 bd bc
       -0.09776648 0.046684474 0.06380416 -0.023189278
000150 be 9d 41 ba 1a 35 40 3c 9a 7b 7e bd c8 43 51 3c
       -0.0007385871 0.01173141 -0.062129594 0.012772508
000160 e5 d7 48 bd 39 50 45 bd a8 00 04 3b 6c ef b6 bc
       -0.049034018 -0.04817221 0.0020141993 -0.022330962
000170 77 0d ee bd 8b be be 3d cc 82 8a 3d c1 d2 9d 3d
       -0.11623662 0.09313687 0.06763229 0.07706214
000180 2b 96 33 bc 2a 3d 03 3d 9f 7b a3 3d 04 a3 01 ba
       -0.010961096 0.032040752 0.07982563 -0.00049452507
000190 6f 49 35 3d a9 b1 5d 3c 9f 61 e4 bc 05 8e fc bb
       0.044259485 0.013531127 -0.02787858 -0.0077073597
0001a0 45 c4 ab 3c e7 21 17 bd ea 85 b1 3b 0f d9 da bc
       0.020967612 -0.036897566 0.005417575 -0.02671483
0001b0 1d 98 ea bd 18 66 cd 3b 84 4b b2 3d 56 9b 42 3d
       -0.114547946 0.006268274 0.0870581 0.04751142
0001c0 4e 6b 63 bd 59 64 dc 3c 70 5f 83 bd cf 5e 07 3e
       -0.055522256 0.026903318 -0.06414688 0.1321976
0001d0 1d 40 48 3d 79 20 99 3b b8 35 b4 bc 36 ff 85 bd
       0.04888927 0.0046730605 -0.021998271 -0.06542818
0001e0 5d 4e c8 3d 1f d4 8c 3d b1 d1 89 bb 50 48 95 ba
       0.097805716 0.068763964 -0.0042059054 -0.0011389349
0001f0 05 9d 0a 3e 2d bd 6e bd a3 f8 b8 bb 5c 0c 84 3d
       0.1353646 -0.05828588 -0.005644874 0.0644767
000200 05 18 bf bc 78 55 ff bd 23 0f 01 3d 84 3a 9c bc
       -0.023326883 -0.12467474 0.031508576 -0.019070871
000210 cd ce 4d bd 4c 0a a5 bd dc bc a6 3b 02 c2 2c bd
       -0.05024605 -0.080586046 0.0050884318 -0.042177208
000220 4b 6b 8c 3d dc 6c bc 3d 8d 35 9e 3b dd e0 bd bd
       0.06856402 0.09200451 0.004828161 -0.09271405
000230 0b 77 8a bd 49 5e 7b 3c 48 1d b4 bc 49 07 e1 bb
       -0.06760987 0.015342304 -0.021986619 -0.0068673235
000240 e8 3c 55 3d 2f bf 9b bd e3 e3 f9 3c be 22 3d 3c
       0.052060038 -0.07604825 0.030504173 0.011543928
000250 04 a8 42 bd e7 13 90 3d 1d 86 de 3d ba 14 10 3b
       -0.047523513 0.07035046 0.10865424 0.002198501
000260 36 8c 0a bd 91 cb 17 bd ee c1 77 bd c8 6e fe bd
       -0.03382512 -0.03705937 -0.06048768 -0.124234736
000270 97 8f 52 bd 86 4a 25 bd c6 93 db bc 44 e7 69 3c
       -0.05140647 -0.040354274 -0.026803862 0.014276329
000280 86 de e0 bd 10 96 a3 bd 0a 2a 0f be a8 2e 84 3d
       -0.10979943 -0.079876065 -0.1398088 0.064542115
000290 97 2d b7 3c b8 09 af bc 11 f4 2b 3c 31 4b 23 be
       0.022360606 -0.021366939 0.010495202 -0.15946652
0002a0 b0 e5 f0 3d 13 64 d5 bd 38 65 b7 3b d8 a5 53 3d
       0.117625594 -0.10419478 0.005596783 0.051671833
0002b0 7a 69 94 bd 2e 26 31 3c de 26 e8 bc 0d 40 13 3b
       -0.072466806 0.010812325 -0.028338846 0.0022468597
0002c0 8e eb c7 3d a8 a3 a3 3b fd e1 9e bd c3 98 d0 3d
       0.09761725 0.0049938746 -0.077579476 0.10185387
0002d0 ac ed c3 3d 4f 36 f3 3d 7e 3c ef bc d4 44 38 3d
       0.09566817 0.11875593 -0.02920365 0.044987515
0002e0 66 34 27 bd 14 8a 60 3d e8 7e 30 3b 89 72 46 3d
       -0.040821455 0.05481918 0.002693111 0.048449073
0002f0 f5 be 19 3d ff 61 1f 3d f0 7e 88 bc 29 6b 9a 3d
       0.037535626 0.038911816 -0.016662091 0.075399704
000300 86 f3 93 bd fc d0 00 be 2f 7d a2 3c 6d 12 3c bd
       -0.07224183 -0.12579721 0.019835083 -0.04591601
000310 4c ed a4 3c 4b cb c2 3c e0 ae a0 bd e0 35 76 3d
       0.020132683 0.023778578 -0.07845855 0.060109973
000320 aa 81 a8 bd cb 72 ac 3d 93 3d d6 3b 84 4c 02 be
       -0.082278565 0.084203325 0.006538102 -0.12724501
000330 14 7a 00 3d 92 e3 2c bc e8 83 63 3d 10 94 8d 3c
       0.031366423 -0.010552304 0.055545717 0.017282516
000340 b5 a5 a0 3d a3 e6 59 bd f3 19 6c bd 1d 28 74 bc
       0.07844106 -0.053198468 -0.057641935 -0.014902142
000350 ea 58 a6 bd a5 8e bc bd 8b 4b 5b bd fb 64 18 3d
       -0.08122428 -0.09206895 -0.05353884 0.037205677
000360 74 30 ee 3b 11 39 a0 bd 2d 15 df bb 4a 91 b6 bc
       0.0072689597 -0.078233846 -0.0068079443 -0.022286076
000370 64 80 23 bd 30 cc 97 3d 1d f0 c5 3d 7a b6 6d bd
       -0.039917365 0.074119925 0.096649386 -0.05803535
000380 bc 62 8b bc 57 5a 85 39 8e 0a 6c 3d 5f d4 c4 bd
       -0.017014854 0.00025435045 0.057627253 -0.09610819
000390 13 1a d1 3c 0b 93 e1 3c 9f 1b 99 3d 03 09 1b 3d
       0.025525128 0.027535936 0.074759714 0.03785039
0003a0 2a 8a 03 3d 7f 33 5a 3d b3 04 16 be 3c 61 37 3c
       0.032114185 0.053271767 -0.1465023 0.011192616
0003b0 16 ed 24 3d 8a 3e 11 bd 1d 4c 70 3c 96 10 82 bd
       0.040265165 -0.035460033 0.014666584 -0.0635082
0003c0 7e 1e 17 3e 56 af e5 bc 27 13 63 3d 58 d5 b0 bd
       0.14757726 -0.028037708 0.055438187 -0.08634442
0003d0 6a b2 6d bd aa e5 4b bc 8c 9e ad bd 47 6c dd bb
       -0.058031477 -0.012444893 -0.08477506 -0.0067572924
0003e0 62 67 9f 3d d8 5c 6a bd 16 54 5e 39 ef ba 14 bb
       0.077833906 -0.05721745 0.00021202894 -0.002269443
0003f0 9f 74 33 be e5 29 ea 3c 37 1f 7d bd f7 eb 82 3d
       -0.17524956 0.02858443 -0.061797347 0.06392663

energy.0.bias f4 [128]
000000 4d 90 15 bd dc 0c bd 35 a6 b4 0e bd 83 bd 27 bd
       -0.03651457 1.408534e-06 -0.03484025 -0.040952217
000010 02 18 45 3d e7 8a 86 3d 96 94 a1 ba 94 cf 52 3d
       0.0481186 0.06569462 -0.0012327607 0.051467493
000020 03 f5 03 3c ca 7e ce ba 52 eb 3f 3d ee 18 ed bc
       0.008054021 -0.0015754339 0.04685528 -0.028942551
000030 4f 2b 68 bd 41 d1 c8 bc 1b 57 54 bd 8b 26 b5 bc
       -0.056681927 -0.024513843 -0.051840883 -0.022113105
000040 2a 96 60 bd 99 90 51 3d 35 92 aa 3d 7c 79 a2 bd
       -0.054830708 0.05116329 0.08328668 -0.079333276
000050 bb a7 89 bd 4d 6b 72 3d bf b4 52 3c c6 1c 16 bc
       -0.06721445 0.05918436 0.012860476 -0.009162134
000060 fb f6 0e 3d 88 a0 43 3c e7 44 6c bd 90 1f 44 3d
       0.034903508 0.011940129 -0.057682898 0.047881663
000070 b0 d1 3e 3d 73 b1 24 bd 05 44 66 3d f2 c7 a1 3c
       0.046586692 -0.04020829 0.056217212 0.019748662
000080 2f 04 b0 bd 77 8a 3f 3d b8 42 2a 3d 09 d5 9e bc
       -0.08594548 0.04676291 0.041567534 -0.019388692
000090 b9 db 9f 3d e0 c9 1e 3d 66 71 84 3d e8 e2 25 bb
       0.07805581 0.03876674 0.064669415 -0.0025312249
0000a0 f1 fb 9a 3d ee f8 15 bd 79 9b d6 bc 7a 14 84 3b
       0.07567585 -0.03661435 -0.026197182 0.0040307613
0000b0 fa 46 48 bd 42 28 f1 3b 08 09 36 3d 94 b0 92 bd
       -0.048895814 0.0073595354 0.044442207 -0.07162586
0000c0 de a4 6d 3b c9 ae 5e bc f9 f4 ae bb 97 37 0e 3d
       0.0036261599 -0.013591477 -0.0053392616 0.034720983
0000d0 42 0f ab bc 14 fc 88 bd 14 5a 83 bb d4 b7 17 3d
       -0.020881299 -0.06688705 -0.004008541 0.037040547
0000e0 b3 dd d9 bb eb 16 f7 bb 80 9d a2 bd da 06 38 3d
       -0.006648743 -0.007540574 -0.07940197 0.04492841
0000f0 8a d9 2a bd 81 03 73 bd dc 1e 71 3c 2d ad 5f 3c
       -0.041711368 -0.059329513 0.01471683 0.013652128
000100 db 70 39 3c 77 96 4c 3d 25 01 a1 bc d9 dd 67 3d
       0.011318411 0.049948182 -0.019653866 0.056608055
000110 c7 97 27 bc 26 60 bf bd bd fa 6e bd 0c c5 0d 3d
       -0.010229058 -0.09344511 -0.05834459 0.034611747
000120 56 83 6b 3d d7 ec 4e 3d c5 de aa bd 05 76 bf bc
       0.0574983 0.050518837 -0.08343271 -0.023371706
000130 76 1d d2 ba 4b 9e 93 3d ba 0c 1c 3d b3 d5 b9 3c
       -0.0016030509 0.07207926 0.038098074 0.022684908
000140 d2 15 6a bd 09 be aa 3c 0f 24 eb bb 49 36 a0 bd
       -0.057149716 0.020842569 -0.0071759294 -0.07822854
000150 d3 5f d2 bc b3 ed 70 3d 61 91 f1 bb 7c 22 33 3d
       -0.025680458 0.058820438 -0.007372067 0.04373406
000160 b4 c4 9f bd ee ba 39 bd 2c a2 5f bd ed e8 20 3d
       -0.0780119 -0.045344286 -0.05459802 0.039284635
000170 42 15 ab 3c f0 ed 85 3b 8c 4b 46 3d 4a ee 0e 3d
       0.02088416 0.0040872023 0.04841189 0.03489522
000180 02 7a 27 3d ae 78 69 3d 04 f7 1b bd af 8d 54 bd
       0.04088784 0.056999855 -0.03807737 -0.051892933
000190 66 1f 4a bc 9a 65 49 3d ca 6d e6 3b cd 2d c9 3d
       -0.0123365875 0.04916916 0.007032131 0.09823189
0001a0 3b 8e 01 3d ff 5e 87 3c 38 8d e7 bc d5 75 95 3d
       0.031629782 0.01652479 -0.02826558 0.07297865
0001b0 3c c2 4d bd 4e 44 9d bd c1 fd 11 3d d4 df 07 bc
       -0.050234064 -0.07679044 0.03564239 -0.008293111
0001c0 f0 44 28 3d dc a3 bb 3c 4b d9 ea 3c 54 8d 85 bd
       0.04108137 0.022905283 0.028668066 -0.06521097
0001d0 55 f6 2f bc 42 97 8c bd da 9e 33 bd 3c 23 88 3d
       -0.0107398825 -0.06864788 -0.043852665 0.066473454
0001e0 09 45 9a 3b 42 eb 01 bd 10 fe e2 bc 11 46 6f 3b
       0.0047079367 -0.0317185 -0.027709037 0.0036510269
0001f0 76 cc 6b bd 92 26 bd bc f3 cc fb bc 69 3d 4e 3d
       -0.057568036 -0.02308968 -0.030737376 0.050351534

energy.2.weight f4 [128, 128]
000000 8e 3d a6 bd bc f2 94 3c ac fb 25 3d bb 9e 67 3c
       -0.081172094 0.018182151 0.040523216 0.014136965
000010 03 c5 2d bd 4a c5 2d 3d b1 e6 81 3c a4 8e 93 bd
       -0.042424213 0.042424478 0.015857073 -0.07204941
000020 7b 1c 9c 3d 5a c0 b3 3d 73 5d 05 3e 9d 15 5f bd
       0.0762262 0.087769225 0.1302393 -0.05446397
000030 f7 22 24 bd 1b 6f 53 bb 00 46 65 bd 43 3b 11 3c
       -0.040072408 -0.003226227 -0.05597496 0.008864227
000040 38 fb e8 ba 8a 3d fc bc 37 86 89 3d ed 5a e5 3c
       -0.0017775064 -0.030791063 0.067150526 0.027997458
000050 bc 71 2c bc 1b 8d 04 bb 5d e6 8a bd 95 ed 65 3d
       -0.010525163 -0.0020225707 -0.067822196 0.05613478
000060 4b ec 25 3d 4d 76 91 3d 52 5a 79 3d 0a 2b 9b bc
       0.04050855 0.07102642 0.06087715 -0.018941421
000070 d7 01 4f 3d d5 bc 2a bd 54 bd 13 bd 85 7b 99 bc
       0.050538864 -0.04168399 -0.03606923 -0.018735657
000080 79 fb ae bc dd 5b 94 3b fa f7 55 bd 79 a9 3b bd
       -0.021360146 0.0045275525 -0.052238442 -0.04581592
000090 a6 00 6f 3c 40 a9 5b bd b6 14 a5 3b 27 dc 18 3d
       0.014587557 -0.053628206 0.0050378693 0.03731933
0000a0 ee 95 1b bd e1 3e 6b bd cd a5 74 bd ca 2f 2f bd
       -0.03798478 -0.057433013 -0.059728432 -0.042770185
0000b0 72 a4 06 bd 5e 0c 8c 3c 88 1a cb 3d 77 cb a0 3d
       -0.03287167 0.01709574 0.0991717 0.07851308
0000c0 d7 0c 1f 3d c7 e7 08 3d 51 7a 9b bd 5a 2d 9f 3d
       0.038830604 0.033424165 -0.075916894 0.07772322
0000d0 b6 9c 38 3d a5 78 07 3d cd 49 05 3d 4f 72 43 3b
       0.045071326 0.03307404 0.032541085 0.0029822772
0000e0 0f f3 98 3c a4 40 99 3d 02 01 b2 3c 66 ad 55 bc
       0.018670587 0.07483032 0.021728996 -0.01304183
0000f0 e8 de a9 3c d8 59 e6 3c 73 e8 a6 bc 86 e9 4d 3c
       0.020736173 0.028119013 -0.020374512 0.012567883
000100 c6 ef 97 bc 0a 43 1f bd f4 1f b4 bb c6 0d 9d 3c
       -0.01854695 -0.038882293 -0.005496973 0.019171607
000110 7c 2d e9 3c 65 3d b6 3c c2 ae 60 bd b3 ee a6 bc
       0.028464071 0.022246072 -0.054854162 -0.020377493
000120 08 b5 72 bd be 7b 07 bd 16 86 7a bd ef c4 a2 3d
       -0.059254676 -0.033076994 -0.06116303 0.07947718
000130 ec d6 53 3d 66 da db 3c 95 04 23 3d 2a 54 8b bd
       0.051718637 0.026837539 0.03979929 -0.068031624
000140 5b 9b b6 bc a9 3a 8e bc 42 77 09 be fb f2 e6 3c
       -0.022290876 -0.017361956 -0.134244 0.028192034
000150 d9 1d 23 bd f8 ba e4 3c 55 42 61 3d 0e 57 95 3c
       -0.039823387 0.027921185 0.0549949 0.018229987
000160 57 38 9e bd b9 0b a8 3a 08 ac 4b 3d 92 4b a9 3b
       -0.0772559 0.0012820876 0.04972461 0.0051664794
000170 e5 52 3b bd 50 ab 11 3c 4f dd 4d bd ea f5 09 3c
       -0.04573335 0.008890942 -0.050259884 0.008420447
000180 3c 64 ed 3c 0c 12 d1 3c d2 cd c8 bc 84 a0 13 3d
       0.02897846 0.0255213 -0.024512205 0.03604175
000190 5e 06 81 3d 5a 41 04 3d 06 55 a2 bc ee 66 98 3d
       0.063000426 0.032288887 -0.019815933 0.07441507
0001a0 95 65 20 bd 87 06 f2 3c ec a4 81 bc 7b ef 5b bd
       -0.039159376 0.029544128 -0.015825711 -0.053695183
0001b0 25 93 85 bd 07 16 09 3a e6 4a 1f 3c b1 ca 9b ba
       -0.06522206 0.00052294176 0.009722447 -0.0011885968
0001c0 e1 f4 c8 bd e4 88 19 3d 42 33 f2 bc 39 0b a1 bb
       -0.09812332 0.037484065 -0.029565457 -0.004914668
0001d0 2e ab 85 ba 34 73 07 bd 5a 1a 82 bd b1 64 2e bc
       -0.001019811 -0.03306885 -0.063526824 -0.010644124
0001e0 6a 3a 1d 3d 78 21 d9 bc c2 50 6b 3c b6 d6 48 bd
       0.038385786 -0.026505217 0.014362516 -0.04903289
0001f0 fa 5c 2a 3d d7 97 76 bd d0 93 90 3c 18 2e 0c bd
       0.041592576 -0.0602034 0.017648607 -0.034223646
000200 15 f7 34 3d e4 c8 a4 3c f8 97 74 bc d4 65 7a bc
       0.04418095 0.020115323 -0.01492881 -0.015283067
000210 9d cf 3c 3d 19 7a 5f 3c d9 d2 a8 3c 91 44 83 bc
       0.046096433 0.01363995 0.020608352 -0.016023906
000220 2b 5c d2 3c 4c ed 2a 3c b0 3c ff bb 61 9a 1e 3d
       0.025678715 0.010432553 -0.007789217 0.038721446
000230 a3 79 26 3b 88 be de bb 1a 65 ac 3c 2d 4f 16 3c
       0.002540209 -0.0067976154 0.021044303 0.00917415
000240 30 88 ed bc e9 93 22 3d 22 ae 90 3c 4e 59 dc b9
       -0.028995603 0.03969184 0.017661158 -0.00042028207
000250 71 4e a4 3c 10 71 9a bc 83 59 26 bd 8a 46 1d bc
       0.020056935 -0.01885274 -0.04061271 -0.009599337
000260 fb 02 a5 3c 3f ee 9b 3c 36 f1 41 bc 0b cc 60 bc
       0.020143023 0.019034503 -0.011837294 -0.013720523
000270 5a fd bf 3c cd 6f 98 3c 4b 19 aa bb 24 fe 1a bc
       0.023436237 0.018607998 -0.0051910034 -0.009460006
000280 22 15 43 bc a2 63 fc 3b 3f 7d 76 bc da 69 25 bd
       -0.011906894 0.007702307 -0.015044509 -0.04038415
000290 d3 90 be 3c 92 c3 e1 3b 8c 1d 88 bc 24 0f be bc
       0.023262417 0.006889769 -0.016615652 -0.023200579
0002a0 c6 83 c1 3b a7 0b 00 3d 21 37 34 bc b7 96 9d bc
       0.005905601 0.031261113 -0.010999472 -0.019236906
0002b0 2b da f9 3c 24 c5 ba 3c 32 da 5c 3d d4 9a 3c 3c
       0.030499538 0.022799082 0.053919025 0.011511523
0002c0 ff e7 02 3a 6e 70 33 bd db 41 01 3d 75 eb 0c 3d
       0.00049936766 -0.043808393 0.031556945 0.034404237
0002d0 82 8e 53 3d f2 3d 55 bc fd a6 02 3d b7 94 96 3d
       0.051649578 -0.013015257 0.031897534 0.07352584
0002e0 11 36 96 3c 7b 93 eb 3a 9c 3c 92 3c f4 78 35 bc
       0.018336328 0.001797303 0.017851166 -0.011076201
0002f0 f6 27 d1 3b ae 3c 1e 3d 03 46 85 3d b4 02 57 3c
       0.0063829375 0.038632087 0.06507494 0.013123203
000300 56 89 1a 3b d9 33 f4 bb 69 89 37 3c 38 a1 d7 bc
       0.0023580394 -0.00745247 0.011202195 -0.026321992
000310 a2 ce b1 3c 47 22 8a bb 34 83 6a 3d a6 25 5e bd
       0.021704976 -0.004215512 0.05725403 -0.054235123
000320 ad a5 9e 3c 58 b2 c3 bc 35 62 14 bd 8c 40 3b 3d
       0.01936611 -0.023888752 -0.03622647 0.045715854
000330 92 04 95 bb a3 56 d4 bc dd cc af 3c 0e 6b 24 bd
       -0.004547664 -0.025920218 0.021459991 -0.040141158
000340 b4 98 5c bc f6 2e 6c 3c bb 28 50 bd 6f 0f 1b bd
       -0.013464142 0.014415493 -0.050820094 -0.037856515
000350 ab c6 f6 3b 08 d9 9a bb 61 21 13 3d 56 07 6b 3d
       0.0075310073 -0.004725579 0.035920504 0.057380043
000360 92 78 38 bc 3f 2f 88 3c 4a 0b 2c bc da f3 de bc
       -0.011259215 0.016624091 -0.010500738 -0.027215887
000370 7f b9 90 3b e1 47 77 3b 9f 09 86 ba 69 1f be 3c
       0.004416644 0.0037732052 -0.0010226256 0.023208337
000380 d4 bc b1 3c 1e b2 1c bd 4b e7 25 bc 50 fd 49 3c
       0.021696486 -0.038255803 -0.010125945 0.012328461
000390 14 12 22 bd ee 0a 1d bd 35 b5 90 bc bd f8 d6 3c
       -0.039568022 -0.0383405 -0.017664531 0.026241655
0003a0 71 d4 f0 bc 96 fb 9d 3c a1 c9 04 3c 05 ef 88 bc
       -0.029398175 0.019285005 0.008104713 -0.016715536
0003b0 94 94 de 3c d4 e3 19 bd cb e1 bd 3c 1b 4f 18 bd
       0.027170457 -0.03757079 0.023178956 -0.037184816
0003c0 23 d3 23 3c 5e e1 b2 3c 41 9c 7d 3c e5 55 bc 3b
       0.009999069 0.02183598 0.015479148 0.005747544
0003d0 cb db a0 bc 49 c6 1b 3d 41 ae fc 3b 0d a3 00 bc
       -0.019636055 0.038030896 0.0077112024 -0.007851374
0003e0 d7 be 1d bd 78 1b 3a 3b ee fc 21 3c ed 29 86 3d
       -0.038512077 0.002839772 0.009886963 0.065509655
0003f0 fb 23 18 3c 64 87 06 bd 83 31 87 bc 64 7c 3b bd
       0.009285922 -0.032843962 -0.016503101 -0.045772925

energy.2.bias f4 [128]
000000 aa 60 2d 3d f6 16 d8 bc 19 47 3e 3d 5f 88 d7 bc
       0.042328514 -0.026378136 0.046454523 -0.026310144
000010 33 ed 5a bb 06 e9 8d 3c 21 98 b9 3c 29 d1 ef bc
       -0.0033405542 0.017323028 0.022655549 -0.02927454
000020 31 cc c4 3c 2a 60 d9 bc 2f 59 1f bc 31 d1 4c ba
       0.024023147 -0.026535112 -0.009725853 -0.00078131544
000030 2b 6e 66 3d 69 c0 4e 36 61 04 a2 bd 92 d4 68 b8
       0.056257408 3.080839e-06 -0.079109915 -5.5511082e-05
000040 92 26 4e bc ee c1 0a 3d 5d 93 0c 3c a5 eb 58 3c
       -0.012582438 0.033876352 0.008580056 0.013239776
000050 ac 0c 94 bd 09 e5 f7 3b 34 38 5f bd 26 8e be 3c
       -0.072289795 0.007565145 -0.05449696 0.023261141
000060 63 d2 32 bd f9 d9 a8 ba 30 38 2b 3d d9 83 77 3d
       -0.04365767 -0.0012882344 0.04180163 0.060428474
000070 40 7f b0 3c 66 9c 1a 3d 85 f9 55 bc 1a 3d a6 bc
       0.021545053 0.03774681 -0.013059978 -0.020292807
000080 d7 31 52 bd fd e2 73 bb 3c 2e 0f 3c 37 5c be 3c
       -0.051317062 -0.0037214153 0.0087390505 0.02323733
000090 49 05 fa 3b db fd 68 3c ce f1 86 bd 7e f4 46 bc
       0.0076300246 0.01422068 -0.06589089 -0.012143252
0000a0 95 f2 4d bd b4 7f 84 bd 42 2d 9e bd b3 cd 02 bc
       -0.050280172 -0.0646967 -0.07723476 -0.007983613
0000b0 15 3a 4c b8 16 89 cb bb a0 9d 7c bc 0a 7e 4b bd
       -4.8691483e-05 -0.0062114103 -0.01541844 -0.049680747
0000c0 35 14 5b bd d1 cf 0c 3d b4 60 5b 3c c0 bc 87 bd
       -0.053486068 0.034377877 0.013389755 -0.06627798
0000d0 7f 3f e8 3c 22 5c e1 ba 92 b2 9a bd b8 3b 81 bd
       0.02835059 -0.0017193595 -0.07553591 -0.063102186
0000e0 82 51 35 bd 33 26 0b bd 19 6e a6 3c 01 10 62 3c
       -0.044267185 -0.033971976 0.02031617 0.013797761
0000f0 d0 69 9e 3c 2a 1c b6 bd 3e 7d fe bc 60 cd 96 bb
       0.019337565 -0.088920906 -0.03106558 -0.0046021193
000100 56 8e 8a bb ae 9e 2f bd fd c7 e4 bb 21 8c b1 bc
       -0.0042283935 -0.042875938 -0.0069818483 -0.021673264
000110 78 9f 3e bd 77 53 e5 bc 66 6d 98 bd 48 62 73 bd
       -0.0465388 -0.0279939 -0.07442741 -0.0594199
000120 c0 f0 0e bd b1 0a f2 3c 52 ee a7 bc 9d 01 94 bd
       -0.034897566 0.029546114 -0.020499382 -0.0722687
000130 ec 81 fb 3b 58 1d 8e bc e8 93 38 3b 78 44 fe bc
       0.0076754 -0.017347977 0.002816433 -0.031038508
000140 63 3c 42 3c e9 f6 81 bc e9 97 1a bc 57 d1 8d 3d
       0.011855218 -0.015864806 -0.009435632 0.06924694
000150 39 3a 80 bc 61 74 a4 bc 3b a2 2c 3d 1a c4 73 b6
       -0.015652763 -0.020075025 0.042146903 -3.6323968e-06
000160 8b d9 e8 bb 37 ef 1a bb 07 76 ea bc bd a2 a5 3c
       -0.0071060113 -0.0023641118 -0.028620733 0.020219201
000170 71 3f 60 3d 4c 78 86 bd 89 4f 34 3d f0 c6 8a 3c
       0.054748002 -0.065659136 0.044021163 0.016940564
000180 86 a6 73 bd 7c 98 6b 3b 5b be 8f b9 ad 4d 87 bd
       -0.05948498 0.0035949042 -0.0002741691 -0.06606612
000190 73 9d 46 3d e6 19 52 bd 4f 41 a8 b8 8e 96 7b bd
       0.04849 -0.05129423 -8.023029e-05 -0.061422877
0001a0 b6 9a e4 bc 33 04 b8 3c d8 5f 3c bd d7 c1 c2 3b
       -0.027905803 0.02246294 -0.04598984 0.0059435177
0001b0 c4 2c 89 3d 0b a1 67 bd 80 a1 48 3d 06 60 68 bd
       0.066979915 -0.056550067 0.048982143 -0.0567322
0001c0 ee 73 0d bc 48 19 1f bc c9 17 1f bd 9a 3c 2d 3c
       -0.008633597 -0.009710617 -0.038841043 0.010573531
0001d0 45 94 73 bd 19 5d 90 3c b0 7d 62 3d c8 87 c4 3c
       -0.059467573 0.017622517 0.055295646 0.023990527
0001e0 a5 3f 86 3d 64 0d a6 bc 32 87 44 3d 0a 4c 3f 3d
       0.06555108 -0.020270057 0.047980495 0.046703376
0001f0 20 82 30 bd 15 0c 9a bc d4 2f dc 3a 59 d3 da ba
       -0.043092847 -0.01880459 0.0016798922 -0.0016695067

energy.4.weight f4 [1, 128]
000000 cb a2 76 3d e1 5b 36 3c b0 2f c3 3d f9 eb fb bd
       0.060213845 0.011130304 0.0953058 -0.123008676
000010 9a 7e 36 bb db 7f f1 3c 70 ce 98 3a 3b 01 67 3d
       -0.0027846457 0.029479912 0.0011658203 0.056397658
000020 8a 66 f1 bb 09 bd 11 bd 80 35 65 bc 34 8e 2b 39
       -0.00736696 -0.03558067 -0.013989806 0.00016360806
000030 20 f6 d2 3d 16 cc bc 31 de 88 8e bd 03 29 15 b5
       0.10300851 5.494722e-09 -0.06959699 -5.5566505e-07
000040 d1 dc 05 be 9f 18 be 3d c2 40 7b bc 02 a7 fb 3d
       -0.13072516 0.0928204 -0.015335264 0.122877136
000050 73 29 69 bd c0 27 cd 38 0a de f8 bc ac 6e 14 bd
       -0.056924295 9.782566e-05 -0.030379314 -0.036238357
000060 ca 90 8a 3d fc 0e bf 3a 17 b9 87 bd 09 af fb 3d
       0.067658976 0.0014576609 -0.066271 0.12289245
000070 af cf bb bd ae 0e 0d 3d 63 f0 80 bd 84 2b 9b bd
       -0.09170472 0.034437828 -0.0629585 -0.07576659
000080 a0 db 95 bd c3 2e a7 37 14 e5 60 bd 28 d0 95 ba
       -0.07317281 1.9929726e-05 -0.054905966 -0.0011429833
000090 2b 9f f4 3c 10 16 59 ba e3 e5 13 3e 02 98 0b ba
       0.029861053 -0.00082811806 0.14443164 -0.000532508
0000a0 75 65 22 3e f1 ed ca bd 3a 5e 75 bd 64 a3 8f 39
       0.15859015 -0.09908665 -0.059904315 0.0002739682
0000b0 cc bd 26 3e 7a f5 19 b9 f3 bd 2c 3d 95 32 e6 ba
       0.1628334 -0.00014682664 0.042173337 -0.0017562682
0000c0 31 2c 1b 3e 37 49 5b bd f8 a8 1c 3d 74 c8 cb 3d
       0.15153576 -0.05353662 0.03824708 0.09950343
0000d0 24 d1 e2 3d 95 2b e1 36 67 65 ed bd 12 06 c8 bd
       0.11075047 6.710596e-06 -0.115916066 -0.09766783
0000e0 46 c9 8e bd 45 f3 a7 bd f8 41 33 3d 71 aa 7f 3a
       -0.069719836 -0.08200697 0.043764085 0.0009752876
0000f0 ae d4 0b be 0f 59 d3 bd bb 0b c3 3a 92 7d d2 bc
       -0.1365535 -0.10319721 0.0014880815 -0.025694642
000100 89 33 27 38 42 a5 a2 bd e3 39 c7 bb 0d c8 9b bc
       3.98639e-05 -0.07941677 -0.0060798987 -0.01901629
000110 4d 11 2b 3d 23 43 79 3d 57 f8 90 bd 6a 3f 01 bc
       0.041764546 0.060855042 -0.07078617 -0.007888654
000120 0f e3 67 3d 5b 36 d1 3c d4 68 c3 38 8e 2a a7 bc
       0.056613024 0.025538614 9.31785e-05 -0.020406034
000130 63 48 ec 3c 96 89 9d 3c 25 19 3c b9 ef e8 b0 bd
       0.02884311 0.019230645 -0.00017938444 -0.086381786
000140 51 12 f3 bd c7 95 cc 3d 8b 2c e9 3d ce 60 a4 3d
       -0.11868728 0.09989505 0.11385449 0.080262765
000150 ee f4 e3 bc 1d 45 61 3b 70 42 8c 3b a3 00 1f b3
       -0.027826753 0.003437347 0.004280381 -3.702065e-08
000160 2f 96 01 ba c2 e9 f3 38 42 44 b3 b9 f1 e3 1a 3e
       -0.00049433386 0.00011630684 -0.00034192397 0.15126015
000170 8f 17 9f bd 1d 2b aa bd 4b 54 95 3c 6e a5 1c 3e
       -0.07768165 -0.083090045 0.01822867 0.15297481
000180 a9 0b b9 3d 7f a9 c0 bc 4e 60 11 b6 97 61 94 bd
       0.09035427 -0.023518322 -2.166274e-06 -0.07245176
000190 62 95 cd 3d 21 91 96 bc cc 5e 9d b4 90 d3 c8 3d
       0.10038258 -0.01837975 -2.9312503e-07 0.09805977
0001a0 6f df f4 3d c1 67 69 bd 58 b9 04 3e 3e 5c bb 3b
       0.11956679 -0.056983713 0.12961328 0.0057177832
0001b0 b1 a4 0a 3d 04 f7 70 3d c8 a7 ea bb ba a8 00 3e
       0.03384847 0.058829322 -0.0071611144 0.12564364
0001c0 9e e2 d3 bd a0 4b 1d 3e f4 13 3b bd 78 02 94 3b
       -0.10345958 0.1536088 -0.045673326 0.004516896
0001d0 09 c6 66 3d de d3 97 3d d2 eb 27 3d b8 d3 8a 3d
       0.056341205 0.07413457 0.04099638 0.067786634
0001e0 fa 06 41 3d e9 47 40 3e 05 63 06 3c 45 b0 63 bd
       0.047125794 0.18777432 0.008202319 -0.055588026
0001f0 98 c7 20 3d cb 2d 29 ba 87 11 1b b8 20 e0 a7 3b
       0.039252847 -0.0006453662 -3.6971203e-05 0.0051231533
